modelos_s2/dqn_entorno2.pth (torch, 313597 bytes, 24 tensors)

network.0.weight f4 [128, 12]
00000000: 0546 dcbe 777f 03bf fe09 8abe 85bd b23f
00000010: 4cf7 38be 95a0 d53e 40bd babd 6e2d 023f
00000020: 4753 05c0 19e3 da3e 7e4c cdbe fe28 103f
00000030: cca5 883c 2e15 4dbe b2b0 7ebf 2d7c 3ebf
00000040: c6cf ddbf 78bf 7e3e a06d 423d 1e4c 923e
00000050: 3622 5fbf 4a4c 0dbf f9b7 a6be 01da 06bf
00000060: c3c5 1a3f 732b 03bf eba9 a93f 9ec7 1fc1
00000070: 8ce7 233e 6f7c 4a3d 7d18 05bf 190f a6be
00000080: c6d2 20bf 572e 98bd 0138 fc3e 54c1 a8bb
00000090: c081 b13c f9e4 e9bf 1e3e f8bf e5ee b93e
000000a0: cd0e 9040 2545 093f ea4f e0be dd32 033f
000000b0: 69e6 c9bf cd6c 14bf 2da3 7fbf 3d83 403f
000000c0: b6fc 5c3e 8f72 02bf 5d21 d33b eae4 dcbe
000000d0: c4e8 c7bf 3b52 8cbd 9566 233d 1228 223e
000000e0: a8fc 7dbf a732 26be 1522 43be e558 8cbe
000000f0: fecc e73b 902a 163e 3245 9ebf f458 0fbf
00000100: e8e4 9dbf 61e4 653e 9c57 f8bd be5f 1b3f
00000110: 5b2e ba3e 2522 0abf 802f 6dbe e3fd d6be
00000120: 3d98 64bd 0469 9b3e 2a1f f33f 5662 32c0
00000130: e989 8fbd fe99 943d e9e0 96bc 7911 6cbe
00000140: 1692 fabd cc99 b83e 50d4 2e3f 8d70 45bd
00000150: 773a 153f a477 0e40 908b e2bf e0c0 fd3d
00000160: 3e5f b33f eed8 93c0 8026 55bf 137f 40c0
00000170: 4fe3 23bf 6003 02c0 1ab6 5d3f 98d9 273f
00000180: 52f4 67bf 90ac afbf 5b80 083c 765d cbbf
00000190: 649e 6cbf 96f8 103f c132 583f ab35 203d
000001a0: 4d3c 67bf f98a 713f 7c00 02bf 45c0 90bf
000001b0: 3010 d13e c9ee 07be 2a59 093f 5c02 4ac0
000001c0: 4b9a 173e 7f76 7b3e bbe6 0fbf 02f6 92be
000001d0: 29d2 dd3d 098b 48bf bbf6 ab3f a07d 913e
000001e0: 583a a03e a174 cb3e 13e5 09c0 c56c 12c0
000001f0: 0229 0540 5a89 043f 22df 12bf 35bd 55bc
00000200: 5ef5 733e 6f1d bbbe 6eb0 98be d81a a33f
00000210: 09f9 ff3d ab74 303f 36cc 21bf e309 e53e
00000220: 495c 5ebf 33f2 643e d1f4 b7be 9c84 cb3e
00000230: c043 12bf ccba d1be 2c1e bfbd 4daf 713e
00000240: 9864 8e3f 0b14 cabd d6eb 96be 7c63 ebbf
00000250: d75f 253f 395f dbbd a729 82bf 630c 36bf
00000260: af4d 43bf d9b5 133d 278c 7a3e 3934 a13e
00000270: 1638 8f3f 7f10 453f 0ad1 23bf aeb4 e8be
00000280: 8e42 4bbe 4541 cebd aa10 8cbf 1599 373e
00000290: d826 903f 2dfc 05be 940b 13bf 8603 b3be
000002a0: 717f a13f a954 1abd 74de 6fbe ae12 68c0
000002b0: 4042 4d3f 1f2a 39be fc0e abbf c99c 07bf
000002c0: 0ac8 9cbf 9fd0 6f3e 2a3f 94bf e76d a03e
000002d0: 0141 143e f241 cf3d 31e0 3b3e fbbc 8fbd
000002e0: 07a9 ae3d ac94 5d3e 614b cd3d 6db2 bf3d
000002f0: 7fb6 09bc 5070 93be 317f 263e 92fd 11be
00000300: 8bd3 233f d5ab cabe 09f9 f2bf b971 bec0
00000310: a57e afbf c3a2 c6be f023 23bf 3388 46bd
00000320: 6728 8bbd 9eaa 3dbf 4765 ddbc dca8 adbf
00000330: 19ac 92bf 7d29 b5bd f40d c3be b7c6 2a3f
00000340: b250 073f 84a7 333f f78a 953f 26e8 bdbe
00000350: 71d6 8b3e 17f9 2d40 c0a7 3cbf ca2c 12bf
00000360: 0398 83bd 3c25 a43e 7460 46c0 3c19 e7be
00000370: d8a1 58bf d99a fa3e cc3d 16be 543b a03e
00000380: 1cd1 213f 6fc5 c03d 3306 693e 0f9a 6f3e
00000390: c597 91be aa16 303e 34a7 26bf b1b9 953f
000003a0: ea61 2d3f 16ea 763e b3dd a83e 71d1 26bf
000003b0: 3127 343f b401 183f 15f9 3bbf cbcb e43e
000003c0: 16b6 66bd 7549 db3d 579c 883f 8a0d 9b3f
000003d0: 3750 de3e 2ef0 103e 0f86 e03e 12ee 583e
000003e0: 75e1 f2bf 10c1 413e ecdc 7a3e 7780 4c3f
000003f0: be07 2cbe 9281 22be 8434 02bf 39ee 0c3f
-0.4302217 -0.5136637 -0.26960748 1.3964087 -0.18063086 0.41724077 -0.09118128 0.5085057
-2.0832078 0.42751387 -0.4009742 0.5631255 0.01668062 -0.2002761 -0.99488366 -0.7440823
-1.7329032 0.24877727 0.047467828 0.28573698 -0.87161577 -0.5519453 -0.32562235 -0.526764
0.6045801 -0.51238173 1.325498 -9.986235 0.16006297 0.049435075 -0.5199049 -0.32433394
-0.62821615 -0.074307136 0.49261478 -0.0051499996 0.021668315 -1.8273002 -1.9393957 0.36315075
4.5018067 0.5362113 -0.4381097 0.51249486 -1.5773441 -0.57978517 -0.9985836 0.75200254
0.21580777 -0.5095605 0.006443186 -0.43143398 -1.561791 -0.06851622 0.03989275 0.15835598
-0.9921365 -0.1623026 -0.1905597 -0.2741157 0.0070739975 0.14664674 -1.2364867 -0.55995107
-1.2335482 0.22450401 -0.12126085 0.60692966 0.3636349 -0.5395835 -0.23162651 -0.41990575
-0.05580925 0.30353558 1.8993886 -2.787252 -0.07008726 0.07255934 -0.018417792 -0.2305354
-0.12234895 0.36054838 0.68292713 -0.04820304 0.58292335 2.2260523 -1.7698841 0.123903036
1.4013441 -4.6202307 -0.8326187 -3.007756 -0.6401872 -2.031456 0.8660599 0.65566397
-0.9060718 -1.3724537 0.008331384 -1.5887897 -0.92429185 0.5662931 0.84452444 0.03911368
-0.90326387 0.9435268 -0.5078199 -1.1308676 0.40832663 -0.13274683 0.5365168 -3.156394
0.14804952 0.24556921 -0.5621144 -0.28703314 0.108311005 -0.7833715 1.3434671 0.28416157
0.31294513 0.39737418 -2.1546066 -2.2878888 2.080628 0.5177208 -0.57371724 -0.013045599
0.23824069 -0.36545894 -0.29822105 1.2742567 0.124986716 0.6892802 -0.63202226 0.44734105
-0.86859566 0.22358017 -0.35928968 0.3974961 -0.5713463 -0.40962827 -0.09331927 0.23602028
1.1124449 -0.09867104 -0.29476804 -1.8389735 0.64599365 -0.10711522 -1.0168961 -0.7111265
-0.7629041 0.036062095 0.24467526 0.31485155 1.1188991 0.76978296 -0.63990843 -0.45450348
-0.19849607 -0.10071043 -1.0942585 0.1792949 1.1261854 -0.13084479 -0.5743954 -0.34963626
1.2617017 -0.037678394 -0.23424703 -3.62614 0.80179214 -0.18082474 -1.3363948 -0.5297361
-1.2248547 0.23419426 -1.1581776 0.3133385 0.14477922 0.1012 0.18347241 -0.07018467
0.08528333 0.21638745 0.10024143 0.09360204 -0.008405327 -0.28796625 0.16259457 -0.14256886
0.63994664 -0.39584222 -1.898225 -5.951382 -1.3710524 -0.38796052 -0.6372671 -0.048469733
-0.067948155 -0.74088466 -0.027025832 -1.3567157 -1.145877 -0.08845804 -0.38096583 0.66709465
0.52857506 0.70177484 1.1683034 -0.37091178 0.27312043 2.7183282 -0.73693466 -0.5709959
-0.06425478 0.32059658 -3.099637 -0.4513644 -0.84621954 0.48946264 -0.14672011 0.31295264
0.632097 0.094126575 0.22756271 0.23398612 -0.28436103 0.17196146 -0.6509888 1.1697294
0.6772753 0.24112734 0.32981643 -0.6516333 0.703723 0.593776 -0.73426944 0.44686732
-0.056325994 0.1070737 1.0672711 1.2113507 0.43420574 0.14154121 0.4385228 0.21184567
-1.8975054 0.18921304 0.24498338 0.7988352 -0.16799828 -0.1586974 -0.5086138 0.55051

network.0.bias f4 [128]
00000000: f058 233f e4a9 d93e c80f 16be e15b 42be
00000010: 67f2 d73c d8c6 1a3f eed7 d9bd 51eb 8e3e
00000020: e96a edbe 54f5 ccbe 77dd 8ebe e0c9 753f
00000030: 6fcd 40bf 2536 e13e 0bc6 2dbf 1592 83be
00000040: af32 7ebc 2719 c5be 84aa 653f 5d9d 66be
00000050: 324a e3bd 6cc0 8e3e 796c 133f a37f 1f3f
00000060: 1049 633d 1029 5a3e 7126 35bf a9bd 1bbe
00000070: 5c2d 8bbe f532 f1bb 9270 8e3e bc31 273f
00000080: 418e 7d3e 5166 66be a86c f9bd 8124 07bf
00000090: 02a9 73bf ba6f a93e 50f7 87be eff0 e7be
000000a0: 9f59 67be d41b 91be 6e57 9abf 39b4 2e3f
000000b0: ddad 13bf 4268 10bf 063c 5e3d 3105 b3be
000000c0: befd f03a 86ff 453f 1136 ed3d 45c9 a13e
000000d0: a7ad 34bf 72b9 bcbe 25e7 02bf 044f 0dbf
000000e0: 2018 1b3e 422d 45be 76f3 58be f902 60be
000000f0: aa69 8bbe bc00 0bbd 8d52 743e 2972 513d
00000100: b753 843d b7fb b6be a7ea c63e 2faa 543f
00000110: d4d0 033f d59d babe 8d1a ecbc a925 12be
00000120: 4b2b 24be 3bb2 66be 2030 cd3e 8ca3 11be
00000130: 6b9a 9a3e 9bec bf3e 7a7a b93e 137d 193e
00000140: fe6b 4ebd 8560 c6be ce55 88be c70f 76bc
00000150: 475f 6fbf 35fa 123f c802 21bf c10e 91bc
00000160: 30ef 43be 5666 893e 5f92 1d3f cca7 34bf
00000170: 242a bebc 2913 8abe 37e3 5fbf ff93 b7bd
00000180: 81b8 cebd 2525 bc3e 2f54 cf3e 4dac 3ebf
00000190: 68e7 e73e 8eec abbe e2e1 d93d 844c 04be
000001a0: d2e5 6a3f 65ae d8be f905 703f 6112 503f
000001b0: edeb 80bf c58d 033f c00b 723f 9d9d f03e
000001c0: 76fa 533e 96fd 5a3e 8574 4b3f a9be 453f
000001d0: 7ba6 1a3f 2206 80be c51f 9a3e 9762 bebd
000001e0: a4d6 99be 0a64 3fbf cb88 533d 11dd 6bbe
000001f0: 48c0 b53d 4fe9 2abf 8319 21bf 9e90 8dbe
0.6380758 0.4251243 -0.14654458 -0.18980362 0.026360704 0.6045966 -0.106368884 0.27913907
-0.46370628 -0.4003092 -0.2790334 0.9601116 -0.75313467 0.43986621 -0.67880315 -0.2569739
-0.015515014 -0.38495752 0.8971331 -0.22520967 -0.11098136 0.2788118 0.5758739 0.62304133
0.0554896 0.21304727 -0.7076178 -0.15209068 -0.27183044 -0.007360811 0.2782026 0.65310264
0.24761297 -0.22499968 -0.12178928 -0.52790076 -0.9517976 0.33093053 -0.26555872 -0.45301005
-0.22592781 -0.28341544 -1.2057931 0.6824375 -0.5768717 -0.56409085 0.05425646 -0.34964898
0.0018386168 0.7734302 0.11582578 0.3159887 -0.7057747 -0.36860234 -0.5113395 -0.55198693
0.15145922 -0.19255546 -0.21186623 -0.21876134 -0.27229053 -0.033936247 0.23859616 0.051134262
0.0646128 -0.35738918 0.388509 0.8307218 0.5149052 -0.3644854 -0.028821254 -0.14272179
-0.1603214 -0.22528927 0.4007578 -0.14222544 0.30195937 0.37485203 0.36226255 0.14989118
-0.050395958 -0.38745514 -0.26627964 -0.01501841 -0.93504757 0.57413036 -0.6289487 -0.01770723
-0.19134212 0.2683589 0.6155147 -0.7056854 -0.023213454 -0.26967743 -0.8745608 -0.08963775
-0.10093785 0.3674709 0.40493914 -0.7448166 0.45293736 -0.33578914 0.10638787 -0.12919813
0.9175693 -0.42320552 0.93759114 0.81278044 -1.0071999 0.513882 0.9454918 0.4699525
0.20701012 0.21385798 0.7947467 0.7724405 0.6041028 -0.2500468 0.30102363 -0.09296148
-0.3004657 -0.7476202 0.051644128 -0.23033549 0.08874565 -0.6676225 -0.6292955 -0.27649397

network.2.weight f4 [128, 128]
00000000: 362b c6be 7116 5bbe 675d c4bf e78a 413f
00000010: eba8 333f 47fa 12bc 332d a3be 6c28 17c1
00000020: 99a3 423d 5014 fd3e 2fb5 263f 7005 afbe
00000030: 152c 5e40 3b6c 8bbc 1696 c13e adce 653d
00000040: d8c1 0c3f d87d 243d 24d2 2b3f 47c4 8a3f
00000050: ad25 ccbe 9bb3 8ebd 707b 16be 8a93 20be
00000060: f47c 463f 1570 173f e82b 4cbe 2f76 29bd
00000070: 3430 4ebf 090c 4f3c 049d 873f 54e0 873e
00000080: 82cb 85be 4371 ecbd 52f0 acbe 91d4 e0be
00000090: a5b1 abbe a007 0f3f ca07 073f 1a76 bb3e
000000a0: e4b7 02bf 706b 41be 1d61 edbf ff97 d9bd
000000b0: aecb 183e 59fb d13d b439 d93e c35c 2dbe
000000c0: e7b7 5ebe c8f9 723d 541e c0bd a994 1e3f
000000d0: 29ef 673f 9a65 df3d f515 6ebe 4e70 503f
000000e0: 94e0 133e 0999 723d a000 00c1 bed2 4e3a
000000f0: 251c 34bd fedf cc3e 462c 8f3e 1f73 6e3d
00000100: a230 0bbf 641c 5cbe 3afa 353d f31b 67be
00000110: b56a 053e 21a6 ed3e e8a9 c1be bdc2 083f
00000120: 278b a43e 57e4 243d e84f e2bd eaf0 00bd
00000130: 415b 57be 5dc2 babd e396 ba3e 7d68 8b3d
00000140: 1dc7 9a3c b742 253f 8e51 393e 04fb 1a3f
00000150: ab19 babf b0c1 91bd ddf8 873e 46d7 3a3f
00000160: 5ec4 963d 8df7 3e3f 6638 84be 01df 3c3f
00000170: 460d 53bd f933 c6bc dfe0 10be 0dc7 bc3b
00000180: fd2e ddba 05d0 403e 13c6 cbbe 7ecc 643f
00000190: 430d 4dbe c241 a8be 5290 2cbe 90b1 dc3e
000001a0: 2fed 96be 57cd bb3e a808 20be fdc4 35be
000001b0: 89c6 063f a4cc 283e e89d 2fbe 8aed 3abf
000001c0: 5e0e 9d3e 88a5 743f cedd 10be b881 833f
000001d0: 5298 2dbd 34b6 e93c d265 b4bc a5f3 cbbd
000001e0: d359 203b f5ea a0be 9496 b83e 130d 543d
000001f0: 03cb ab3c 2ea0 8540 df5b e2bd 86d2 c2c0
00000200: 6048 9e3d c7f4 913e 1fe6 5ac0 7dec d63f
00000210: b8a2 303e 2859 813e 5d01 1ebf b12f 83c0
00000220: 0874 3cbe 1ec0 a5c0 52fb c53d 27a0 95bd
00000230: 0d79 d43f cbc9 323e 95c7 16bf 0458 e53d
00000240: 2380 56bf 08d4 cebf d730 223f dca0 6bbf
00000250: aef8 7ebf 31d4 2e3e 3014 a1be 0a3c e3be
00000260: 0df2 cd3e ab8c 803f 71f7 e03e 9a00 9bbc
00000270: c714 443f 5c43 92be c9dc 7ebf b833 173f
00000280: 4e3b 18bf e027 533a b2d3 aabf 0c32 17c1
00000290: ae51 0fbf 6979 7b3f d282 26bf 5644 86bf
000002a0: 27b6 d9bf c975 2f3f b673 86c0 16a8 743d
000002b0: e6de fe3e 988b a63d f313 2cbe bcde 733d
000002c0: 4d76 28be 8d23 a1bd 0748 003f 566f fb3e
000002d0: 9fa8 b5bf 44d6 173f 370e f5be 2756 973d
000002e0: 458f 753e 4362 82bd 7497 e3c0 2817 a33d
000002f0: c521 a83d 4f37 a63e 357e 41bf 0693 273e
00000300: a8b9 953e 0eef 0b40 b3f6 143e b7c9 583e
00000310: cbd6 9fbe 65d3 a0bd a203 1f40 7742 2bbd
00000320: d518 f73e 6bd6 b3bd 31fe 5a3e 665d a13c
00000330: 330c 153f bcc4 74be a2a4 fd3e a302 963e
00000340: 0ffe 993d 14b9 d8bd 2bd0 f0be fca1 363f
00000350: 6dca 95be 6614 76be 9f61 a13f 5848 873f
00000360: f1c2 a83c 4116 173f 6bb6 cbbe 2b29 18be
00000370: 047b 9f3e 0642 143d 4df7 bdbf 8b74 263d
00000380: 4b38 723d 06a1 923e eb63 33bd 3bb5 6f3d
00000390: fd6a e9be 6dc7 09bc 01f0 f13d 88aa 55bf
000003a0: 849d bbbe 280d 7a3f 4d2e 8b3e 9baa 083f
000003b0: 00b4 cb3e 39ad 783e 501c 33be d58a 0ebf
000003c0: 7f38 d03e faa5 ee3e 53dd 7dbe d4f1 5d3f
000003d0: 9e53 f6be 7de6 253d 1dca 77bf ef7b 4e3e
000003e0: 389c 893c 0473 70bf e9c4 6e3f 8e8a 1fbd
000003f0: 681c 923d 007d 8a40 2965 b6bb 2451 a1c0
-0.38704842 -0.2139528 -1.5341004 0.75602573 0.70179623 -0.008970804 -0.31870422 -9.447369
0.0475193 0.4942956 0.65120214 -0.34183836 3.4714406 -0.017019382 0.3780982 0.056105305
0.5498328 0.040159076 0.67117524 1.0841149 -0.39872494 -0.06967851 -0.14695525 -0.15681282
0.77534413 0.591554 -0.19938624 -0.041372474 -0.805423 0.012637147 1.0594792 0.26538336
-0.26131827 -0.115450405 -0.337771 -0.43912175 -0.3353397 0.5587101 0.5274626 0.36613542
-0.51061845 -0.1888864 -1.8545262 -0.10624694 0.14921448 0.10253019 0.42426836 -0.16929917
-0.2174984 0.05932024 -0.09380785 0.6194559 0.90599304 0.10908051 -0.23250563 0.81421363
0.14441139 0.059227977 -8.000153 0.00078896794 -0.043972153 0.40014642 0.27963465 0.058215257
-0.5437108 -0.21495205 0.044428088 -0.22569256 0.13028987 0.4641581 -0.3782494 0.5342215
0.32137415 0.040256824 -0.11050397 -0.031479754 -0.21030904 -0.09119103 0.36443242 0.06807039
0.018893773 0.64554924 0.18097517 0.6053927 -1.4539083 -0.07117021 0.26557055 0.7298473
0.07361673 0.7459648 -0.2582428 0.73777777 -0.05152633 -0.024194704 -0.14148282 0.0057610334
-0.0016874966 0.18829353 -0.39799556 0.8937453 -0.2002459 -0.3286267 -0.16851929 0.4310422
-0.29477832 0.366801 -0.15628302 -0.17750926 0.5264669 0.16484314 -0.1715008 -0.73018706
0.30675024 0.9556508 -0.14147112 1.0273962 -0.042381592 0.028529264 -0.022021208 -0.09958581
0.0024467602 -0.31429258 0.36052382 0.05177028 0.020970827 4.175803 -0.11052679 -6.0881987
0.07728648 0.28507063 -3.4202955 1.679092 0.17249572 0.25263333 -0.6172083 -4.0995717
-0.18403637 -5.179702 0.09667076 -0.07305937 1.6599442 0.1745979 -0.5889829 0.11198428
-0.8378927 -1.6158457 0.63355774 -0.92042327 -0.99598205 0.17073132 -0.31460714 -0.44381744
0.40223733 1.0042928 0.43938783 -0.018921185 0.76594204 -0.28567016 -0.9955564 0.5906329
-0.5946549 0.0008054953 -1.3345854 -9.449718 -0.5598401 0.9823213 -0.65043366 -1.0489604
-1.7008713 0.685391 -4.201625 0.05973061 0.49779433 0.08132094 -0.16804485 0.059538588
-0.16451378 -0.07868109 0.50109905 0.4910838 -1.4192084 0.5931132 -0.47862408 0.07389479
0.23980434 -0.06366398 -7.112238 0.07963401 0.08209566 0.32464072 -0.755832 0.16364679
0.29243207 2.1864657 0.14547233 0.21170698 -0.31218562 -0.0785282 2.4845967 -0.041811433
0.48261133 -0.08781131 0.21386029 0.019697856 0.5822174 -0.23903173 0.49539667 0.29298887
0.07519161 -0.10582176 -0.4703382 0.7134092 -0.29256 -0.24031219 1.2607917 1.0568953
0.020600768 0.5901833 -0.3978761 -0.14859454 0.3114854 0.036195777 -1.4841095 0.040638488
0.059135716 0.28638476 -0.04379646 0.058522444 -0.45589438 -0.008409363 0.11813355 -0.83463335
-0.36643612 0.97676325 0.27183762 0.53385323 0.39785767 0.24284829 -0.17491269 -0.5568059
0.40668103 0.46611005 -0.2479146 0.86697125 -0.4811067 0.040503014 -0.96792775 0.20164464
0.016798124 -0.939255 0.9326921 -0.038950495 0.07134324 4.327759 -0.0055662584 -5.041155

network.2.bias f4 [128]
00000000: 8d89 b2be 7f70 01be 61dc 94bd 180b 21be
00000010: bf7f b3bd 3b15 2c3f c0aa cf3b 0ac1 aebd
00000020: a2f7 683d efd2 00bf 3ccd 8bbc cd2d 97bc
00000030: 9e60 16bd 8a8e 2fbc 04ea dcbd a97f 8ebd
00000040: 17d4 b6bd 28f4 b9bd 32d5 fe3e 7252 a53e
00000050: a440 41bd 1924 2ebf f88a d53e f4e9 143c
00000060: 4491 223d 02e3 803f f042 49bd 4d35 9ebd
00000070: 60ad 33bf 36da 88bc ee67 b7bc 50ec bbbe
00000080: 35f7 bebd 23f4 0d3e eb76 08bd d280 29bd
00000090: 2a39 69bb f236 89bd 7272 2dbd 7de7 633d
000000a0: ebbf cdbe 1caf 8fbd ab1c e6bd 2ea4 393e
000000b0: 1dbb 4e3f d01e 483e 9f20 b83f 4f7d a2bd
000000c0: 40c9 d23e f1f8 913d bc63 50bd 39bb 4b3d
000000d0: 3074 af3e 8085 783e be53 d0be 2b16 8a3d
000000e0: 52f9 b9bd 9247 8fbc 0ee2 323e 696f d7be
000000f0: 4547 183f f22f 89bd 7819 60bd 2ff5 2a3e
00000100: 3dcb f03e f556 9a3f 1bf2 91bf fbab ecbb
00000110: 2b0b 563d 809d 89be d405 233f 99cb ebbe
00000120: 0af4 40bc 7008 863f b8e4 99bc 6ecf 813f
00000130: 3519 8b3c 2dad 50bf c9a1 77be cb37 66be
00000140: ec47 51bf 8007 933e d4ed 69be 5433 acbe
00000150: 8b5f a8bd 452e dcbd edb7 e1bc a039 9fbe
00000160: aac3 ec3e 8435 25bf e138 843f 839e 8c3e
00000170: 0944 b7bd a60a e73a d895 eebe 2bca 00bf
00000180: 8807 b7bd 44e9 82bd 9b1b ec3e 87c7 98bd
00000190: 403e c4be 97ed e0bb 5589 17bd 7d11 1b3f
000001a0: a5e1 933f 11fe b3be 924c c63c 61ba a6bd
000001b0: 4f16 043c 2f1c 9fbd b348 46bc 58bb 7ebd
000001c0: 8fe1 9fbf 1e3c eebc 0f2b 2fbe 48ba a1bf
000001d0: eded 6c3b 5180 efbd c107 a1be cabe 133d
000001e0: 6312 773e 311d 04be c9de 3b3c b1ff a93b
000001f0: 5832 b4bd f6a5 22be 94f8 02be 5770 10bd
-0.34870568 -0.1264057 -0.072685964 -0.15726888 -0.087646 0.67219895 0.0063374937 -0.08532913
0.056876786 -0.5032186 -0.017065637 -0.018454457 -0.036713235 -0.010715136 -0.107868224 -0.06957943
-0.08927172 -0.09079772 0.4977203 0.32289463 -0.047180787 -0.6802383 0.41707587 0.009088982
0.039689317 1.0069277 -0.049136102 -0.0772501 -0.70186424 -0.016705614 -0.022388425 -0.3670373
-0.09324495 0.13862662 -0.033316534 -0.04138262 -0.003558705 -0.06699933 -0.04234547 0.055640686
-0.40185484 -0.07015821 -0.11235937 0.18129036 0.8075426 0.19543004 1.4384955 -0.07934057
0.41169167 0.0712756 -0.050876364 0.049739096 0.34268332 0.24269676 -0.4068889 0.067425095
-0.09080757 -0.017490182 0.17469046 -0.42077187 0.5948375 -0.06698598 -0.05471179 0.16695093
0.47030059 1.2057787 -1.140201 -0.00722265 0.052256744 -0.26877975 0.6368077 -0.4605377
-0.011776933 1.0471325 -0.01878582 1.0141428 0.016979793 -0.81514245 -0.2418281 -0.22482221
-0.8175037 0.2871666 -0.2284463 -0.3363291 -0.082213484 -0.10751013 -0.027553523 -0.31098652
0.4624303 -0.64534783 1.0329858 0.27464685 -0.089485236 0.0017627075 -0.46598697 -0.50308484
-0.08936983 -0.06392148 0.4611481 -0.07459932 -0.38328743 -0.0068642604 -0.036996204 0.6057356
1.1553236 -0.35154775 0.024206433 -0.08141018 0.008061959 -0.077690475 -0.012102294 -0.062190384
-1.249071 -0.0290814 -0.1710627 -1.2634974 0.0036152557 -0.11694396 -0.31451228 0.036070623
0.24128108 -0.1290176 0.01146669 0.0051879515 -0.08798665 -0.15883622 -0.12790138 -0.035263386

network.4.weight f4 [6, 128]
00000000: daf3 84bd b8ae 07bf 49f6 623d 12b2 393e
00000010: 35c8 863a 9fa3 433f 8e43 96bd 4852 9f3d
00000020: 0917 e9bc f916 fdbd 99c9 c93e 42ba 8a3c
00000030: 2e60 c0bc 1baa a53c 875b 6c3e d61b e3bc
00000040: bf0b 0d3d 88e8 b73b ad86 b93e d467 e03e
00000050: 4cc4 1b3d 31a3 79bf 8743 ccbe e8f0 b43d
00000060: 2c77 5c3e 3a85 563f 450f 093d 9a40 593b
00000070: 3136 58bf bab4 3c39 08db 723c 58b6 86bf
00000080: 4bc3 6abc 2c52 d53e 9a19 3fbd 64f4 e4bc
00000090: 170a dfbc 1b21 373c 9d3e 35bd ebaa afbc
000000a0: 34e4 40bf 7df3 d23c 1739 eebb 42c0 02bf
000000b0: 8356 813e 2df3 a83e 9e4b 883f 47fa edb7
000000c0: 5647 50bf 62f0 823e 203c 963d c1ca 233f
000000d0: 7780 f53f 49d1 cd3d 70af aabf 1f32 c7bf
000000e0: b1de 7ebd 36f9 e63d cc59 243f 68d1 d63e
000000f0: bd0a 133d 46bd f7ba 74d4 bbbc 689d 503f
00000100: f1b0 283f 9cd2 393f 8a88 9ebe 2054 8abf
00000110: 7df5 c13c 87a7 f6bc d401 093f bb4b 21bf
00000120: d4b7 ddba 84a2 423f b3de fa3b 62ef 5f3f
00000130: d784 36bd 366c 3d3b b32a c8bd bd64 96bd
00000140: 1b80 bc3b 661e e73e 9b48 d2bf ec74 05c0
00000150: a64a 9b3c ff82 8d3d 67b6 f1bc 16ad 94bd
00000160: 760a cb3e 0f0b 8dbd 3d04 793f eb4d a5bf
00000170: 3a88 cdbc 5a69 6dbc a268 b83e 106f 7ec0
00000180: b871 123d 1236 b93c f288 713f c559 4a3d
00000190: 8ddd 9fbe 31c1 79bd bf5d b8bd 1c45 213f
000001a0: 845e 7b3f 1a77 17bf 5298 473c a213 3dbf
000001b0: 9728 a73d 8786 4bbc 7f76 963d 2e2d 1abc
000001c0: 7c99 8abd 3ad9 99bb eb97 bebe 7486 adbe
000001d0: e81d a0bd 89c7 ab3d 1b1d 74be 0d7d 2c3b
000001e0: 33d7 a53e 02ff 703c cd28 22bd 728c 3a3c
000001f0: e1d1 acbe aa27 89bf 8d8e 2cbf c26d 32bd
00000200: fbbc b8be 6b61 923f a4e8 ce3d 7fcf a83d
00000210: a0ce 4b3d 0597 c73e 12c7 e8bc c555 613c
00000220: fe93 6fbc 2881 6ebf c48e 1c3e c439 e73b
00000230: 673f 7b3d bc0a ea3c c05f 133e 39d4 f9bc
00000240: 7d55 8cbc eb68 0bbc 8cc0 643f 48d9 673f
00000250: 4249 603d 9153 99bf f0d0 8a3e c9dc bb3c
00000260: 38aa 99bd 3c71 1f3f 600d a43d ec5e afbd
00000270: 0ae9 59bd 79ed 4fbd d869 2abd 9133 75bf
00000280: 0b70 fcbc 117a 323e 3991 4b3d 7c03 633d
00000290: fd6f 213b 3aa8 2e3d 090a 97bd 9f1b a0bd
000002a0: a98c 96be 07ef 063d 69a1 70be 8ec9 143f
000002b0: 40f1 493f 6f44 90bd fce8 b03f 7682 af3c
000002c0: d34e f3be 5ed1 be3e d470 edbc 8307 3f3f
000002d0: 47be bb3f 74bf b43e 317b 743e 906c c5bf
000002e0: dd2a 063d 7579 e83c 5e0b 793e dfe4 8b3e
000002f0: 8139 033e f8ac 9fbd 3c15 0f3c 05b2 a23e
00000300: 9cd8 923e 91ba a03f 89ec d4bc ab43 60bf
00000310: 523d 3abd 32d9 fbbe b0a3 693d dce2 82bf
00000320: a103 b0bd 05d6 6e3f c8f7 b0bd 7d3b 733f
00000330: 5198 673d 7729 193e e28a 7ebf 341d ad3e
00000340: 659c e6c0 3c1d 7cbe a237 72bf 114a 243e
00000350: 34c4 d63c 8539 1cbd c032 8c3d af0e d3be
00000360: fd6b 6a3f 4837 3bbf d08a 483f 0492 81be
00000370: da75 fa3c ac8d a5bc 0520 3ac0 0050 d3bd
00000380: 8465 1cbd 1971 edbb 5875 033f f5c3 8b3b
00000390: 1e51 93bf b76f a3bb b778 ac3d e1e6 df3e
000003a0: 9da0 c53e dd26 c6be 3148 073c a377 39bf
000003b0: 563a 713d 6969 7dbd f2f1 94bd dc18 963d
000003c0: 946d 53bc 4ad1 4b3d 2d2b 6fbf 8eee 8cbe
000003d0: a5f7 a43a eac3 833d 2073 b43d 11da 91b9
000003e0: 0027 943f a461 843d fca6 b33d 4545 273d
000003f0: e46d 033f 33fa 8cbf a64d 073f b90d c13d
-0.064918235 -0.53000975 0.055410657 0.18134335 0.0010283055 0.7642154 -0.07337104 0.07779366
-0.028453367 -0.12357897 0.3941162 0.016934518 -0.023483362 0.020222714 0.2308179 -0.027723234
0.03443503 0.0056124367 0.36235562 0.43829215 0.038029 -0.97514635 -0.3989527 0.08835012
0.21529835 0.8379704 0.033461828 0.0033150078 -0.8445769 0.00017996403 0.014822729 -1.0524397
-0.014328788 0.41664255 -0.046655275 -0.027948566 -0.02722649 0.011177327 -0.044249166 -0.021443805
-0.7534821 0.02575087 -0.0072699892 -0.5107461 0.25261316 0.32998028 1.0648077 -2.8369146e-05
-0.8135885 0.25574023 0.07335687 0.6398125 1.9179829 0.100496836 -1.3334789 -1.5562171
-0.062224094 0.11278002 0.6419952 0.4195664 0.035898913 -0.0018901012 -0.022928454 0.8149018
0.6589499 0.7258699 -0.30963546 -1.0806923 0.023676628 -0.03010918 0.53518414 -0.6300618
-0.0016915747 0.7602923 0.0076559423 0.87474644 -0.04456028 0.002890361 -0.09773769 -0.07343433
0.005752576 0.4514038 -1.6428407 -2.0852613 0.018956494 0.06909751 -0.029505922 -0.07259576
0.3965642 -0.06886875 0.9727209 -1.2914404 -0.025089372 -0.01449045 0.36017329 -3.9755287
0.035752982 0.02260879 0.94349587 0.049402017 -0.31223717 -0.060975257 -0.09002256 0.6299608
0.98191094 -0.5916611 0.012182312 -0.7385808 0.08162039 -0.012422211 0.0734682 -0.009410186
-0.06767556 -0.004695085 -0.3722528 -0.33891642 -0.07818204 0.08387668 -0.23839228 0.0026319653
0.32390746 0.014709236 -0.039589692 0.011386024 -0.33753875 -1.071523 -0.67405015 -0.043561704
-0.3608168 1.143598 0.101029664 0.08242702 0.0497576 0.38982406 -0.028415237 0.013753359
-0.014622686 -0.93165827 0.15288836 0.0070564467 0.061339762 0.028569572 0.14391994 -0.030496703
-0.017130608 -0.008508901 0.89356303 0.9056592 0.054757364 -1.1978627 0.27112532 0.022932427
-0.0750317 0.62282157 0.080103636 -0.08563027 -0.05320076 -0.05076358 -0.041604847 -0.9578181
-0.030815145 0.17429377 0.049699042 0.055423245 0.00246334 0.042640902 -0.07374961 -0.07817768
-0.2940419 0.032942798 -0.23499073 0.5812005 0.78883743 -0.07044303 1.3821101 0.021424513
-0.47521076 0.3726911 -0.028984465 0.74620837 1.4667443 0.35302317 0.23875119 -1.5423756
0.03275572 0.028378228 0.24320742 0.27323052 0.12814905 -0.07796663 0.00873309 0.31776443
0.28680885 1.2556936 -0.025991695 -0.87603253 -0.045468636 -0.49189144 0.05704087 -1.0225482
-0.08594442 0.9329532 -0.086410105 0.95012647 0.056541745 0.14957224 -0.9943067 0.33811343
-7.206591 -0.24620527 -0.9461614 0.16043879 0.026216604 -0.038140792 0.06845617 -0.4122214
0.9157103 -0.7313123 0.7833681 -0.25306714 0.030573774 -0.020209156 -2.9082043 -0.10317993
-0.03818275 -0.0072461483 0.5135093 0.0042653033 -1.150913 -0.0049876827 0.08421462 0.43730834
0.385991 -0.38701525 0.008256958 -0.72448176 0.058893524 -0.061868105 -0.0727271 0.0732896
-0.012904543 0.04976014 -0.93425256 -0.27525753 0.0012586011 0.06433852 0.08811021 -0.00027819027
1.1574402 0.06463936 0.08772084 0.040837545 0.51339555 -1.1013855 0.5285286 0.094264455

network.4.bias f4 [6]
00000000: 906f 573f 296b 733f f41c 1d3f f05e 2c3f
00000010: a06a 8b3e d18a 583f
0.84154606 0.9508539 0.61372304 0.67332363 0.27229786 0.8458682

network.0.weight f4 [128, 12]
00000000: a00f dcbe a9b9 03bf 738e 8abe 3ccb b23f
00000010: 15a0 39be 6ea9 d53e d496 bbbd ca59 023f
00000020: 4753 05c0 64ef da3e 5de7 cdbe b6fa 0f3f
00000030: 90c0 943c 9bbe 4cbe 0d36 7fbf c0e4 3ebf
00000040: 2bde ddbf 3896 7e3e 3f60 3c3d 9f55 923e
00000050: 3622 5fbf f015 0dbf eada a7be b2ee 06bf
00000060: 11ad 1a3f 0f96 02bf bbd4 a83f 4d9f 1fc1
00000070: b4c5 293e 9f07 2e3d cbff 04bf 0a56 a9be
00000080: c6d2 20bf 6fdc a3bd e2c4 f83e c102 51bc
00000090: 566a a53c 806d eabf c07f f7bf 4e8c b43e
000000a0: 60b7 8f40 1219 0a3f 6e8e dfbe 301a 043f
000000b0: 69e6 c9bf be23 14bf 7d92 7ebf a29d 403f
000000c0: c105 613e 957a 02bf 86ed 8cba f142 e1be
000000d0: e44d c7bf 16fe 92bd 7542 133d f4dd 1e3e
000000e0: a8fc 7dbf 4f77 28be c5e0 4abe 2784 8ebe
000000f0: 0bc3 de3b d296 143e 9b8b 9ebf 1d51 0fbf
00000100: b6d2 9dbf 340b 663e fac6 f7bd 965b 1b3f
00000110: ea07 ba3e ff0f 0abf cb73 6ebe f4a1 d7be
00000120: c00e 5fbd 5217 9e3e 4531 f33f cfee 31c0
00000130: e79f 95bd eb50 963d e7f3 a1bc 51d1 6cbe
00000140: a943 f3bd 1c1b bb3e 40db 2e3f 302b 39bd
00000150: 7c0d 153f 3ceb 0e40 248a e2bf 2ada ff3d
00000160: eb5c b33f 9dc9 93c0 85f9 54bf 5607 40c0
00000170: 9c0e 22bf 5290 01c0 7d3a 603f 04ce 273f
00000180: a097 67bf 267c afbf 9d7e 6e3b 98c5 cabf
00000190: 1a6b 6cbf 5682 103f 10d6 573f 1525 183d
000001a0: fa25 67bf 61fb 703f 1c94 02bf 020a 91bf
000001b0: 91eb ce3e 933b 06be 22b4 093f 10d2 49c0
000001c0: 72cb 1c3e ffe9 783e 6bd4 0ebf 835f 94be
000001d0: 36c8 e03d 93b8 49bf a74c ac3f 2188 913e
000001e0: b140 9d3e 8eb1 cd3e 4af8 09c0 96b2 12c0
000001f0: 1971 0540 969e 033f 5062 11bf be2e 8abc
00000200: 70b8 783e f0b9 bdbe 509d 96be f141 a33f
00000210: caa2 fb3d ff86 303f bb06 22bf 6b77 e53e
00000220: 988e 5ebf ede3 653e 44df b6be a4d3 cb3e
00000230: 34f4 11bf a768 d1be d316 bdbd 9fe2 713e
00000240: 76db 8e3f a6ba bebd cace 92be 3189 ebbf
00000250: 5f79 233f b8d8 d6bd 85a0 82bf 1dc6 35bf
00000260: af4d 43bf 7134 263d 0052 813e 5e16 a43e
00000270: 1bd9 8e3f f908 453f 39e7 24bf fd10 eabe
00000280: e779 48be a94c c9bd afb1 8bbf a060 393e
00000290: 4756 903f bf48 05be 6b89 12bf d5a3 b2be
000002a0: 794d a13f 3c89 37bd 0667 74be e8f5 67c0
000002b0: 9aa9 4e3f f38d 37be 04dd aabf fadf 06bf
000002c0: 0ac8 9cbf 5f78 6e3e f7b7 94bf 291b 9f3e
000002d0: 0141 143e f241 cf3d 31e0 3b3e fbbc 8fbd
000002e0: 07a9 ae3d ac94 5d3e 614b cd3d 6db2 bf3d
000002f0: 7fb6 09bc 5070 93be 317f 263e 92fd 11be
00000300: c869 243f 7eba cbbe 07fb f2bf 067c bec0
00000310: d938 b0bf 5d80 c4be 2dba 23bf a5a9 33bd
00000320: 6728 8bbd 79b4 3cbf fdff d0bc 743b adbf
00000330: 14ed 92bf 1b66 afbd d0c9 c2be b28a 2b3f
00000340: 3a21 073f db22 333f f2cb 953f 1ec4 bebe
00000350: d1fa 8b3e dec0 2d40 0b56 3cbf b899 11bf
00000360: 7c68 83bd 44b9 a23e 0271 46c0 b005 e7be
00000370: f1a3 58bf 74f0 fa3e 9055 16be d8a4 a03e
00000380: 117e 213f e475 c03d ff4e 683e b7f7 6d3e
00000390: dd79 92be a17a 2c3e 34a7 26bf b1b9 953f
000003a0: ea61 2d3f cf2e 763e cbbf a93e 0761 27bf
000003b0: 984a 333f c846 173f de81 3cbf 8e2c e43e
000003c0: dd36 6abd 8f0a da3d 5085 883f 5e99 9b3f
000003d0: cc9c dd3e 5d63 113e 2bf6 e03e 210e 5a3e
000003e0: 75e1 f2bf 3040 423e 629e 793e d663 4c3f
000003f0: 6516 2cbe 6a2a 24be 1f98 02bf b87f 0c3f
-0.4298067 -0.5145517 -0.27061805 1.3968272 -0.18127473 0.41730827 -0.091596276 0.5091826
-2.0832078 0.42760766 -0.4021558 0.5624193 0.018158227 -0.19994585 -0.9969185 -0.74567795
-1.7333425 0.24861991 0.045990225 0.2858095 -0.87161577 -0.551116 -0.32784206 -0.5270797
0.6042033 -0.5101022 1.318992 -9.976392 0.16579324 0.042487737 -0.5195281 -0.33073455
-0.62821615 -0.08001029 0.4858771 -0.012757004 0.020192306 -1.8314667 -1.9335861 0.35263294
4.4911346 0.53944504 -0.43663353 0.5160246 -1.5773441 -0.5786704 -0.99442273 0.7524053
0.21974851 -0.50968295 -0.001075194 -0.43996385 -1.5570645 -0.07177369 0.03595205 0.15514356
-0.9921365 -0.16451763 -0.19812305 -0.278352 0.0067981533 0.14510658 -1.2386354 -0.55983144
-1.2329929 0.22465211 -0.12098499 0.60686624 0.36334163 -0.5393066 -0.23286359 -0.42115748
-0.054457426 0.30877167 1.8999411 -2.7802007 -0.073058896 0.07339653 -0.019769622 -0.23126723
-0.118781395 0.3654412 0.683033 -0.045207202 0.582237 2.2331076 -1.7698407 0.12492783
1.4012731 -4.618361 -0.83193237 -3.0004478 -0.6330354 -2.0244336 0.87589246 0.6554873
-0.90465736 -1.3709762 0.0036391385 -1.5841551 -0.92350924 0.56448877 0.8431101 0.03714474
-0.9029232 0.94133574 -0.51007247 -1.1331179 0.40414098 -0.13108663 0.53790486 -3.1534462
0.15311983 0.24308012 -0.55792874 -0.2897912 0.10975687 -0.7879726 1.3460892 0.2842417
0.30713418 0.40174526 -2.1557794 -2.29215 2.085028 0.5141386 -0.5679064 -0.016867992
0.24289107 -0.37055922 -0.29416895 1.2754499 0.12286909 0.6895599 -0.6329152 0.4481767
-0.8693633 0.22450228 -0.35717213 0.39809906 -0.5701325 -0.40900156 -0.09232869 0.23621605
1.1160724 -0.09312944 -0.28673393 -1.8401242 0.6385707 -0.104905546 -1.0205237 -0.7100542
-0.7629041 0.040577356 0.25257874 0.32048315 1.1160005 0.76966816 -0.6441532 -0.45716086
-0.19577752 -0.09829075 -1.09136 0.18103266 1.127633 -0.13016032 -0.57240933 -0.3489062
1.2601768 -0.04480861 -0.23867425 -3.624384 0.8072754 -0.17925243 -1.3348699 -0.5268551
-1.2248547 0.23288105 -1.1618642 0.3107541 0.14477922 0.1012 0.18347241 -0.07018467
0.08528333 0.21638745 0.10024143 0.09360204 -0.008405327 -0.28796625 0.16259457 -0.14256886
0.6422391 -0.3979072 -1.8982857 -5.9526396 -1.3767349 -0.38379183 -0.63955957 -0.043862958
-0.067948155 -0.7371288 -0.02551269 -1.3533769 -1.14786 -0.08564397 -0.38044596 0.6700851
0.52785075 0.6997506 1.1702864 -0.37259 0.27339795 2.7148967 -0.7356879 -0.5687518
-0.06416413 0.3178197 -3.1006474 -0.45121527 -0.84625155 0.49011576 -0.14681077 0.31375766
0.6308299 0.09397486 0.22686385 0.23239027 -0.286086 0.16843654 -0.6509888 1.1697294
0.6772753 0.24041294 0.3315414 -0.65382427 0.70035696 0.5909238 -0.7363566 0.44565243
-0.057181228 0.10646545 1.0665684 1.2156179 0.4328369 0.1419806 0.4393781 0.21294452
-1.8975054 0.18969798 0.24376824 0.7983984 -0.16805418 -0.16031805 -0.5101337 0.54882383

network.0.bias f4 [128]
00000000: 6574 233f 10c6 d93e d836 1dbe 0b21 3fbe
00000010: 5d06 b83c 6f94 1a3f 2f53 d5bd 2494 923e
00000020: a87c eebe 3bb4 cdbe fba3 8fbe 8af7 753f
00000030: 3cc6 3fbf 23e9 e13e 2cd1 2dbf 1592 83be
00000040: d658 2bbc 52c5 c4be 5f8c 653f e60e 6abe
00000050: 9c1c e1bd f7a4 8f3e 8cb8 133f ddc0 1f3f
00000060: bb3f 6e3d 8c0f 573e d254 36bf a9bd 1bbe
00000070: d86d 8bbe 4e4a 70bc 89d8 8c3e f8af 263f
00000080: 0586 7e3e ec7f 65be 078b ffbd 9db8 04bf
00000090: 4477 74bf 9600 ab3e f84d 8abe 8f20 ecbe
000000a0: bec0 64be ede8 8ebe 3a6e 9abf 35e5 2e3f
000000b0: 5cc0 13bf f3e9 10bf 6bfd 573d 774f b1be
000000c0: d6fc 9cb9 910d 463f 161f f43d dd66 a13e
000000d0: 1dcc 36bf 65b9 bcbe 9773 03bf c846 0dbf
000000e0: 416d 143e 422d 45be a144 5fbe f902 60be
000000f0: aa69 8bbe 42ff 0bbd b1d9 733e ffff 583d
00000100: 36e0 823d 3f4c b8be 7d89 c63e f0c1 543f
00000110: 52ea 043f 317b b8be c2d3 02bd e0f5 12be
00000120: 465c 25be 3bb2 66be b00d cd3e 8ca3 11be
00000130: 416f 9b3e a957 c03e 83a2 b93e f799 1b3e
00000140: fe6b 4ebd 19ce c7be 5e98 87be 412b 88bc
00000150: de0d 6fbf ae3a 133f c802 21bf 9f33 61bc
00000160: 30ef 43be d861 883e d2d9 1d3f 75fb 35bf
00000170: c627 bcbc 2913 8abe 37e3 5fbf ff93 b7bd
00000180: 81b8 cebd 0fa2 bc3e dd19 d13e 0841 3fbf
00000190: 7e73 e83e 8eec abbe cd7a d23d bd9c 04be
000001a0: fdfc 6a3f 2e3b d9be e827 703f 771e 503f
000001b0: edeb 80bf ce04 043f 9224 723f 4794 f03e
000001c0: e53f 533e b108 583e eb6e 4b3f afc2 453f
000001d0: 69d3 1a3f 2206 80be 5f08 9b3e 10e3 b7bd
000001e0: a4d6 99be adc4 3fbf 24fd 543d 11dd 6bbe
000001f0: 48c0 b53d 4fe9 2abf 58b8 20bf f066 8ebe
0.6384948 0.42533922 -0.15352952 -0.18664949 0.022463972 0.6038274 -0.10416257 0.28628647
-0.4657948 -0.40176567 -0.28054795 0.9608084 -0.74911857 0.44123182 -0.67897296 -0.2569739
-0.010458192 -0.38431793 0.89667314 -0.22857246 -0.10991785 0.28055546 0.5770347 0.6240366
0.058166247 0.21002024 -0.71223176 -0.15209068 -0.27232242 -0.014666153 0.27508953 0.65112257
0.24855812 -0.2241208 -0.12477689 -0.518442 -0.95494485 0.33398885 -0.2701261 -0.4611859
-0.2233915 -0.27912083 -1.2064888 0.6831849 -0.5771539 -0.5660698 0.052731913 -0.3463094
-0.00029943016 0.7736445 0.11919992 0.3152379 -0.714052 -0.36860195 -0.5134825 -0.5518613
0.14494802 -0.19255546 -0.21803524 -0.21876134 -0.27229053 -0.03417898 0.23813511 0.052978512
0.06390421 -0.3599567 0.3877677 0.83108425 0.51920044 -0.36031488 -0.03194023 -0.14351606
-0.16148481 -0.22528927 0.40049505 -0.14222544 0.30358317 0.3756688 0.362568 0.15195452
-0.050395958 -0.39024428 -0.26483434 -0.016622188 -0.93380535 0.57511413 -0.6289487 -0.013745218
-0.19134212 0.2663715 0.6166049 -0.7108682 -0.022968184 -0.26967743 -0.8745608 -0.08963775
-0.10093785 0.3684239 0.40840045 -0.74708605 0.45400614 -0.33578914 0.10277329 -0.12950416
0.9179228 -0.42427963 0.9381089 0.81296486 -1.0071999 0.5156983 0.9458705 0.46988127
0.20629843 0.21097066 0.7946612 0.7725019 0.60478836 -0.2500468 0.30279824 -0.089788556
-0.3004657 -0.7490948 0.051999226 -0.23033549 0.08874565 -0.6676225 -0.62781286 -0.2781291

network.2.weight f4 [128, 128]
00000000: 440e c5be 51a6 57be 8f51 c4bf c02a 413f
00000010: 01c3 333f c0b1 71bc 7e8e a4be f725 17c1
00000020: 4f08 483d c753 fd3e e1c2 263f 1562 b0be
00000030: be9a 5e40 ba46 9cbc 0259 c33e adce 653d
00000040: 9e0a 0d3f 19b0 f03c d337 2a3f 7fe6 893f
00000050: d65a cbbe b589 82bd 6852 13be daa4 26be
00000060: 56a4 463f 1b35 153f 3be3 4bbe 2f76 29bd
00000070: 31b4 4dbf a176 6c3b e5cb 863f 8bd5 833e
00000080: ccf3 84be a612 e9bd 77e4 acbe e89a e1be
00000090: 3f8c a9be fc54 0f3f a90d 073f 197b bb3e
000000a0: 6bdc 02bf 8a6a 41be faa0 edbf 045a d4bd
000000b0: 0167 163e e60d d53d 4ac1 d93e 3ca9 30be
000000c0: 9e92 63be f6fe 5d3d f145 bbbd d5eb 1e3f
000000d0: f57f 673f 2d8d e33d d02d 6ebe 2141 4e3f
000000e0: 1c0a 0e3e 0999 723d 7218 00c1 bed2 4e3a
000000f0: 251c 34bd b64e c83e 6397 8f3e 4fff 673d
00000100: 6d06 0abf 723e 5cbe d30d 1e3d 4047 6bbe
00000110: bbc5 073e 4341 ee3e 9e4e bdbe cff8 083f
00000120: cda4 a43e 57e4 243d 76fd f1bd eaf0 00bd
00000130: 243f 5fbe e83c b5bd 35e5 b73e 8567 873d
00000140: 1dc7 9a3c 279d 223f f01a 363e 9bcd 183f
00000150: 8875 b9bf d4d9 98bd ddf8 873e 2800 3b3f
00000160: 5ec4 963d d613 3e3f 8e5d 87be ad0d 3b3f
00000170: 4471 5fbd f933 c6bc dfe0 10be 0dc7 bc3b
00000180: fd2e ddba c725 433e cf0c cdbe 5e00 653f
00000190: e574 4abe c241 a8be 00c5 2abe 33fc d83e
000001a0: f08e 95be bf12 ba3e c839 21be b08f 33be
000001b0: 89c6 063f fccf 203e c725 36be da81 3abf
000001c0: 4f4b 9c3e aec2 723f d33b 16be 0da1 823f
000001d0: 999f 24bd 34b6 e93c e339 e9bc af32 cfbd
000001e0: d359 203b 25a2 9ebe 6679 b73e 130d 543d
000001f0: 03cb ab3c 2ea0 8540 c84c dfbd c310 c3c0
00000200: cb80 9f3d 9740 933e 0d14 5ac0 eaf6 d53f
00000210: 1720 343e 5bdc 803e 391f 1ebf 14ba 83c0
00000220: e8d9 39be 1f71 a5c0 2599 ce3d ab70 95bd
00000230: 31d6 d53f 6fee 333e 497b 14bf 0458 e53d
00000240: 3bc7 53bf 9b77 cfbf b9d8 213f dbf6 6bbf
00000250: 2e2e 7fbf c2eb 2e3e 243c a1be 182f e4be
00000260: c9bd d43e 7b1e 803f 8dcf e43e 9a00 9bbc
00000270: 7ec8 443f 88fa 93be 87bd 80bf c076 163f
00000280: 8352 18bf 4cce 373b 0098 aabf f063 17c1
00000290: ea16 0ebf 9bff 7d3f d282 26bf bd39 86bf
000002a0: a7ff d8bf 64d6 2b3f b673 86c0 e128 753d
000002b0: 9b98 fc3e cd1f ae3d 088a 21be 8d5b 763d
000002c0: bfaa 27be 75d8 a3bd 2e5e 023f 7320 003f
000002d0: 9fa8 b5bf 62f3 173f 3b81 f2be 8eb7 8d3d
000002e0: 3da1 753e 4362 82bd 256d e5c0 2817 a33d
000002f0: c521 a83d 2e88 a43e 7489 3fbf 91e0 2a3e
00000300: a740 963e f3f3 0b40 b680 133e aa24 593e
00000310: 82f6 9fbe 0e6f a0bd 4b1b 1f40 5cb0 fabc
00000320: 606d fc3e 6bd6 b3bd 59ee 573e 665d a13c
00000330: 3154 143f e8bc 74be f120 fd3e d728 973e
00000340: 0ffe 993d 1d98 e2bd 4634 f0be b1c4 353f
00000350: 6dca 95be 725b 77be 9f61 a13f 4dd4 873f
00000360: f1c2 a83c 1fa3 173f 2ca8 ccbe 6834 1cbe
00000370: 5bfa 9f3e 0642 143d 4df7 bdbf 8b74 263d
00000380: 4b38 723d 0397 923e 55ec 32bd 33e5 8b3d
00000390: 4878 e9be 6dc7 09bc 5fb5 f33d e8a2 56bf
000003a0: 3051 bbbe 2759 7a3f 748f 8b3e b4fa 083f
000003b0: 00b4 cb3e d8fd 753e ad1e 35be ee32 0ebf
000003c0: d272 d03e ea8f ed3e 5d73 7fbe 1181 5d3f
000003d0: c064 f6be 7de6 253d 9325 78bf 7151 523e
000003e0: 389c 893c 7418 70bf 4e38 6f3f 8e8a 1fbd
000003f0: 681c 923d 007d 8a40 fb8e d43a 28fe a2c0
-0.38487446 -0.21059538 -1.533739 0.75455856 0.7021943 -0.014751852 -0.32139963 -9.446769
0.04883605 0.4947798 0.6514111 -0.3444983 3.4781947 -0.019076694 0.38153845 0.056105305
0.55094326 0.029380845 0.6649143 1.0773467 -0.3971774 -0.06373922 -0.14386904 -0.16273823
0.77594507 0.5828416 -0.199109 -0.041372474 -0.80353075 0.003608145 1.0530974 0.25748858
-0.25967252 -0.1138051 -0.33768055 -0.44063497 -0.33114812 0.5598905 0.5275522 0.36617354
-0.5111758 -0.18888298 -1.8564751 -0.103687316 0.1468773 0.104030415 0.4253028 -0.17252058
-0.22223899 0.054198228 -0.091442 0.620786 0.9042962 0.111109115 -0.23259664 0.8056813
0.13871044 0.059227977 -8.005968 0.00078896794 -0.043972153 0.39122552 0.28045186 0.056639966
-0.53916055 -0.21508196 0.038587403 -0.22976398 0.13259022 0.46534166 -0.36974043 0.5350465
0.32156983 0.040256824 -0.11815922 -0.031479754 -0.2180143 -0.088495076 0.3591706 0.06611542
0.018893773 0.63521045 0.17783713 0.5968873 -1.4488993 -0.074634224 0.26557055 0.73047113
0.07361673 0.7424902 -0.26438564 0.7306774 -0.054551378 -0.024194704 -0.14148282 0.0057610334
-0.0016874966 0.1905738 -0.40048835 0.89453685 -0.19771154 -0.3286267 -0.16676712 0.42379913
-0.29210615 0.36342427 -0.15744698 -0.17535281 0.5264669 0.1570434 -0.17787848 -0.7285439
0.30526206 0.9482831 -0.14671259 1.0205399 -0.040191267 0.028529264 -0.028469985 -0.10117089
0.0024467602 -0.3098308 0.35834807 0.05177028 0.020970827 4.175803 -0.10903317 -6.095796
0.07788237 0.28760216 -3.4074738 1.6715977 0.17590366 0.25168118 -0.6176639 -4.1164646
-0.18149531 -5.1700587 0.10087804 -0.0729688 1.6705991 0.17571424 -0.5800062 0.11198428
-0.82725877 -1.6208376 0.6322132 -0.92173547 -0.9967984 0.17082122 -0.31491196 -0.4456718
0.41551045 1.0009302 0.446896 -0.018921185 0.76868427 -0.28902078 -1.0057839 0.5877495
-0.595009 0.0028046547 -1.3327637 -9.461899 -0.55503714 0.9921815 -0.65043366 -1.048637
-1.6953019 0.6712401 -4.201625 0.05985344 0.4933518 0.08502159 -0.15775311 0.060145903
-0.16373728 -0.0800027 0.50924957 0.50049514 -1.4192084 0.5935575 -0.4736422 0.06919776
0.23987289 -0.06366398 -7.1695733 0.07963401 0.08209566 0.32135147 -0.7481911 0.16687228
0.293462 2.1867645 0.14404568 0.21205392 -0.31242758 -0.07833682 2.4860408 -0.030601673
0.49302197 -0.08781131 0.21087016 0.019697856 0.57940966 -0.23900187 0.49439195 0.29523346
0.07519161 -0.110641696 -0.4691488 0.7100325 -0.29256 -0.24155977 1.2607917 1.0611664
0.020600768 0.5923328 -0.39972055 -0.15254366 0.31245694 0.036195777 -1.4841095 0.040638488
0.059135716 0.28630838 -0.043682415 0.06830826 -0.4559958 -0.008409363 0.11899828 -0.83842325
-0.3658538 0.97792286 0.27257884 0.5350754 0.39785767 0.24022615 -0.17687483 -0.5554646
0.407126 0.4639886 -0.24946351 0.86525065 -0.4812374 0.040503014 -0.96932334 0.2053888
0.016798124 -0.9378731 0.9344529 -0.038950495 0.07134324 4.327759 0.0016216928 -5.093525

network.2.bias f4 [128]
00000000: 8d2a b5be 484b 02be 61dc 94bd 76b5 26be
00000010: bf7f b3bd c962 2c3f c0aa cf3b 0ac1 aebd
00000020: a2f7 683d 0ee4 00bf 1a1d 8bbc cd2d 97bc
00000030: 9e60 16bd 8a8e 2fbc 90b3 d7bd a97f 8ebd
00000040: 17d4 b6bd 28f4 b9bd a0e6 fe3e 093b a63e
00000050: a440 41bd 1924 2ebf 497d d33e f4e9 143c
00000060: aadb 153d 1ff3 803f f042 49bd 4d35 9ebd
00000070: bda4 33bf 36da 88bc ee67 b7bc 50ec bbbe
00000080: 35f7 bebd 15e8 113e eb76 08bd d280 29bd
00000090: 2a39 69bb f236 89bd 7272 2dbd 7de7 633d
000000a0: b11d cebe 1caf 8fbd e0d7 dabd 7c11 393e
000000b0: 64b2 4e3f 3cdb 433e a015 b83f 4f7d a2bd
000000c0: d8ea d13e 40e2 8b3d bc63 50bd 8b97 4a3d
000000d0: a6ca b03e 29dc 733e 098c d0be c48e 883d
000000e0: 52f9 b9bd 9247 8fbc 48e0 353e 4b2a d9be
000000f0: 7fd2 173f f22f 89bd 7819 60bd e40f 2a3e
00000100: 3288 f13e 7e66 9a3f 1bf2 91bf e435 9fbb
00000110: 2b0b 563d 7178 88be f648 233f 99cb ebbe
00000120: 0af4 40bc 451b 863f b8e4 99bc 13c9 813f
00000130: 3519 8b3c c9c1 50bf 7a65 77be bc16 71be
00000140: b8a1 52bf 4975 943e d4ed 69be 06be abbe
00000150: 8b5f a8bd 452e dcbd edb7 e1bc 4908 9ebe
00000160: 0a92 eb3e ce59 24bf 3f28 843f ae6f 8d3e
00000170: 0944 b7bd a60a e73a 6076 ebbe 0e89 01bf
00000180: 8807 b7bd 44e9 82bd 6cba eb3e 87c7 98bd
00000190: bce4 c3be 97ed e0bb 5589 17bd c466 1b3f
000001a0: b9e7 933f 11fe b3be 924c c63c b56a acbd
000001b0: 4f16 043c 2f1c 9fbd b348 46bc 58bb 7ebd
000001c0: 8fe1 9fbf 1e3c eebc d4c4 2dbe 48ba a1bf
000001d0: eded 6c3b 5180 efbd 1f95 a5be cabe 133d
000001e0: 11fe 763e 311d 04be c9de 3b3c b1ff a93b
000001f0: afea bfbd f6a5 22be 94f8 02be 5770 10bd
-0.35384026 -0.1272403 -0.072685964 -0.1628016 -0.087646 0.67338234 0.0063374937 -0.08532913
0.056876786 -0.50347984 -0.01698165 -0.018454457 -0.036713235 -0.010715136 -0.10532296 -0.06957943
-0.08927172 -0.09079772 0.49785328 0.32466915 -0.047180787 -0.6802383 0.41306522 0.009088982
0.03658644 1.0074195 -0.049136102 -0.0772501 -0.70173246 -0.016705614 -0.022388425 -0.3670373
-0.09324495 0.14248689 -0.033316534 -0.04138262 -0.003558705 -0.06699933 -0.04234547 0.055640686
-0.40257028 -0.07015821 -0.10685706 0.18073076 0.8074095 0.191266 1.43816 -0.07934057
0.40999484 0.06830263 -0.050876364 0.04946093 0.34529608 0.23814453 -0.40731838 0.066678554
-0.09080757 -0.017490182 0.17761338 -0.4241508 0.59305567 -0.06698598 -0.05471179 0.16607624
0.4717422 1.2062528 -1.140201 -0.004858719 0.052256744 -0.2665439 0.63783205 -0.4605377
-0.011776933 1.0477072 -0.01878582 1.0139488 0.016979793 -0.8154569 -0.24159804 -0.23543829
-0.82278013 0.2899573 -0.2284463 -0.33543414 -0.082213484 -0.10751013 -0.027553523 -0.30865696
0.46009856 -0.6419953 1.0324782 0.27624267 -0.089485236 0.0017627075 -0.4598875 -0.50599754
-0.08936983 -0.06392148 0.46040666 -0.07459932 -0.38260448 -0.0068642604 -0.036996204 0.6070368
1.1555091 -0.35154775 0.024206433 -0.0841879 0.008061959 -0.077690475 -0.012102294 -0.062190384
-1.249071 -0.0290814 -0.16969615 -1.2634974 0.0036152557 -0.11694396 -0.32340333 0.036070623
0.24120356 -0.1290176 0.01146669 0.0051879515 -0.09370934 -0.15883622 -0.12790138 -0.035263386

network.4.weight f4 [6, 128]
00000000: 2cff 93bd cb9e 0abf 49f6 623d 71e0 323e
00000010: 35c8 863a f3a2 433f 8e43 96bd 4852 9f3d
00000020: 0917 e9bc b6a5 fabd 37f5 ca3e 42ba 8a3c
00000030: 2e60 c0bc 1baa a53c 3d09 753e d61b e3bc
00000040: bf0b 0d3d 88e8 b73b 006a b83e 19b6 df3e
00000050: 4cc4 1b3d 31a3 79bf ed6f d1be e8f0 b43d
00000060: 37ad 533e 20fc 563f 450f 093d 9a40 593b
00000070: b085 58bf bab4 3c39 08db 723c 58b6 86bf
00000080: 4bc3 6abc 9b7e d63e 9a19 3fbd 64f4 e4bc
00000090: 170a dfbc 1b21 373c 9d3e 35bd ebaa afbc
000000a0: 958c 3dbf 7df3 d23c e677 9abc a22a 02bf
000000b0: 4e37 833e ca23 a93e 91a6 883f 47fa edb7
000000c0: 6a87 4fbf 334a 843e 203c 963d ce1f 233f
000000d0: c2dc f53f 647f dd3d 70af aabf b1e1 c6bf
000000e0: b1de 7ebd 36f9 e63d 3ae2 233f 133c d83e
000000f0: 716b 333d 46bd f7ba 74d4 bbbc f300 513f
00000100: 900c 283f 303a 3a3f 8a88 9ebe 52e7 89bf
00000110: 7df5 c13c 2d52 ddbc c8ce 093f bb4b 21bf
00000120: d4b7 ddba dcb7 413f b3de fa3b f5ff 5e3f
00000130: d784 36bd 956e cbb9 c9da d1bd ea94 a7bd
00000140: 350f fd3b f77b e63e 9b48 d2bf cd3b 05c0
00000150: a64a 9b3c ff82 8d3d 67b6 f1bc dca1 99bd
00000160: 5d55 ce3e 3f81 76bd fa3e 7a3f d2fb a4bf
00000170: 3a88 cdbc 5a69 6dbc 928e b83e 106f 7ec0
00000180: b871 123d 1236 b93c 6879 703f c559 4a3d
00000190: 206b 9fbe 31c1 79bd bf5d b8bd 7a89 213f
000001a0: 4b06 7c3f 1a77 17bf 5298 473c 037e 3cbf
000001b0: 9728 a73d 8786 4bbc 7f76 963d 2e2d 1abc
000001c0: 7c99 8abd 3ad9 99bb 1ed5 c8be 7486 adbe
000001d0: e81d a0bd 89c7 ab3d 5e81 7cbe 0d7d 2c3b
000001e0: 7931 ae3e 02ff 703c cd28 22bd 728c 3a3c
000001f0: 6c58 acbe aa27 89bf 8d8e 2cbf c26d 32bd
00000200: e21a babe f758 933f a4e8 ce3d babb a73d
00000210: a0ce 4b3d c199 c73e 12c7 e8bc c555 613c
00000220: fe93 6fbc be13 6ebf 4836 1b3e c439 e73b
00000230: 673f 7b3d bc0a ea3c 9764 133e 39d4 f9bc
00000240: 7d55 8cbc eb68 0bbc 9e54 653f 85cd 673f
00000250: 4249 603d 9153 99bf 707c 8b3e c9dc bb3c
00000260: a1a7 9abd 884a 1f3f 600d a43d ec5e afbd
00000270: 5584 5bbd 79ed 4fbd d869 2abd 9133 75bf
00000280: 0b70 fcbc 22a6 353e 3991 4b3d 7c03 633d
00000290: fd6f 213b 3aa8 2e3d 090a 97bd 9f1b a0bd
000002a0: 0e37 96be 07ef 063d f5f3 71be 030f 163f
000002b0: ddd6 493f 06c3 8cbd f2d5 b03f 7682 af3c
000002c0: 81b9 f3be 69d8 bd3e d470 edbc 2737 3e3f
000002d0: 3705 bc3f 0895 b43e 3a6e 723e 8835 c5bf
000002e0: dd2a 063d 7579 e83c 38cb 793e ca2b 8b3e
000002f0: 1460 023e f8ac 9fbd 3c15 0f3c cfd3 a13e
00000300: 0395 923e 9da8 a03f 89ec d4bc 6b80 60bf
00000310: 523d 3abd 3632 fcbe 80f2 5d3d dce2 82bf
00000320: a103 b0bd 7acf 6e3f c8f7 b0bd d038 733f
00000330: 5198 673d 3844 173e 5bbc 7dbf 3ea5 af3e
00000340: 659c e6c0 d12e 7cbe a237 72bf 87df 213e
00000350: 34c4 d63c 8539 1cbd c032 8c3d 2bb7 d4be
00000360: 2333 6a3f 114c 3bbf 1268 483f 7468 80be
00000370: da75 fa3c ac8d a5bc 0520 3ac0 19c0 d7bd
00000380: 8465 1cbd 1971 edbb 4a6a 033f f5c3 8b3b
00000390: be81 93bf b76f a3bb b778 ac3d 267e df3e
000003a0: 6538 c53e dd26 c6be 3148 073c 2565 39bf
000003b0: 563a 713d 6969 7dbd f2f1 94bd dc18 963d
000003c0: 946d 53bc 4ad1 4b3d 28db 6ebf 8eee 8cbe
000003d0: a5f7 a43a eac3 833d e8fb b23d 11da 91b9
000003e0: 11cb 933f a461 843d fca6 b33d 4545 273d
000003f0: 4da3 023f 33fa 8cbf a64d 073f b90d c13d
-0.072264045 -0.5414855 0.055410657 0.1746843 0.0010283055 0.76420516 -0.07337104 0.07779366
-0.028453367 -0.12238638 0.3964021 0.016934518 -0.023483362 0.020222714 0.23929305 -0.027723234
0.03443503 0.0056124367 0.36018372 0.43693617 0.038029 -0.97514635 -0.40905705 0.08835012
0.20671545 0.8397846 0.033461828 0.0033150078 -0.8457899 0.00017996403 0.014822729 -1.0524397
-0.014328788 0.41893467 -0.046655275 -0.027948566 -0.02722649 0.011177327 -0.044249166 -0.021443805
-0.74042636 0.02575087 -0.018856 -0.508463 0.25628132 0.33035117 1.0675832 -2.8369146e-05
-0.81066 0.2583786 0.07335687 0.63720405 1.9207995 0.108153135 -1.3334789 -1.5537626
-0.062224094 0.11278002 0.6401707 0.42233333 0.043803636 -0.0018901012 -0.022928454 0.81642073
0.6564417 0.7274504 -0.30963546 -1.0773718 0.023676628 -0.027016724 0.5383115 -0.6300618
-0.0016915747 0.7567117 0.0076559423 0.8710931 -0.04456028 -0.00038801567 -0.10246808 -0.081827
0.00772276 0.45016453 -1.6428407 -2.081775 0.018956494 0.06909751 -0.029505922 -0.07501575
0.40299502 -0.060181852 0.97752345 -1.288935 -0.025089372 -0.01449045 0.36046273 -3.9755287
0.035752982 0.02260879 0.9393525 0.049402017 -0.31136417 -0.060975257 -0.09002256 0.631004
0.984471 -0.5916611 0.012182312 -0.7362978 0.08162039 -0.012422211 0.0734682 -0.009410186
-0.06767556 -0.004695085 -0.39225096 -0.33891642 -0.07818204 0.08387668 -0.24658725 0.0026319653
0.3402212 0.014709236 -0.039589692 0.011386024 -0.3366121 -1.071523 -0.67405015 -0.043561704
-0.36348635 1.1511525 0.101029664 0.08190103 0.0497576 0.38984492 -0.028415237 0.013753359
-0.014622686 -0.92998874 0.15157425 0.0070564467 0.061339762 0.028569572 0.1439384 -0.030496703
-0.017130608 -0.008508901 0.8958224 0.9054797 0.054757364 -1.1978627 0.27243376 0.022932427
-0.07551504 0.622231 0.080103636 -0.08563027 -0.053593 -0.05076358 -0.041604847 -0.9578181
-0.030815145 0.17739156 0.049699042 0.055423245 0.00246334 0.042640902 -0.07374961 -0.07817768
-0.29338878 0.032942798 -0.23628218 0.58616656 0.7884348 -0.06873135 1.3815291 0.021424513
-0.47602466 0.3707917 -0.028984465 0.74302906 1.4689091 0.35269952 0.2367486 -1.5406961
0.03275572 0.028378228 0.24393928 0.27181846 0.12731963 -0.07796663 0.00873309 0.3160691
0.28629312 1.2551457 -0.025991695 -0.8769595 -0.045468636 -0.49257058 0.054186344 -1.0225482
-0.08594442 0.93285334 -0.086410105 0.95008564 0.056541745 0.14772117 -0.9911553 0.34305757
-7.206591 -0.24627234 -0.9461614 0.15807925 0.026216604 -0.038140792 0.06845617 -0.41545996
0.9148428 -0.73162943 0.782838 -0.2507969 0.030573774 -0.020209156 -2.9082043 -0.105346866
-0.03818275 -0.0072461483 0.5133406 0.0042653033 -1.1523969 -0.0049876827 0.08421462 0.4365093
0.38519588 -0.38701525 0.008256958 -0.7241996 0.058893524 -0.061868105 -0.0727271 0.0732896
-0.012904543 0.04976014 -0.93303156 -0.27525753 0.0012586011 0.06433852 0.087394536 -0.00027819027
1.1546346 0.06463936 0.08772084 0.040837545 0.5103043 -1.1013855 0.5285286 0.094264455

network.4.bias f4 [6]
00000000: 24e7 573f 144e 733f be6c 1c3f eb5b 2c3f
00000010: eb08 8c3e ec13 583f
0.8433707 0.9504101 0.6110343 0.67327756 0.27350554 0.844054
