modelos_s2/dqn_entorno3.pth (torch, 313341 bytes, 24 tensors)

network.0.weight f4 [128, 12]
-0.0049344795 -0.11869586 0.10247138 0.10670611 0.26276293 -0.050766457 -0.089497015 -0.10803768
-0.24814244 0.06418262 -0.1989099 -0.21101978 0.39138964 0.7866948 -0.1337297 -0.29653552
2.2444181 -0.324365 -0.4732297 0.2524452 0.60009414 0.22521256 0.21641006 -0.30357054
-0.19358699 -0.67567915 2.5682821 0.24805672 0.07460439 0.08473552 -0.14430504 0.5716508
0.82469445 -0.38076866 -0.012931525 -0.16125521 -0.23396729 -1.057833 2.5344982 -0.25219786
0.5679417 0.09714213 -0.12062889 0.46182472 1.217864 -0.051876914 0.038103644 -0.049280453
-0.112919375 0.49357784 -1.1945195 -1.016539 0.26943406 -0.4244682 -0.13601115 0.3326622
0.3731414 0.20061934 -0.51554346 0.2150039 0.28725043 -0.40794474 1.6275042 1.148318
1.7203547 0.29749325 0.05881598 0.059606712 -0.50069577 0.4424534 -0.040782645 0.0054032626
0.015303739 1.0651566 -1.2911346 -1.9364626 1.0172663 -1.4988434 -0.058080196 -3.3090515
0.20086968 -0.25399786 -0.28490403 -0.21837994 0.120478146 0.11522151 -2.4175086 -0.2651209
-0.88298595 0.31001997 -0.23155394 0.30251074 0.32675377 -0.40381247 0.10844258 -0.14400944
0.03904678 -0.119891845 0.104554005 -0.0057426975 0.17011678 0.094590895 -0.11138501 -0.18942042
0.017698824 -0.036888927 -0.2520335 -0.088021636 0.2532625 -0.24088329 -2.3101604 -0.8228208
-1.3155841 0.034808617 0.006613651 0.2809816 0.019446306 0.13128927 0.07303671 0.2960616
-0.15984422 0.99836093 0.05478564 0.093360566 0.52250016 0.2580728 -0.13801016 0.123805895
0.12754092 0.3211999 0.31106803 0.5045541 -0.38917357 0.18303569 -0.391673 0.6058851
-0.079198346 -0.05398894 0.08450694 -0.7886669 -0.707959 -0.83136344 0.2558116 0.051028684
-0.8381639 0.17084198 0.27424634 0.29873654 0.5179045 -0.42221656 0.73442954 -0.4925778
-0.49078 -0.6170685 -0.17681196 -0.5308638 -0.020254282 -0.0018112466 -0.064129345 0.1792781
-0.2669631 0.0264727 -0.28004563 -0.24753515 0.032923236 -0.003913488 -0.10891156 -0.051801145
0.08150228 0.081926115 0.9512368 0.31314662 1.0983613 -0.45921257 0.12683831 0.1652847
-0.17889644 -0.09640112 0.103100926 0.14130971 0.10438665 -0.005791493 1.4069533 -0.061866857
0.04849691 0.038151667 -0.0479578 0.1136934 0.5162699 -0.31242678 -0.27777195 0.3950818
0.051735546 -0.1594979 -0.276092 0.082344115 0.12509508 0.02817149 0.101709165 -0.07139221
0.074744806 -0.0723118 -0.083630085 -0.054539386 -0.48962873 -0.82791007 -0.12938623 0.30746844
-1.6102455 0.7140032 0.31615433 1.0319079 1.0907786 0.7814014 -0.61693496 -0.022436077
0.18955341 -0.5859976 1.4092741 -3.9874115 1.3657217 0.5434249 0.16856772 -0.13146323
-0.71229625 -0.008019247 -0.1177117 0.7176449 -0.32403892 0.19664246 1.1761945 -0.28568467
0.997361 0.04301935 0.61398065 -0.09040836 -0.09556722 0.11856902 -0.2014948 -0.06702398
0.22590901 -0.4198424 3.7230594 1.8041662 0.4434803 -0.19633056 0.082023725 -0.117618345
1.0399796 -0.14471425 -0.32884398 -0.7029046 -0.113782726 -1.2020389 1.1577818 -0.2821903
00000000: 6ab1 a1bb d116 f3bd 84dc d13d bc88 da3d
00000010: dd88 863e 7df0 4fbd 364a b7bd dc42 ddbd
00000020: 0d19 7ebe 2d72 833d 09af 4bbe 9215 58be
00000030: 3964 c83e d564 493f 70f0 08be 81d3 97be
00000040: 8ca4 0f40 2b13 a6be 2a4b f2be 7f40 813e
00000050: c59f 193f 1f9e 663e 999a 5d3e 996d 9bbe
00000060: ab3b 46be 4ff9 2cbf bc5e 2440 9502 7e3e
00000070: 30ca 983d d189 ad3d b3c4 13be b557 123f
00000080: 2d1f 533f 1cf4 c2be bfde 53bc 1620 25be
00000090: 1f95 6fbe 1267 87bf 3835 2240 1420 81be
000000a0: a164 113f 74f2 c63d 480c f7bd 4a74 ec3e
000000b0: f8e2 9b3f e37c 54bd 9112 1c3d 4dda 49bd
000000c0: 4642 e7bd 3cb6 fc3e 04e6 98bf f31d 82bf
000000d0: 43f3 893e e553 d9be 8246 0bbe b352 aa3e
000000e0: 640c bf3e 286f 4d3e a8fa 03bf fb29 5c3e
000000f0: 7d12 933e 22de d0be 0f52 d03f 16fc 923f
00000100: 9534 dc3f 0951 983e 06e9 703d 2b26 743d
00000110: 992d 00bf 4189 e23e b40b 27bd da0d b13b
00000120: 89bc 7a3c 0d57 883f e643 a5bf 02de f7bf
00000130: c835 823f 1ada bfbf 80e5 6dbd 80c7 53c0
00000140: c8b0 4d3e 020c 82be f1de 91be fe9e 5fbe
00000150: 3fbd f63d 41f9 eb3d 76b8 1ac0 edbd 87be
00000160: 5e0b 62bf f0ba 9e3e 7a1c 6dbe b0e2 9a3e
00000170: 454c a73e 82c0 cebe 2517 de3d 3677 13be
00000180: 84ef 1f3d db89 f5bd 6920 d63d 3d2d bcbb
00000190: 1833 2e3e dfb8 c13d d31d e4bd 6df7 41be
000001a0: 20fd 903c d818 17bd 890a 81be b044 b4bd
000001b0: 9fab 813e 1caa 76be abd9 13c0 62a4 52bf
000001c0: 0f65 a8bf 7b93 0e3d 53b7 d83b d2dc 8f3e
000001d0: dc4d 9f3c b270 063e 4594 953d 6395 973e
000001e0: 34ae 23be 9594 7f3f e866 603d d333 bf3d
000001f0: 92c2 053f 1e22 843e 8952 0dbe f28d fd3d
00000200: 169a 023e 5074 a43e 4f44 9f3e 752a 013f
00000210: c241 c7be b56d 3b3e 5d89 c8be 491b 1b3f
00000220: be32 a2bd 8223 5dbd f911 ad3d 13e6 49bf
00000230: cd3c 35bf 3cd4 54bf bdf9 823e 7403 513d
00000240: e991 56bf 33f1 2e3e 046a 8c3e fff3 983e
00000250: 6495 043f c52c d8be 9303 3c3f 2833 fcbe
00000260: 8447 fbbe 34f8 1dbf 320e 35be b1e6 07bf
00000270: 4fec a5bc 5a67 edba 3f56 83bd ae94 373e
00000280: 63af 88be 47dd d83c 2462 8fbe db79 7dbe
00000290: 84da 063d b73c 80bb 060d dfbd 702d 54bd
000002a0: abea a63d e1c8 a73d 4184 733f c154 a03e
000002b0: 1a97 8c3f e91d ebbe e7e1 013e 6440 293e
000002c0: a130 37be f36d c5bd 9426 d33d 7eb3 103e
000002d0: abc8 d53d 91c6 bdbb 0c17 b43f 1a68 7dbd
000002e0: b2a4 463d ec44 1c3d 666f 44bd 16d8 e83d
000002f0: 442a 043f 67f6 9fbe 2038 8ebe 2948 ca3e
00000300: a7e8 533d 6b53 23be ee5b 8dbe 08a4 a83d
00000310: ed18 003e e6c7 e63c e54c d03d 1436 92bd
00000320: ce13 993d 3618 94bd 4046 abbd b164 5fbd
00000330: 9eb0 fabe eaf1 53bf d37d 04be 816c 9d3e
00000340: 861c cebf eac8 363f fbde a13e 8f15 843f
00000350: a29e 8b3f ec09 483f 73ef 1dbf ddcb b7bc
00000360: 4a1a 423e f003 16bf 1863 b43f c031 7fc0
00000370: f8cf ae3f e51d 0b3f 049d 2c3e 4c9e 06be
00000380: 0c59 36bf 2963 03bc d512 f1bd 93b7 373f
00000390: 6ee8 a5be a45c 493e 8b8d 963f 4345 92be
000003a0: 0d53 7f3f 0f35 303d d62d 1d3f 0528 b9bd
000003b0: bfb8 c3bd 50d4 f23d a754 4ebe de43 89bd
000003c0: b154 673e 95f5 d6be 9b46 6e40 ebee e63f
000003d0: da0f e33e e10a 49be 0efc a73d e3e1 f0bd
000003e0: 0d1e 853f f92f 14be 3d5e a8be 8ef1 33bf
000003f0: eb06 e9bd 69dc 99bf 3232 943f 3f7b 90be

network.0.bias f4 [128]
-0.17886798 0.5926748 0.23951659 -0.25140673 0.56754464 0.18984628 -0.15704852 0.7434594
-0.0880002 0.51106006 0.679185 -0.6081467 -0.5318669 -0.17210886 0.30342376 0.84490025
-0.26713806 -0.06566504 -0.0044904184 0.17909521 -0.24706043 0.81077814 -0.31577647 0.13674684
0.6590036 0.14638662 0.5087604 0.36208937 0.62293875 0.3593103 0.56411874 -0.35141882
0.013478409 0.67427593 0.7642541 -0.45097095 0.49813607 0.6996021 0.41091588 -0.0397473
0.792237 0.6776876 -0.2720308 0.22441256 0.30567637 -0.009227987 0.7365219 0.36359802
-0.143154 -0.23895812 0.13449392 0.7177653 0.1621792 -1.1225752 0.91275805 -0.3782889
-0.17353983 0.22910276 -0.34777784 0.1356745 0.5767782 0.046175838 0.17887098 -0.007995365
-0.16059473 0.38879374 0.6773751 -0.28857946 0.15988721 0.01618861 -0.34780705 0.4093309
0.37932423 0.247003 -0.12601574 0.14587042 -0.07520787 0.057543878 -0.3733281 -0.9307117
0.86201835 -0.73751754 0.91297233 0.67480797 0.5708607 0.5035954 -0.5440605 0.39032865
0.17600448 0.007716339 -0.22772758 0.88655 0.6867418 -0.191812 0.27971643 0.32956296
-0.1569023 0.33129662 0.04881023 0.26689848 0.69306576 0.78573006 -0.29691866 0.08486001
0.54340255 0.34770492 -0.21377881 -0.23477332 -0.06883733 -0.21594724 -0.24337658 -0.15020712
-0.24438974 0.4561 0.807954 -0.09720261 -0.1051873 -0.058311366 -0.3422159 -0.65709245
0.65595293 1.0320625 0.42309508 0.005041765 -0.24980024 0.46009916 1.0914457 0.5998955
00000000: 2b29 37be 89b9 173f d643 753e 62b8 80be
00000010: 9b4a 113f 1067 423e 54d1 20be 5b53 3e3f
00000020: 7339 b4bd d5d4 023f 11df 2d3f 81af 1bbf
00000030: 6e28 08bf 4e3d 30be 5c5a 9b3e 624b 583f
00000040: 52c6 88be 647b 86bd 5c24 93bb bc64 373e
00000050: 69fd 7cbe 288f 4f3f 74ad a1be 5d07 0c3e
00000060: 76b4 283f 60e6 153e 1f3e 023f c763 b93e
00000070: ea78 1f3f 85f7 b73e 166a 103f 2bed b3be
00000080: 8bd4 5c3c 599d 2c3f 28a6 433f aae5 e6be
00000090: b10b ff3e 2019 333f 9163 d23e 11ce 22bd
000000a0: 0bd0 4a3f ef7c 2d3f 9f47 8bbe 68cc 653e
000000b0: 9d81 9c3e fc30 17bc b38c 3c3f 8529 ba3e
000000c0: f696 12be 70b1 74be c6b8 093e 77bf 373f
000000d0: 4e12 263e 8bb0 8fbf 83aa 693f 15af c1be
000000e0: 6db4 31be ea99 6a3e f00f b2be 42ee 0a3e
000000f0: bca7 133f e022 3d3d f429 373e fefe 02bc
00000100: f272 24be f90f c73e 7468 2d3f b0c0 93be
00000110: 79b9 233e fa9d 843c c413 b2be d293 d13e
00000120: c936 c23e 5bee 7c3e 450a 01be 0e5f 153e
00000130: 9506 9abd 21b3 6b3d dc24 bfbe 1f43 6ebf
00000140: 3cad 5c3f f3cd 3cbf 8eb8 693f 37c0 2c3f
00000150: ed23 123f a1eb 003f 8d47 0bbf 28d9 c73e
00000160: 853a 343e 58d9 fc3b 6b31 69be f1f4 623f
00000170: 50ce 2f3f 5d6a 44be fe36 8f3e 7abc a83e
00000180: ffaa 20be b69f a93e 3ced 473d eba6 883e
00000190: c26c 313f 9b25 493f b905 98be 16cb ad3d
000001a0: 6e1c 0b3f 6106 b23e d5e8 5abe 6b68 70be
000001b0: 96fa 8cbd 4621 5dbe b637 79be e5cf 19be
000001c0: 4e41 7abe f085 e93e 13d6 4e3f 2912 c7bd
000001d0: 706c d7bd e6d7 6ebd ec36 afbe 3637 28bf
000001e0: 88ec 273f a01a 843f eb9f d83e 6435 a53b
000001f0: a2cb 7fbe 1e92 eb3e 7eb4 8b3f c092 193f

network.2.weight f4 [128, 128]
-0.07668245 -0.103033595 0.042991165 -0.09118763 -0.012675469 0.05790369 -0.06657468 -0.020302126
0.0022284829 0.06288267 -0.05982607 -0.014329776 0.045503553 0.04762734 0.006703052 -0.031300347
-0.06313034 0.009209822 -0.09795308 -0.055837903 -0.084539615 -0.07361398 0.018609464 0.01752083
-0.05323813 0.06123653 0.04170052 0.0018441988 -0.037399974 -0.0725208 -0.038523342 0.041891318
-0.0897867 -0.043704335 0.015215672 -0.079752475 -0.00505861 -0.010173968 0.01618558 -0.030524895
-0.02804359 -0.017568918 -0.006564652 0.05996966 0.0039085643 -0.001646435 0.049919 -0.08020502
0.041884728 0.08340668 0.031374127 -0.028094433 -0.04808315 -0.04257326 0.02904568 -0.06169616
-0.033127528 -0.023786372 0.062094204 -0.091084525 -0.0691568 -0.08871428 0.003943554 -0.048816275
0.03290471 0.05108982 -0.023738822 -0.031294614 -0.006358984 -0.018736336 0.058706395 0.036055658
0.039314095 -0.029852241 -0.03761211 0.022197673 0.00014397687 -0.07918319 0.05609296 0.047571477
-0.010253179 0.026317975 -0.06888096 -0.07191461 0.0010516768 0.060149904 -0.098614484 0.10905427
-0.023924645 0.07774234 -0.059973836 0.063585356 -0.0059142695 0.02275546 -0.06372753 0.057091687
-0.0560462 -0.07099538 0.009128891 -0.007697049 0.031314164 0.04367719 -0.02943704 -0.082122535
-0.048638362 0.065176755 0.0619296 0.06963344 0.07773451 0.0064770435 0.08185476 -0.04222103
-0.02086301 -0.07103252 -0.07668437 -0.08234346 -0.10368097 0.08147444 -0.050133098 0.027715534
0.0043890956 0.05687814 -0.032285463 0.053561717 -0.0020155467 -0.019161653 -0.024518814 0.051692005
-0.014846185 -0.028615689 -0.045048676 0.0022542393 0.051274635 0.068870656 -0.07639052 -0.025045823
0.050661985 -0.04130894 -0.019181225 -0.07195698 -0.016423583 -0.040142216 -0.08070344 -0.09248016
0.0062392717 0.079062305 0.023942571 0.10234093 -0.039808515 -0.069739915 -0.015141886 0.02884946
-0.090527184 -0.091790214 0.0400692 -0.060096722 -0.07842597 0.069408275 -0.07601899 -0.043885764
0.04049966 -0.07183543 0.07266233 0.054674532 -0.08279519 0.011817864 -0.029787764 -0.044225935
-0.009463938 0.05232976 -0.11851855 0.0158191 0.032180987 -0.034773804 -0.040936965 0.04972408
-0.0128058875 0.010700973 0.0030533366 -0.023951728 0.0017069224 -0.064216584 -0.099989556 -0.10704473
-0.11978808 0.032520264 -0.012688152 -0.05299076 0.023516336 -0.06815014 0.06766359 -0.06896608
-0.11323563 -0.016055908 -0.08565473 -0.021319024 -0.00829764 -0.008181754 -0.09593804 0.0053961105
0.07684554 0.061660904 0.0840988 -0.06688738 -0.073471114 0.021625495 -0.112306446 0.05596527
0.08423084 -0.12459219 -0.008709045 -0.089482345 0.058270067 0.016950803 -0.06464055 0.02964162
0.03387501 0.0030367004 -0.04121657 0.011540465 -0.0846494 0.059678093 0.03300544 0.03983841
-0.07908755 -0.11283895 -0.07677279 -0.05525879 0.0065052696 0.004127455 -0.10765519 -0.039410863
-0.006904707 -0.04467196 -0.067624025 -0.029589204 -0.03497906 0.058036797 -0.028259935 -0.07898228
-0.07510812 -0.07857564 0.06195205 0.010076584 -0.009212197 0.02152932 0.053526863 -0.07370062
-0.082667135 0.033234987 -0.05430747 -0.07663863 0.07012357 -0.00071508414 -0.073582195 -0.089741856
00000000: b00b 9dbd 4703 d3bd 8117 303d 95c0 babd
00000010: c5ac 4fbc 6b2c 6d3d 4e58 88bd a550 a6bc
00000020: bd0b 123b a1c8 803d 2e0c 75bd 70c7 6abc
00000030: ef61 3a3d e314 433d 47a5 db3b cb34 00bd
00000040: 7b4a 81bd cbe4 163c a09b c8bd 49b6 64bd
00000050: 1b23 adbd edc2 96bd e072 983c d887 8f3c
00000060: 3a10 5abd 28d3 7a3d 2ace 2a3d 0bb9 f13a
00000070: b730 19bd c985 94bd a7ca 1dbd 3b96 2b3d
00000080: 17e2 b7bd 5103 33bd 274b 793c 4455 a3bd
00000090: b2c2 a5bb b7b0 26bc 9f97 843c 580f fabc
000000a0: acbb e5bc b1ec 8fbc 4b1c d7bb bfa2 753d
000000b0: 6a13 803b 31cd d7ba de77 4c3d 8842 a4bd
000000c0: 528f 2b3d 1fd1 aa3d 2882 003d 4c26 e6bc
000000d0: d6f2 44bd 4c61 2ebd 35f1 ed3c 1db5 7cbd
000000e0: bbb0 07bd a3db c2bc 7e56 7e3d 868a babd
000000f0: 15a2 8dbd d5af b5bd ee38 813b 93f3 47bd
00000100: 17c7 063d 8f43 513d eb77 c2bc c82e 00bd
00000110: 065f d0bb f27c 99bc 1e76 703d 19af 133d
00000120: d107 213d b08c f4bc 280f 1abd e5d7 b53c
00000130: 7ff8 1639 cc2a a2bd bbc1 653d 4fda 423d
00000140: f3fc 27bc cb98 d73c 7611 8dbd f847 93bd
00000150: 6bd8 893a bf5f 763d 64f6 c9bd d857 df3d
00000160: 9efd c3bc 6037 9f3d 20a7 75bd 0a39 823d
00000170: 7dcc c1bb a969 ba3c 9483 82bd f9d8 693d
00000180: b390 65bd 0766 91bd 5891 153c 8737 fcbb
00000190: 4843 003d dae6 323d f325 f1bc dc2f a8bd
000001a0: 0539 47bd 647b 853d e4a9 7d3d fa9b 8e3d
000001b0: 4533 9f3d 613d d43b 78a3 a73d f5ef 2cbd
000001c0: e7e8 aabc 7f79 91bd b20c 9dbd b0a3 a8bd
000001d0: b056 d4bd 12dc a63d 5d58 4dbd b00b e33c
000001e0: 67d2 8f3b 0df9 683d c33d 04bd 8863 5b3d
000001f0: 4317 04bb e6f8 9cbc aedb c8bc ffba 533d
00000200: 6a3d 73bc 736b eabc f684 38bd dcbb 133b
00000210: 5a05 523d 0f0c 8d3d a272 9cbd e62c cdbc
00000220: f182 4f3d 9033 29bd f221 9dbc 2e5e 93bd
00000230: c08a 86bc 2a6c 24bd d847 a5bd 3d66 bdbd
00000240: ce72 cc3b 6beb a13d 3623 c43c 1f98 d13d
00000250: 410e 23bd cdd3 8ebd ac15 78bc b455 ec3c
00000260: 5166 b9bd 82fc bbbd 9a1f 243d fb27 76bd
00000270: cc9d a0bd ed25 8e3d d8af 9bbd 8fc1 33bd
00000280: f9e2 253d 741e 93bd fdcf 943d 67f2 5f3d
00000290: 8690 a9bd b79f 413c 7805 f4bc 4126 35bd
000002a0: a20e 1bbc bb57 563d dbb9 f2bd 0f97 813c
000002b0: 36d0 033d fa6e 0ebd 85ad 27bd 7aab 4b3d
000002c0: c9cf 51bc 2253 2f3c 7d1a 483b 6a36 c4bc
000002d0: d0ba df3a fc83 83bd 53c7 ccbd 443a dbbd
000002e0: 7453 f5bd f833 053d f7e1 4fbc d70c 59bd
000002f0: 55a5 c03c 4d92 8bbd 3593 8a3d 173e 8dbd
00000300: 15e8 e7bd ae87 83bc bf6b afbd 3ca5 aebc
00000310: d3f2 07bc c30c 06bc 2a7b c4bd dbd1 b03b
00000320: 3261 9d3d 2590 7c3d fe3b ac3d 40fc 88bd
00000330: 0678 96bd f327 b13c ec00 e6bd d73b 653d
00000340: 3881 ac3d 312a ffbd 62b0 0ebc 8542 b7bd
00000350: 98ac 6e3d 69dc 8a3c 4462 84bd fcd2 f23c
00000360: 86c0 0a3d 6103 473b b5d2 28bd 3814 3d3c
00000370: aa5c adbd 0471 743d b630 073d 9a2d 233d
00000380: a7f8 a1bd 1b18 e7bd 0d3b 9dbd 0a57 62bd
00000390: 282a d53b 9a3f 873b 537a dcbd 496d 21bd
000003a0: e140 e2bb f2f9 36bd 777e 8abd 0f65 f2bc
000003b0: 3446 0fbd feb7 6d3d 6181 e7bc 76c1 a1bd
000003c0: 49d2 99bd 44ec a0bd 6fc1 7d3d 4218 253c
000003d0: c1ee 16bc 425e b03c fc3e 5b3d 5af0 96bd
000003e0: 634d a9bd 6921 083d 8271 5ebd b7f4 9cbd
000003f0: f29c 8f3d 7c74 3bba 43b2 96bd 94ca b7bd

network.2.bias f4 [128]
0.03555951 -0.08619382 0.06085183 0.07815923 0.14928848 -0.02951326 0.6682598 0.5466873
-0.046407353 -0.07610497 -0.15991257 -0.14281088 0.08590085 -0.06963634 0.00978995 -0.21163854
0.27874956 0.44968337 0.69347245 -0.022184603 0.48642242 0.06643809 0.16631491 -0.10835988
-0.0047421646 -0.030743882 0.0048397486 -0.042980544 -0.0053742123 -0.06539077 0.059926286 0.0187172
0.18912518 -0.14525433 -0.016241461 0.03133904 -0.25137943 -0.05093652 -0.21006007 -0.0804072
-0.17343697 0.80005753 -0.011001602 -0.07641589 0.031401902 -0.02170464 0.060124543 -0.115036994
0.35777774 -0.06750388 -0.036344428 -0.20218022 -0.11563425 0.036529724 0.17272246 -0.070755154
-0.03400697 -0.05872582 0.35685584 -0.12199285 -0.051896427 -0.24733958 0.00125793 0.028136171
0.7024584 -0.09335523 0.5734746 0.97088313 -0.048914675 0.0014855411 -0.059993804 -0.028220078
0.017976783 -0.030947492 -0.017677262 -0.050646424 -0.042402 0.057609502 -0.34486818 0.620642
-0.005103381 -0.008720117 0.05311151 0.06852197 -0.07583493 0.14570135 -0.22501197 0.23736906
-0.065330565 -0.017719438 0.69765717 -0.45928314 -0.025488269 -0.23668107 -0.48913518 -0.07031071
-0.03604213 -0.034034364 -0.015911277 -0.0130375195 0.05967658 0.06448121 -0.24815808 -0.118778236
-0.065469414 -0.13400301 -0.12771262 0.0043715807 0.1622385 -0.010384578 0.054247 0.04009272
-0.15364444 0.15817769 -0.23958188 -0.10139104 0.110140465 0.011254607 0.4245312 0.18168555
-0.06749631 0.07147848 0.03428944 -0.014255102 -0.16714226 0.0046182796 0.6077406 0.007621533
00000000: d9a6 113d 6386 b0bd c53f 793d f211 a03d
00000010: 14df 183e cbc5 f1bc 1313 2b3f b3f3 0b3f
00000020: a315 3ebd ecdc 9bbd 1fc0 23be 043d 12be
00000030: c9ec af3d 7f9d 8ebd 0766 203c c6b7 58be
00000040: 43b8 8e3e e63c e63e 6987 313f 7cbc b5bc
00000050: 5c0c f93e b110 883d 754e 2a3e c9eb ddbd
00000060: 2964 9bbb 98da fbbc c196 9e3b 5e0c 30bd
00000070: 291a b0bb 99eb 85bd 4475 753d d054 993c
00000080: 08aa 413e 8dbd 14be d00c 85bc 5d5d 003d
00000090: ceb4 80be d0a2 50bd fd19 57be 88ac a4bd
000000a0: 7699 31be 92d0 4c3f 1040 34bc ef7f 9cbd
000000b0: 489f 003d eecd b1bc 2745 763d 8498 ebbd
000000c0: a52e b73e 793f 8abd e5dd 14bd 5508 4fbe
000000d0: a6d1 ecbd 31a0 153d 28de 303e 14e8 90bd
000000e0: e44a 0bbd 7c8a 70bd cfb5 b63e 63d7 f9bd
000000f0: 5991 54bd 9646 7dbe 20e1 a43a d47d e63c
00000100: 50d4 333f 0731 bfbd 3bcf 123f cc8b 783f
00000110: c15a 48bd 7db6 c23a 10bc 75bd cb2d e7bc
00000120: 0c44 933c 9885 fdbc e8cf 90bc a072 4fbd
00000130: b8ad 2dbd f1f7 6b3d 9092 b0be 65e2 1e3f
00000140: 433a a7bb d2de 0ebc 748b 593d 3f55 8c3d
00000150: 584f 9bbd bc32 153e 8a69 66be e010 733e
00000160: 08cc 85bd 5b28 91bc a999 323f 2927 ebbe
00000170: c6cc d0bc 865c 72be ed6f fabe 10ff 8fbd
00000180: eaa0 13bd 9e67 0bbd 5e58 82bc 529b 55bc
00000190: 6e6f 743d ba0e 843d 271d 7ebe 0142 f3bd
000001a0: d414 86bd 1638 09be 19c7 02be 7a3f 8f3b
000001b0: d921 263e 1424 2abc 1a32 5e3d 4438 243d
000001c0: f854 1dbe 55f9 213e f454 75be 1ba6 cfbd
000001d0: 5391 e13d 3e65 383c 275c d93e c70b 3a3e
000001e0: 813b 8abd 4f63 923d 1573 0c3d 3b8e 69bc
000001f0: 5727 2bbe f054 973b e394 1b3f 0dbe f93b

network.4.weight f4 [6, 128]
-0.071398966 0.020954885 -0.6124974 -0.57154506 0.3884528 -0.7065629 0.45415822 1.0573684
-0.06823941 -0.58394593 -0.31647077 -1.2643086 -0.56955886 -0.050250325 -2.2771275 -0.46364135
0.816142 0.65285176 0.58755493 0.06556061 0.7012238 -0.058600962 -0.2339667 0.08582691
-0.011700152 -0.00017560045 -0.08207286 0.0014131401 -0.33571717 0.066344954 -0.087393545 -0.09048307
2.5322106 0.11755965 0.039311465 -0.8617277 -0.49167147 0.033196293 -0.29176772 -1.0151875
0.16682586 -0.33781692 -0.10036753 0.07181897 -0.077525176 -0.28826487 -0.0141294515 -0.034987528
0.7527798 0.024405655 0.025636863 -0.87924945 -0.11495588 -0.12296992 2.1991608 -0.039188594
0.042694986 -0.019530017 1.0650269 -0.10667291 0.05862267 -1.103799 0.52330357 -2.2311633
0.37772298 -0.035102203 0.626413 0.7225581 -0.07978015 1.5399333 -0.040511288 0.019772
-0.023651583 0.043328453 0.037800126 0.5980984 -0.05067452 0.059748203 -1.0094012 0.42317793
4.4696474 -0.08213308 0.057353135 -0.001796055 -0.06445764 0.15152968 -0.9514362 1.2338814
0.030953895 -0.05424199 0.30138484 -2.1861691 0.0014062261 -1.1892875 -2.4954388 0.014202993
0.9361141 -0.030568125 -0.028627377 2.4319117e-05 -0.011899582 0.31953484 -0.6269166 -0.09781133
-0.013667546 0.13273633 -1.3407599 0.06590551 0.5318311 0.075962976 -0.25040543 0.014106985
0.45081854 -0.7617026 -0.37795568 0.019255562 -1.0151186 3.693992 1.587511 0.5865597
-0.15824902 -0.04514172 0.09803051 -0.24080369 -0.5699618 0.029552218 0.8422395 -0.0630824
-0.06341925 0.01564903 -0.14240317 -1.0265278 -1.0928069 -1.7666867 1.6227307 1.0255959
-0.001831153 -0.6037775 -0.5697684 -0.2255734 -0.69017607 -0.020653682 -1.0868253 -0.3383469
0.47068372 0.29651618 0.1108419 0.028840633 1.3771287 -0.010246089 0.11970746 -0.03712772
-0.082423836 0.075754575 0.085624486 -0.00045272126 -0.6552279 0.059498683 0.07233512 0.04515338
4.14461 -0.023490729 -0.03355794 0.08492974 -0.37226948 0.009852437 -0.42515844 -0.6736927
0.16775 0.14101 -0.5423327 0.044154946 -0.086093344 0.052594665 -0.020269081 -0.06287221
0.8674093 -0.053668268 0.073016554 -0.08099494 0.017168408 0.030054249 3.4317398 -0.050498225
0.120826185 -0.027921168 0.61833817 0.013359908 -0.006783456 -0.7121926 -0.19484113 0.80193746
0.39230156 0.024934033 0.6988526 1.3418627 0.07048808 -0.13469025 -0.025531968 -0.07332033
-0.03783519 -0.01688077 0.052316625 -0.5063519 0.0820514 -0.07642265 -0.20143521 0.47127828
4.2450795 -0.05450622 0.06932045 -0.042916365 -0.072947845 -0.33429947 -0.369749 0.7316322
-0.06762313 -0.21896847 -0.012937091 -0.3637589 0.036791902 -0.8214583 -0.05027458 -0.046600036
0.86036503 -0.016008005 0.054688778 0.0812624 0.07739376 -0.05181265 -0.43675676 -0.6739327
-0.043358654 -0.47824594 -0.5710327 -0.017637257 0.47257257 -0.075618215 -1.4026448 -0.12012
1.0373808 -0.45092258 -0.06856722 0.062054437 -3.4916213 3.4456172 0.4782264 0.096555226
-0.39674374 -0.07631121 -0.9709587 0.061632205 0.09495679 0.03143892 0.17423634 0.063105814
00000000: 9f39 92bd 94a9 ab3c a1cc 1cbf c750 12bf
00000010: 49e3 c63e 4ee1 34bf 6d87 e83e d957 873f
00000020: 1bc1 8bbd 7b7d 15bf 7508 a2be ddd4 a1bf
00000030: 9cce 11bf 49d3 4dbd 75bc 11c0 6662 edbe
00000040: afee 503f 4b21 273f 006a 163f a444 863d
00000050: 6783 333f 9007 70bd f794 6fbe 05c6 af3d
00000060: ffb1 3fbc 6321 38b9 d115 a8bd 1d39 b93a
00000070: 1fe3 abbe dddf 873d 63fb b2bd 304f b9bd
00000080: bd0f 2240 1dc3 f03d 0f05 213d 309a 5cbf
00000090: 5dbc fbbe d6f8 073d 9462 95be aaf1 81bf
000000a0: 66d4 2a3e 57f6 acbe 7e8d cdbd d315 933d
000000b0: 85c5 9ebd 7497 93be 377f 67bc 154f 0fbd
000000c0: 2db6 403f 5eee c73c 6604 d23c 7e16 61bf
000000d0: fd6d ebbd a7d7 fbbd 0dbf 0c40 3884 20bd
000000e0: f0e0 2e3d 6afd 9fbc cd52 883f 5477 dabd
000000f0: 531e 703d 4949 8dbf 39f7 053f 61cb 0ec0
00000100: e864 c13e 54c7 0fbd 9a5c 203f 91f9 383f
00000110: c663 a3bd 891c c53f 2aef 25bd e4f8 a13c
00000120: f7c0 c1bc 2d79 313d 4ed4 1a3d fa1c 193f
00000130: 1690 4fbd 88ba 743d 0f34 81bf c7aa d83e
00000140: 5a07 8f40 6335 a8bd 1feb 6a3d 9b69 ebba
00000150: 5e02 84bd 992a 1b3e 5391 73bf d3ef 9d3f
00000160: 0693 fd3c d92c 5ebd 1d4f 9a3e 32ea 0bc0
00000170: 1e51 b83a 933a 98bf 45b5 1fc0 acb3 683c
00000180: 2ca5 6f3f 016a fabc f683 eabc e800 cc37
00000190: 77f6 42bc 129a a33e 9b7d 20bf 4e51 c8bd
000001a0: d8ed 5fbc 08ec 073e 059e abbf 78f9 863d
000001b0: 1526 083f 7a92 9b3d 2435 80be fc20 673c
000001c0: b0d1 e63e f1fe 42bf 6883 c1be d7bd 9d3c
000001d0: 68ef 81bf 5d6a 6c40 8f33 cb3f c728 163f
000001e0: 080c 22be 86e6 38bd 38c4 c83d 3e95 76be
000001f0: 04e9 11bf 7e17 f23c 029d 573f 5831 81bd
00000200: f4e1 81bd 6532 803c 23d2 11be 4365 83bf
00000210: 19e1 8bbf ca22 e2bf a4b5 cf3f ba46 833f
00000220: 4c03 f0ba 2a91 1abf 58dc 11bf b7fc 66be
00000230: 61af 30bf e931 a9bc 171d 8bbf ce3b adbe
00000240: 75fd f03e f8d0 973e 1401 e33d 3143 ec3c
00000250: c145 b03f 36df 27bc 2f29 f53d 3c13 18bd
00000260: d4cd a8bd 3725 9b3d e45b af3d 385b edb9
00000270: 04bd 27bf e4b4 733d 6f24 943d c0f2 383d
00000280: a5a0 8440 a16f c0bc 0d74 09bd a5ef ad3d
00000290: 1b9a bebe 1e6c 213c 5eae d9be 2077 2cbf
000002a0: a8c6 2b3e ed64 103e 51d6 0abf d1db 343d
000002b0: b551 b0bd 816d 573d 580b a6bc 25c3 80bd
000002c0: 890e 5e3f 42d3 5bbd b489 953d ade0 a5bd
000002d0: c3a4 8c3c 5434 f63c a0a1 5b40 3ad7 4ebd
000002e0: b873 f73d efba e4bc 694b 1e3f 84e3 5a3c
000002f0: c147 debb 4152 36bf 6f84 47be c64b 4d3f
00000300: c0db c83e 7542 cc3c 01e8 323f 28c2 ab3f
00000310: 0e5c 903d 3eec 09be 6b28 d1bc f828 96bd
00000320: 12f9 1abd 8a49 8abc f549 563d 47a0 01bf
00000330: 900a a83d 7a83 9cbd 0845 4ebe 634b f13e
00000340: b1d7 8740 ea41 5fbd e1f7 8d3d 12c9 2fbd
00000350: ae65 95bd 4d29 abbe be4f bdbe 3f4c 3b3f
00000360: ff7d 8abd 4539 60be 18f6 53bc 9b3e babe
00000370: 1bb3 163d 174b 52bf b8ec 4dbd aedf 3ebd
00000380: e240 5c3f 3823 83bc 5701 603d e76c a63d
00000390: 9f80 9e3d 8039 54bd 959e dfbe da86 2cbf
000003a0: d898 31bd a7dc f4be 332f 12bf 027c 90bc
000003b0: 08f5 f13e b9dd 9abd dd89 b3bf 7901 f6bd
000003c0: e5c8 843f 53df e6be f86c 8cbd cb2c 7e3d
000003d0: b976 5fc0 fe84 5c40 17da f43e bfbe c53d
000003e0: ff21 cbbe 0d49 9cbd c090 78bf 0d72 7c3d
000003f0: b578 c23d 19c6 003d 036b 323e 9f3d 813d

network.4.bias f4 [6]
0.8020094 0.43855122 0.599072 0.58723646 0.18821938 0.64141554
00000000: 7d50 4d3f c989 e03e c85c 193f 2155 163f
00000010: 95bc 403e cf33 243f

network.0.weight f4 [128, 12]
-0.0049344795 -0.11869586 0.10247138 0.10670611 0.26276293 -0.050766457 -0.089497015 -0.10803768
-0.24814244 0.06418262 -0.1989099 -0.21101978 0.38959906 0.78477526 -0.13306464 -0.28969726
2.247194 -0.3235499 -0.47143912 0.25386995 0.5996344 0.22598721 0.21653031 -0.302937
-0.19503859 -0.6727007 2.5680337 0.25170085 0.07454427 0.08511646 -0.14285344 0.5722205
0.82677555 -0.3786802 -0.01149891 -0.15960181 -0.23163381 -1.0558653 2.528948 -0.25332215
0.5752183 0.099188745 -0.12296238 0.4634943 1.2203131 -0.048038438 0.039778538 -0.048994713
-0.115247205 0.4953687 -1.1974429 -1.0121988 0.27101794 -0.4235381 -0.13368332 0.33374324
0.3757322 0.20084247 -0.51416755 0.21618398 0.28791577 -0.41360682 1.6230637 1.1475059
1.7260536 0.29974604 0.058150623 0.061993092 -0.49655303 0.44210464 -0.03995937 0.004442936
0.016597403 1.0646178 -1.2890493 -1.9389766 1.0153688 -1.4996611 -0.059373856 -3.3031723
0.20091277 -0.25162813 -0.28734365 -0.21908961 0.1195715 0.11678438 -2.416778 -0.26057184
-0.8833778 0.3094867 -0.23064728 0.30236492 0.32791203 -0.4033431 0.109258935 -0.14350529
0.03904678 -0.119891845 0.104554005 -0.0057426975 0.17011678 0.094590895 -0.11138501 -0.18942042
0.017698824 -0.036888927 -0.2520335 -0.088021636 0.25355917 -0.23699474 -2.311671 -0.8202633
-1.3171816 0.033631433 0.006317004 0.2796176 0.023066435 0.13211155 0.07398462 0.29629806
-0.16096109 0.99868554 0.05529312 0.0965882 0.5222666 0.25795022 -0.13689329 0.1239906
0.12740336 0.32114857 0.3115748 0.5048374 -0.38917357 0.18303569 -0.391673 0.6058851
-0.079198346 -0.05398894 0.08450694 -0.7886669 -0.707959 -0.83136344 0.2558116 0.051028684
-0.8381639 0.17084198 0.27424634 0.29873654 0.5179045 -0.42221656 0.73442954 -0.4925778
-0.49078 -0.6170685 -0.17681196 -0.5308638 -0.020254282 -0.0018112466 -0.064129345 0.1792781
-0.2669631 0.0264727 -0.28004563 -0.24753515 0.032923236 -0.003913488 -0.10891156 -0.051801145
0.08043574 0.08315632 0.9513846 0.31654692 1.0980498 -0.45914984 0.12790486 0.16526575
-0.17675686 -0.0968327 0.10482534 0.14172201 0.10333275 -0.0048299315 1.4069785 -0.058494356
0.048475 0.038348753 -0.04690389 0.11427656 0.5171088 -0.3114515 -0.27730155 0.39563575
0.051735546 -0.1594979 -0.276092 0.082344115 0.12509508 0.02817149 0.101709165 -0.07139221
0.074744806 -0.0723118 -0.083630085 -0.054539386 -0.48984623 -0.8245817 -0.12939528 0.30687028
-1.613033 0.71536624 0.31637183 1.032928 1.0938598 0.7844609 -0.61467767 -0.020133266
0.1891018 -0.5860675 1.41339 -3.988994 1.361525 0.5468206 0.16901933 -0.12821433
-0.71338433 -0.0043511805 -0.11393777 0.7212916 -0.32626033 0.1968078 1.1777998 -0.28249785
0.9976268 0.043786347 0.61620194 -0.08975814 -0.09538221 0.11730061 -0.19916946 -0.06555117
0.22041187 -0.41211942 3.721032 1.7980144 0.44069847 -0.20245036 0.087520845 -0.124576926
1.0418226 -0.14772049 -0.33129945 -0.7019802 -0.110188164 -1.2024182 1.1588191 -0.28162456
00000000: 6ab1 a1bb d116 f3bd 84dc d13d bc88 da3d
00000010: dd88 863e 7df0 4fbd 364a b7bd dc42 ddbd
00000020: 0d19 7ebe 2d72 833d 09af 4bbe 9215 58be
00000030: 8779 c73e 08e7 483f 1942 08be 3353 94be
00000040: 07d2 0f40 55a8 a5be 7860 f1be 3efb 813e
00000050: a481 193f 3169 673e 1fba 5d3e 8f1a 9bbe
00000060: 32b8 47be 1d36 2cbf aa5a 2440 efde 803e
00000070: abaa 983d 8a51 ae3d 2c48 12be 0b7d 123f
00000080: 90a7 533f 5fe2 c1be ed65 3cbc a86e 23be
00000090: 6a31 6dbe 9826 87bf 49da 2140 71b3 81be
000000a0: 8241 133f 7823 cb3d b3d3 fbbd 204f ed3e
000000b0: 3833 9c3f f4c3 44bd d2ee 223d aeae 48bd
000000c0: ba06 ecbd f7a0 fd3e cf45 99bf bb8f 81bf
000000d0: ddc2 8a3e fcd9 d8be 48e4 08be 65e0 aa3e
000000e0: f95f c03e a6a9 4d3e 7ca0 03bf 555f 5d3e
000000f0: b269 933e 46c4 d3be 8dc0 cf3f 79e1 923f
00000100: 53ef dc3f 5078 993e 592f 6e3d 78ec 7d3d
00000110: 333c febe 8a5b e23e 70ac 23bd 0c96 913b
00000120: 47f7 873c 6545 883f 91ff a4bf 6330 f8bf
00000130: 9bf7 813f e5f4 bfbf 0032 73bd 2d67 53c0
00000140: 14bc 4d3e 67d5 80be b51e 93be 0759 60be
00000150: e7e1 f43d a62c ef3d 7eac 1ac0 ac69 85be
00000160: 0c25 62bf 0a75 9e3e cd2e 6cbe 93cf 9a3e
00000170: 16e4 a73e fd82 cebe 26c3 df3d 0df3 12be
00000180: 84ef 1f3d db89 f5bd 6920 d63d 3d2d bcbb
00000190: 1833 2e3e dfb8 c13d d31d e4bd 6df7 41be
000001a0: 20fd 903c d818 17bd 890a 81be b044 b4bd
000001b0: 82d2 813e c0ae 72be 6bf2 13c0 c7fc 51bf
000001c0: 6899 a8bf 1dc1 093d dffe ce3b 0a2a 8f3e
000001d0: d2f5 bc3c 4048 073e 4085 973d 61b4 973e
000001e0: fcd2 24be dba9 7f3f 0a7b 623d 09d0 c53d
000001f0: 44b3 053f 0d12 843e c12d 0cbe c9ee fd3d
00000200: 0776 023e 966d a43e bb86 9f3e 063d 013f
00000210: c241 c7be b56d 3b3e 5d89 c8be 491b 1b3f
00000220: be32 a2bd 8223 5dbd f911 ad3d 13e6 49bf
00000230: cd3c 35bf 3cd4 54bf bdf9 823e 7403 513d
00000240: e991 56bf 33f1 2e3e 046a 8c3e fff3 983e
00000250: 6495 043f c52c d8be 9303 3c3f 2833 fcbe
00000260: 8447 fbbe 34f8 1dbf 320e 35be b1e6 07bf
00000270: 4fec a5bc 5a67 edba 3f56 83bd ae94 373e
00000280: 63af 88be 47dd d83c 2462 8fbe db79 7dbe
00000290: 84da 063d b73c 80bb 060d dfbd 702d 54bd
000002a0: 7ebb a43d dc4d aa3d f18d 733f 7012 a23e
000002b0: e58c 8c3f b015 ebbe 7ef9 023e 6d3b 293e
000002c0: c0ff 34be 3950 c6bd abae d63d 931f 113e
000002d0: 1fa0 d33d 6744 9ebb df17 b43f c797 6fbd
000002e0: b98d 463d 9513 1d3d 4b1e 40bd d409 ea3d
000002f0: 3e61 043f 9276 9fbe 78fa 8dbe c590 ca3e
00000300: a7e8 533d 6b53 23be ee5b 8dbe 08a4 a83d
00000310: ed18 003e e6c7 e63c e54c d03d 1436 92bd
00000320: ce13 993d 3618 94bd 4046 abbd b164 5fbd
00000330: 20cd fabe c917 53bf 3280 04be 1a1e 9d3e
00000340: de77 cebf 3e22 373f 7dfb a13e fc36 843f
00000350: 9903 8c3f 6ed2 483f 845b 1dbf 85ee a4bc
00000360: e7a3 413e 8508 16bf f7e9 b43f ad4b 7fc0
00000370: 7446 ae3f 6ffc 0b3f 6713 2d3e 9e4a 03be
00000380: 5ba0 36bf 5994 8ebb 3558 e9bd 91a6 383f
00000390: 980b a7be fc87 493e 25c2 963f 8fa3 90be
000003a0: 7864 7f3f 5059 333d 69bf 1d3f 1ed3 b7bd
000003b0: c057 c3bd 4d3b f03d 14f3 4bbe b13f 86bd
000003c0: a6b3 613e 5101 d3be 6325 6e40 5625 e63f
000003d0: 3ba3 e13e 264f 4fbe 213e b33d 3022 ffbd
000003e0: 715a 853f 0a44 17be 15a0 a9be f9b4 33bf
000003f0: 55aa e1bd d7e8 99bf 2f54 943f 1831 90be

network.0.bias f4 [128]
-0.17886798 0.5933032 0.24171434 -0.24865024 0.5692885 0.19068976 -0.15699795 0.7440382
-0.0880002 0.5117363 0.6795361 -0.6081467 -0.5318669 -0.17210886 0.30403328 0.8459459
-0.26713806 -0.062540114 -0.0005740323 0.18001997 -0.25059536 0.81097114 -0.31408563 0.13220869
0.66008776 0.14921127 0.50889975 0.36648273 0.6237088 0.3583048 0.56378514 -0.35426322
0.012227707 0.6739701 0.76471424 -0.45570308 0.4991772 0.7006037 0.41149777 -0.03671643
0.79239213 0.67820126 -0.27428246 0.22383054 0.30536437 -0.009227987 0.73768127 0.362481
-0.13783915 -0.23999327 0.13590556 0.7180101 0.1647262 -1.1225752 0.9135561 -0.37841162
-0.17354569 0.22852199 -0.3479683 0.13539295 0.5784502 0.046145875 0.17807323 -0.007186117
-0.1601824 0.3910128 0.6785239 -0.28857946 0.15907902 0.016972529 -0.3509953 0.4130123
0.3757377 0.24508618 -0.12601574 0.15105382 -0.077040434 0.057543878 -0.37636235 -0.9307117
0.8622555 -0.7290395 0.9129602 0.6754234 0.5718732 0.5048407 -0.5432078 0.39129654
0.17597148 0.0077839564 -0.22772758 0.8875985 0.6881712 -0.191812 0.2845098 0.3312516
-0.15283598 0.3290301 0.0446981 0.26525602 0.69352573 0.78575355 -0.29693538 0.082624905
0.5448909 0.34857053 -0.22010536 -0.23477332 -0.07266383 -0.21684073 -0.24337658 -0.15332952
-0.246299 0.4556808 0.808123 -0.09582595 -0.108945236 -0.059376147 -0.3411975 -0.65657645
0.65637714 1.0322772 0.42411166 0.0025129153 -0.24980024 0.4613378 1.0916165 0.6009233
00000000: 2b29 37be b8e2 173f f783 773e 2b9e 7ebe
00000010: e4bc 113f 2d44 433e 12c4 20be 4a79 3e3f
00000020: 7339 b4bd 2601 033f 14f6 2d3f 81af 1bbf
00000030: 6e28 08bf 4e3d 30be 40aa 9b3e e98f 583f
00000040: 52c6 88be 0815 80bd a87a 16ba 2857 383e
00000050: 094e 80be ce9b 4f3f d5cf a0be b761 073e
00000060: 83fb 283f d7ca 183e 4147 023f a0a3 bb3e
00000070: 61ab 1f3f ba73 b73e 3954 103f fd61 b5be
00000080: b856 483c 4e89 2c3f 50c4 433f ea51 e9be
00000090: 2794 ff3e c45a 333f d6af d23e f863 16bd
000000a0: 36da 4a3f 999e 2d3f c06e 8cbe d533 653e
000000b0: b858 9c3e fc30 17bc aed8 3c3f 1c97 b93e
000000c0: b525 0dbe ccc0 75be d42a 0b3e 83cf 373f
000000d0: fcad 283e 8bb0 8fbf d0de 693f 2bbf c1be
000000e0: f6b5 31be ab01 6a3e e728 b2be 73a4 0a3e
000000f0: 5015 143f 7503 3d3d d458 363e 8579 ebbb
00000100: db06 24be d432 c83e beb3 2d3f b0c0 93be
00000110: 9ce5 223e f909 8b3c a8b5 b3be 5976 d33e
00000120: b160 c03e dff7 7a3e 450a 01be daad 1a3e
00000130: 60c7 9dbd 21b3 6b3d 91b2 c0be 1f43 6ebf
00000140: c7bc 5c3f 55a2 3abf c2b7 693f 8ce8 2c3f
00000150: 4866 123f 3d3d 013f ab0f 0bbf 0558 c83e
00000160: de31 343e 8f10 ff3b 6b31 69be a839 633f
00000170: fd2b 303f 5d6a 44be 45ab 913e cf99 a93e
00000180: 0981 1cbe a276 a83e 5b15 373d a3cf 873e
00000190: e78a 313f 2527 493f ea07 98be 3f37 a93d
000001a0: f87d 0b3f d677 b23e 4d63 61be 6b68 70be
000001b0: c6d0 94bd 7f0b 5ebe b637 79be 6a02 1dbe
000001c0: ce35 7cbe fe4e e93e 26e1 4e3f 6540 c4bd
000001d0: ae1e dfbd 6734 73bd 70b1 aebe 6515 28bf
000001e0: 5508 283f a921 843f 2a25 d93e b9af 243b
000001f0: a2cb 7fbe 7834 ec3e 17ba 8b3f 1cd6 193f

network.2.weight f4 [128, 128]
-0.07668245 -0.103033595 0.042991165 -0.09118763 -0.012675469 0.05790369 -0.06657468 -0.020302126
0.0022284829 0.06288267 -0.05982607 -0.014329776 0.045503553 0.04762734 0.006703052 -0.031300347
-0.06313034 0.009209822 -0.09795308 -0.055837903 -0.084539615 -0.07361398 0.018609464 0.01752083
-0.05323813 0.06123653 0.04170052 0.0018441988 -0.037399974 -0.0725208 -0.038523342 0.041891318
-0.0897867 -0.043704335 0.015215672 -0.079752475 -0.00505861 -0.010173968 0.01618558 -0.030524895
-0.02804359 -0.017568918 -0.006564652 0.05996966 0.0039085643 -0.001646435 0.049919 -0.08020502
0.041884728 0.08340668 0.031374127 -0.028094433 -0.04808315 -0.04257326 0.02904568 -0.06169616
-0.033127528 -0.023786372 0.062094204 -0.091084525 -0.0691568 -0.08871428 0.003943554 -0.048816275
0.03290471 0.05108982 -0.023738822 -0.031294614 -0.006358984 -0.018736336 0.058706395 0.036055658
0.039314095 -0.029852241 -0.03761211 0.022197673 0.00014397687 -0.07918319 0.05609296 0.047571477
-0.010253179 0.026317975 -0.06888096 -0.07191461 0.0010516768 0.060149904 -0.098614484 0.10905427
-0.023924645 0.07774234 -0.059973836 0.063585356 -0.0059142695 0.02275546 -0.06372753 0.057091687
-0.0560462 -0.07099538 0.009128891 -0.007697049 0.031314164 0.04367719 -0.02943704 -0.082122535
-0.048638362 0.065176755 0.0619296 0.06963344 0.07773451 0.0064770435 0.08185476 -0.04222103
-0.02086301 -0.07103252 -0.07668437 -0.08234346 -0.10368097 0.08147444 -0.050133098 0.027715534
0.0043890956 0.05687814 -0.032285463 0.053561717 -0.0020155467 -0.019161653 -0.024518814 0.051692005
-0.014846185 -0.028615689 -0.045048676 0.0022542393 0.051274635 0.068870656 -0.07639052 -0.025045823
0.050661985 -0.04130894 -0.019181225 -0.07195698 -0.016423583 -0.040142216 -0.08070344 -0.09248016
0.0062392717 0.079062305 0.023942571 0.10234093 -0.039808515 -0.069739915 -0.015141886 0.02884946
-0.090527184 -0.091790214 0.0400692 -0.060096722 -0.07842597 0.069408275 -0.07601899 -0.043885764
0.04049966 -0.07183543 0.07266233 0.054674532 -0.08279519 0.011817864 -0.029787764 -0.044225935
-0.009463938 0.05232976 -0.11851855 0.0158191 0.032180987 -0.034773804 -0.040936965 0.04972408
-0.0128058875 0.010700973 0.0030533366 -0.023951728 0.0017069224 -0.064216584 -0.099989556 -0.10704473
-0.11978808 0.032520264 -0.012688152 -0.05299076 0.023516336 -0.06815014 0.06766359 -0.06896608
-0.11323563 -0.016055908 -0.08565473 -0.021319024 -0.00829764 -0.008181754 -0.09593804 0.0053961105
0.07684554 0.061660904 0.0840988 -0.06688738 -0.073471114 0.021625495 -0.112306446 0.05596527
0.08423084 -0.12459219 -0.008709045 -0.089482345 0.058270067 0.016950803 -0.06464055 0.02964162
0.03387501 0.0030367004 -0.04121657 0.011540465 -0.0846494 0.059678093 0.03300544 0.03983841
-0.07908755 -0.11283895 -0.07677279 -0.05525879 0.0065052696 0.004127455 -0.10765519 -0.039410863
-0.006904707 -0.04467196 -0.067624025 -0.029589204 -0.03497906 0.058036797 -0.028259935 -0.07898228
-0.07510812 -0.07857564 0.06195205 0.010076584 -0.009212197 0.02152932 0.053526863 -0.07370062
-0.082667135 0.033234987 -0.05430747 -0.07663863 0.07012357 -0.00071508414 -0.073582195 -0.089741856
00000000: b00b 9dbd 4703 d3bd 8117 303d 95c0 babd
00000010: c5ac 4fbc 6b2c 6d3d 4e58 88bd a550 a6bc
00000020: bd0b 123b a1c8 803d 2e0c 75bd 70c7 6abc
00000030: ef61 3a3d e314 433d 47a5 db3b cb34 00bd
00000040: 7b4a 81bd cbe4 163c a09b c8bd 49b6 64bd
00000050: 1b23 adbd edc2 96bd e072 983c d887 8f3c
00000060: 3a10 5abd 28d3 7a3d 2ace 2a3d 0bb9 f13a
00000070: b730 19bd c985 94bd a7ca 1dbd 3b96 2b3d
00000080: 17e2 b7bd 5103 33bd 274b 793c 4455 a3bd
00000090: b2c2 a5bb b7b0 26bc 9f97 843c 580f fabc
000000a0: acbb e5bc b1ec 8fbc 4b1c d7bb bfa2 753d
000000b0: 6a13 803b 31cd d7ba de77 4c3d 8842 a4bd
000000c0: 528f 2b3d 1fd1 aa3d 2882 003d 4c26 e6bc
000000d0: d6f2 44bd 4c61 2ebd 35f1 ed3c 1db5 7cbd
000000e0: bbb0 07bd a3db c2bc 7e56 7e3d 868a babd
000000f0: 15a2 8dbd d5af b5bd ee38 813b 93f3 47bd
00000100: 17c7 063d 8f43 513d eb77 c2bc c82e 00bd
00000110: 065f d0bb f27c 99bc 1e76 703d 19af 133d
00000120: d107 213d b08c f4bc 280f 1abd e5d7 b53c
00000130: 7ff8 1639 cc2a a2bd bbc1 653d 4fda 423d
00000140: f3fc 27bc cb98 d73c 7611 8dbd f847 93bd
00000150: 6bd8 893a bf5f 763d 64f6 c9bd d857 df3d
00000160: 9efd c3bc 6037 9f3d 20a7 75bd 0a39 823d
00000170: 7dcc c1bb a969 ba3c 9483 82bd f9d8 693d
00000180: b390 65bd 0766 91bd 5891 153c 8737 fcbb
00000190: 4843 003d dae6 323d f325 f1bc dc2f a8bd
000001a0: 0539 47bd 647b 853d e4a9 7d3d fa9b 8e3d
000001b0: 4533 9f3d 613d d43b 78a3 a73d f5ef 2cbd
000001c0: e7e8 aabc 7f79 91bd b20c 9dbd b0a3 a8bd
000001d0: b056 d4bd 12dc a63d 5d58 4dbd b00b e33c
000001e0: 67d2 8f3b 0df9 683d c33d 04bd 8863 5b3d
000001f0: 4317 04bb e6f8 9cbc aedb c8bc ffba 533d
00000200: 6a3d 73bc 736b eabc f684 38bd dcbb 133b
00000210: 5a05 523d 0f0c 8d3d a272 9cbd e62c cdbc
00000220: f182 4f3d 9033 29bd f221 9dbc 2e5e 93bd
00000230: c08a 86bc 2a6c 24bd d847 a5bd 3d66 bdbd
00000240: ce72 cc3b 6beb a13d 3623 c43c 1f98 d13d
00000250: 410e 23bd cdd3 8ebd ac15 78bc b455 ec3c
00000260: 5166 b9bd 82fc bbbd 9a1f 243d fb27 76bd
00000270: cc9d a0bd ed25 8e3d d8af 9bbd 8fc1 33bd
00000280: f9e2 253d 741e 93bd fdcf 943d 67f2 5f3d
00000290: 8690 a9bd b79f 413c 7805 f4bc 4126 35bd
000002a0: a20e 1bbc bb57 563d dbb9 f2bd 0f97 813c
000002b0: 36d0 033d fa6e 0ebd 85ad 27bd 7aab 4b3d
000002c0: c9cf 51bc 2253 2f3c 7d1a 483b 6a36 c4bc
000002d0: d0ba df3a fc83 83bd 53c7 ccbd 443a dbbd
000002e0: 7453 f5bd f833 053d f7e1 4fbc d70c 59bd
000002f0: 55a5 c03c 4d92 8bbd 3593 8a3d 173e 8dbd
00000300: 15e8 e7bd ae87 83bc bf6b afbd 3ca5 aebc
00000310: d3f2 07bc c30c 06bc 2a7b c4bd dbd1 b03b
00000320: 3261 9d3d 2590 7c3d fe3b ac3d 40fc 88bd
00000330: 0678 96bd f327 b13c ec00 e6bd d73b 653d
00000340: 3881 ac3d 312a ffbd 62b0 0ebc 8542 b7bd
00000350: 98ac 6e3d 69dc 8a3c 4462 84bd fcd2 f23c
00000360: 86c0 0a3d 6103 473b b5d2 28bd 3814 3d3c
00000370: aa5c adbd 0471 743d b630 073d 9a2d 233d
00000380: a7f8 a1bd 1b18 e7bd 0d3b 9dbd 0a57 62bd
00000390: 282a d53b 9a3f 873b 537a dcbd 496d 21bd
000003a0: e140 e2bb f2f9 36bd 777e 8abd 0f65 f2bc
000003b0: 3446 0fbd feb7 6d3d 6181 e7bc 76c1 a1bd
000003c0: 49d2 99bd 44ec a0bd 6fc1 7d3d 4218 253c
000003d0: c1ee 16bc 425e b03c fc3e 5b3d 5af0 96bd
000003e0: 634d a9bd 6921 083d 8271 5ebd b7f4 9cbd
000003f0: f29c 8f3d 7c74 3bba 43b2 96bd 94ca b7bd

network.2.bias f4 [128]
0.03555951 -0.08619382 0.06015919 0.07876911 0.14901312 -0.029947188 0.66850525 0.5468922
-0.046407353 -0.07646087 -0.15991257 -0.14281088 0.084695056 -0.06963634 0.008693573 -0.21163854
0.2788609 0.45000523 0.6935949 -0.022184603 0.48691067 0.06643809 0.16975735 -0.10835988
-0.0047421646 -0.030743882 0.0048397486 -0.042980544 -0.0028735024 -0.06539077 0.059926286 0.0187172
0.1860564 -0.14525433 -0.016241461 0.03415055 -0.25170138 -0.05093652 -0.21087308 -0.080708295
-0.17651893 0.7988364 -0.009391085 -0.07641589 0.031401902 -0.020058531 0.060124543 -0.115036994
0.3583976 -0.06750388 -0.036344428 -0.20163761 -0.11563425 0.036529724 0.16988724 -0.070755154
-0.03400697 -0.05872582 0.35652512 -0.12199285 -0.051896427 -0.24601467 0.002704981 0.028425768
0.7023929 -0.09335523 0.5734527 0.9711756 -0.048914675 0.0028534336 -0.059993804 -0.028220078
0.017976783 -0.030947492 -0.017677262 -0.051255807 -0.042402 0.057609502 -0.34486818 0.62118095
-0.005103381 -0.008720117 0.05311151 0.06852197 -0.07583493 0.14668274 -0.22904418 0.23874263
-0.065330565 -0.015175773 0.69742197 -0.4594438 -0.025488269 -0.23863263 -0.4899982 -0.07031071
-0.036213607 -0.034034364 -0.015911277 -0.0130375195 0.05967658 0.071218126 -0.24916595 -0.11833036
-0.065469414 -0.13400301 -0.13028856 0.0043715807 0.16103671 -0.010384578 0.05685387 0.04009272
-0.15185146 0.15766688 -0.23958188 -0.10139104 0.11020906 0.011254607 0.42465743 0.18078235
-0.067831755 0.07147848 0.0324331 -0.010603942 -0.16766493 0.0046182796 0.60777235 0.007621533
00000000: d9a6 113d 6386 b0bd 7c69 763d b351 a13d
00000010: e596 183e ce53 f5bc 2923 2b3f 2101 0c3f
00000020: a315 3ebd 8497 9cbd 1fc0 23be 043d 12be
00000030: 9a74 ad3d 7f9d 8ebd 7d6f 0e3c c6b7 58be
00000040: dbc6 8e3e 1667 e63e 6f8f 313f 7cbc b5bc
00000050: 5b4c f93e b110 883d dfd4 2d3e c9eb ddbd
00000060: 2964 9bbb 98da fbbc c196 9e3b 5e0c 30bd
00000070: 5f51 3cbb 99eb 85bd 4475 753d d054 993c
00000080: 9285 3e3e 8dbd 14be d00c 85bc 72e1 0b3d
00000090: 01df 80be d0a2 50bd 1def 57be 644a a5bd
000000a0: 61c1 34be 8b80 4c3f 11dd 19bc ef7f 9cbd
000000b0: 489f 003d ca51 a4bc 2745 763d 8498 ebbd
000000c0: e47f b73e 793f 8abd e5dd 14bd 177a 4ebe
000000d0: a6d1 ecbd 31a0 153d ecf6 2d3e 14e8 90bd
000000e0: e44a 0bbd 7c8a 70bd 768a b63e 63d7 f9bd
000000f0: 5991 54bd 45eb 7bbe 0d46 313b 28dd e83c
00000100: 05d0 333f 0731 bfbd cccd 123f f79e 783f
00000110: c15a 48bd ac00 3b3b 10bc 75bd cb2d e7bc
00000120: 0c44 933c 9885 fdbc e8cf 90bc 9cf1 51bd
00000130: b8ad 2dbd f1f7 6b3d 9092 b0be b705 1f3f
00000140: 433a a7bb d2de 0ebc 748b 593d 3f55 8c3d
00000150: 584f 9bbd 0034 163e 8f8a 6abe f378 743e
00000160: 08cc 85bd cea3 78bc 3f8a 323f 383c ebbe
00000170: c6cc d0bc 1d5c 74be 0be1 fabe 10ff 8fbd
00000180: b854 14bd 9e67 0bbd 5e58 82bc 529b 55bc
00000190: 6e6f 743d cfda 913d 5c25 7fbe 3057 f2bd
000001a0: d414 86bd 1638 09be 5d6a 05be 7a3f 8f3b
000001b0: cfe6 243e 1424 2abc 9bdf 683d 4438 243d
000001c0: f37e 1bbe 6d73 213e f454 75be 1ba6 cfbd
000001d0: 4ab5 e13d 3e65 383c b36c d93e 021f 393e
000001e0: 60eb 8abd 4f63 923d 92d8 043d 28bc 2dbc
000001f0: 5bb0 2bbe f054 973b f896 1b3f 0dbe f93b

network.4.weight f4 [6, 128]
-0.071398966 0.020954885 -0.6122555 -0.571659 0.3878742 -0.70718336 0.453824 1.0571581
-0.06823941 -0.58490723 -0.31647077 -1.2643086 -0.5706515 -0.050250325 -2.273522 -0.46364135
0.81532687 0.65261567 0.587179 0.06556061 0.70072204 -0.058600962 -0.23371084 0.08582691
-0.011700152 -0.00017560045 -0.08207286 0.0014131401 -0.33566248 0.066344954 -0.087393545 -0.09048307
2.5398715 0.11755965 0.039311465 -0.8633183 -0.49106473 0.033196293 -0.29174566 -1.015891
0.16780868 -0.33722463 -0.10030865 0.07181897 -0.077525176 -0.29115856 -0.0141294515 -0.034987528
0.75253814 0.024405655 0.025636863 -0.8804604 -0.11495588 -0.12296992 2.1989555 -0.039188594
0.042694986 -0.019530017 1.0642939 -0.10667291 0.05862267 -1.0977232 0.5230757 -2.2317164
0.37744948 -0.035102203 0.6256828 0.7224801 -0.07978015 1.5397853 -0.040511288 0.019772
-0.023651583 0.043328453 0.037800126 0.5984688 -0.05067452 0.059748203 -1.0094012 0.42293844
4.4696474 -0.08213308 0.057353135 -0.001796055 -0.06445764 0.15120097 -0.94324225 1.2331998
0.030953895 -0.054289594 0.30114228 -2.1898293 0.0014062261 -1.1857967 -2.4990928 0.014202993
0.9356618 -0.030568125 -0.028627377 2.4319117e-05 -0.011899582 0.31852648 -0.6276637 -0.0980365
-0.013667546 0.13273633 -1.3344309 0.06590551 0.53125125 0.075962976 -0.2505898 0.014106985
0.4495736 -0.76124924 -0.37795568 0.019255562 -1.0158315 3.693992 1.5871994 0.58569354
-0.15678443 -0.04514172 0.097697906 -0.2407689 -0.57087564 0.029552218 0.84192187 -0.0630824
-0.06341925 0.01564903 -0.14093001 -1.0314926 -1.0947604 -1.7672397 1.6220239 1.0250858
-0.001831153 -0.6050419 -0.5697684 -0.2255734 -0.69080174 -0.020653682 -1.0957077 -0.3383469
0.4695791 0.29588914 0.1097392 0.028840633 1.3760315 -0.010246089 0.11992175 -0.03712772
-0.082423836 0.075754575 0.085624486 -0.00045272126 -0.6551623 0.059498683 0.07233512 0.04515338
4.143405 -0.023490729 -0.03355794 0.08448349 -0.370311 0.009852437 -0.4206614 -0.67432475
0.16320625 0.14107722 -0.54319334 0.044154946 -0.086093344 0.05001563 -0.020269081 -0.06287221
0.86672264 -0.053668268 0.073016554 -0.08758105 0.017168408 0.030054249 3.4228098 -0.050498225
0.120826185 -0.027921168 0.61785835 0.013359908 -0.006783456 -0.71366036 -0.19677688 0.8007302
0.3918495 0.024934033 0.69791895 1.3416442 0.07048808 -0.13432164 -0.025531968 -0.07332033
-0.03783519 -0.01688077 0.052316625 -0.509201 0.0820514 -0.07642265 -0.20143521 0.47072497
4.2450795 -0.05450622 0.06932045 -0.042916365 -0.072947845 -0.3339175 -0.38048667 0.7256167
-0.06762313 -0.21719511 -0.013488132 -0.3631507 0.036791902 -0.82442856 -0.05024364 -0.046600036
0.85895026 -0.016008005 0.054688778 0.0812624 0.07739376 -0.0652752 -0.43700552 -0.67682385
-0.043358654 -0.47824594 -0.5710327 -0.017637257 0.47011855 -0.075618215 -1.4173427 -0.12012
1.0373666 -0.45086342 -0.06856722 0.062054437 -3.4907286 3.4456172 0.47694147 0.09185101
-0.40170437 -0.07631121 -0.97329557 0.06333674 0.08526308 0.03143892 0.17318347 0.063105814
00000000: 9f39 92bd 94a9 ab3c c7bc 1cbf 3f58 12bf
00000010: 7297 c63e f809 35bf 9f5b e83e f550 873f
00000020: 1bc1 8bbd 7bbc 15bf 7508 a2be ddd4 a1bf
00000030: 3716 12bf 49d3 4dbd 6281 11c0 6662 edbe
00000040: 43b9 503f d211 273f 5d51 163f a444 863d
00000050: 8562 333f 9007 70bd e551 6fbe 05c6 af3d
00000060: ffb1 3fbc 6321 38b9 d115 a8bd 1d39 b93a
00000070: f4db abbe dddf 873d 63fb b2bd 304f b9bd
00000080: 418d 2240 1dc3 f03d 0f05 213d 6e02 5dbf
00000090: d66c fbbe d6f8 073d b05f 95be b708 82bf
000000a0: 0ad6 2b3e b5a8 acbe 9f6e cdbd d315 933d
000000b0: 85c5 9ebd bc12 95be 377f 67bc 154f 0fbd
000000c0: 57a6 403f 5eee c73c 6604 d23c da65 61bf
000000d0: fd6d ebbd a7d7 fbbd b0bb 0c40 3884 20bd
000000e0: f0e0 2e3d 6afd 9fbc c83a 883f 5477 dabd
000000f0: 531e 703d 3282 8cbf 4ae8 053f 71d4 0ec0
00000100: 0f41 c13e 54c7 0fbd bf2c 203f 75f4 383f
00000110: c663 a3bd af17 c53f 2aef 25bd e4f8 a13c
00000120: f7c0 c1bc 2d79 313d 4ed4 1a3d 4035 193f
00000130: 1690 4fbd 88ba 743d 0f34 81bf 638b d83e
00000140: 5a07 8f40 6335 a8bd 1feb 6a3d 9b69 ebba
00000150: 5e02 84bd 6dd4 1a3e 5378 71bf 7ed9 9d3f
00000160: 0693 fd3c c45e 5ebd 522f 9a3e 2a26 0cc0
00000170: 1e51 b83a 30c8 97bf 23f1 1fc0 acb3 683c
00000180: 8887 6f3f 016a fabc f683 eabc e800 cc37
00000190: 77f6 42bc e715 a33e 91ae 20bf 5cc7 c8bd
000001a0: d8ed 5fbc 08ec 073e a2ce aabf 78f9 863d
000001b0: 1500 083f 7a92 9b3d 4e4d 80be fc20 673c
000001c0: 832e e63e 3be1 42bf 6883 c1be d7bd 9d3c
000001d0: c406 82bf 5d6a 6c40 5a29 cb3f 03f0 153f
000001e0: 198c 20be 86e6 38bd d715 c83d 1f8c 76be
000001f0: e824 12bf 7e17 f23c 3188 573f 5831 81bd
00000200: f4e1 81bd 6532 803c f54f 10be f307 84bf
00000210: 1c21 8cbf e934 e2bf 7b9e cf3f 0336 833f
00000220: 4c03 f0ba 07e4 1abf 58dc 11bf b7fc 66be
00000230: 62d8 30bf e931 a9bc 2640 8cbf ce3b adbe
00000240: ac6c f03e c87e 973e f2be e03d 3143 ec3c
00000250: cd21 b03f 36df 27bc 8999 f53d 3c13 18bd
00000260: d4cd a8bd 3725 9b3d e45b af3d 385b edb9
00000270: b7b8 27bf e4b4 733d 6f24 943d c0f2 383d
00000280: c696 8440 a16f c0bc 0d74 09bd ae05 ad3d
00000290: 6799 bdbe 1e6c 213c ee60 d7be 8ca0 2cbf
000002a0: 8a1f 273e 8c76 103e b80e 0bbf d1db 343d
000002b0: b551 b0bd 30dd 4c3d 580b a6bc 25c3 80bd
000002c0: 89e1 5d3f 42d3 5bbd b489 953d b25d b3bd
000002d0: c3a4 8c3c 5434 f63c 510f 5b40 3ad7 4ebd
000002e0: b873 f73d efba e4bc f72b 1e3f 84e3 5a3c
000002f0: c147 debb 72b2 36bf e17f 49be a8fc 4c3f
00000300: 7fa0 c83e 7542 cc3c d1aa 323f ffba ab3f
00000310: 0e5c 903d 9d8b 09be 6b28 d1bc f828 96bd
00000320: 12f9 1abd 8a49 8abc f549 563d ff5a 02bf
00000330: 900a a83d 7a83 9cbd 0845 4ebe dd02 f13e
00000340: b1d7 8740 ea41 5fbd e1f7 8d3d 12c9 2fbd
00000350: ae65 95bd 3cf7 aabe 26cf c2be 04c2 393f
00000360: ff7d 8abd 6568 5ebe 53fd 5cbc e3ee b9be
00000370: 1bb3 163d c00d 53bf 46cc 4dbd aedf 3ebd
00000380: 2ae4 5b3f 3823 83bc 5701 603d e76c a63d
00000390: 9f80 9e3d 01af 85bd 30bf dfbe 5444 2dbf
000003a0: d898 31bd a7dc f4be 332f 12bf 027c 90bc
000003b0: 61b3 f03e b9dd 9abd 7c6b b5bf 7901 f6bd
000003c0: 6ec8 843f 92d7 e6be f86c 8cbd cb2c 7e3d
000003d0: 1968 5fc0 fe84 5c40 ac31 f43e 621c bc3d
000003e0: 32ac cdbe 0d49 9cbd e629 79bf b1b6 813d
000003f0: 699e ae3d 19c6 003d 0257 313e 9f3d 813d

network.4.bias f4 [6]
0.8018288 0.43787304 0.5992165 0.58642036 0.19129737 0.64099365
00000000: a744 4d3f e530 e03e 4166 193f a51f 163f
00000010: 75e3 433e 2918 243f
