modelos_s2/dqn_entorno2.pth (torch, 313341 bytes, 24 tensors)

network.0.weight f4 [128, 12]
00000000: 24ec ae3e 3282 9cbe 28e8 553f e4e4 8c3f
00000010: b412 5f3f df99 373e 5de5 0ebf 88eb 1bbd
00000020: c6f4 78bf fd31 353f f5af 35be 6517 af3e
00000030: 357d 03bd db47 d13f 1c4d f5bf 4184 b5be
00000040: 62b9 e13f 442c 33c0 1e65 c4be 46a2 22c1
00000050: 8c87 5f3e 331a 9a3e 5f77 af3e 1513 323f
00000060: 1f7b f9be 9c01 4fbd 4c9b 0fbf b3ed e53e
00000070: 89cd a63e 52f8 81bf d4aa 463f df00 f9be
00000080: d6ca 403f 9a20 393f 2c8d dfbe 20eb 803f
00000090: cff7 853e 7451 0fbd f1ae 1e3d 7eb9 5a3e
000000a0: 4164 c3bd 7ce3 24bd a814 f9bc 3672 4ebd
000000b0: a53c e8bb b729 33be 69a0 c53c 2cce 28be
000000c0: d8a2 8c3f 312b cfbd b2dc 16bf 1ad4 5bbd
000000d0: d996 bc3e 4af1 553f 111c a8bf 5da9 c9bf
000000e0: 222a c13d c9be 693e 8daf 85bf 6c76 84be
000000f0: 23a5 e9bf b9d9 68be 7fab 643e 9048 8240
00000100: 874a 6ebd 879a a73d fe91 b13f 24ac 5ebf
00000110: e14e 113e 5ff3 02be 49d6 b7be b6a9 97be
00000120: 7492 433f f122 59bf 0b5b 2dbf d640 453e
00000130: c65d 793e 564f ce3e 20ae 41bf d79f 02be
00000140: d732 1e3f ef6f 2ebf 2a7f 59bf c3fb 84bf
00000150: 685d cbbf 7761 1e3e 3517 123f 19fc c63f
00000160: 7805 3d3e e6fe febe e4f4 b43f b9b5 17bf
00000170: f49b b1be b1c2 bcbe 90bf 333d c263 803e
00000180: 56a0 b4bf 2455 3ebf 53ec 3c3f 5c47 0abf
00000190: e53f b63f a391 3fbe 6070 9b3f 7697 353c
000001a0: 4f2c 983d d0e5 46be 62fb b0bd 360e 1d3f
000001b0: d0dc 34bd a1a1 95bd 0930 a2bd 31a8 a4be
000001c0: 968d f3bf 7305 1d3e 9924 f03d 01e7 503e
000001d0: 16aa 7cbf b1f4 f2be ba4a 6abe df87 38bf
000001e0: 0f6f e23d 6431 4dbe afb2 2c3f d590 fdbf
000001f0: d979 0abf 7983 813e 7a28 a33c c944 ca3e
00000200: b0fd 90bf 32a0 cf3d 4716 a6bd 4f6b 623e
00000210: 770a 853e 3681 0ebe 959c 5b3e 8daf 253e
00000220: 307e 73be 1b52 42be 8d57 8d3e 2e24 823e
00000230: a119 263d a4f5 85be c737 8c3d 3ff5 79be
00000240: daf9 f13d 1d67 0cbf e2f7 273f 5921 b8bf
00000250: 8399 303e 60b7 3f3e 2f33 16bd 5b8d 263e
00000260: 33ea f3be 645c 063f c265 5b3c ca62 273f
00000270: aa0d f33c 4c1b c4bd 910d 9fbe 4ee4 bfbe
00000280: a82b c6be 16f4 ef3e 93be 0cbe 3d1c 6d3f
00000290: 3b90 01c0 d043 0bbc 2f9b 673d 9630 223d
000002a0: 3756 6c3e 2492 84bf 353f 743f 668b 123f
000002b0: 449b 29bf 222f 34be 2876 8fbe 5333 073e
000002c0: bf12 a53e ff53 333f 8006 63bf 0c53 5a3f
000002d0: 41a2 863d 89a3 36bc 52c9 91be 30f3 673e
000002e0: 8d65 9dbd 92fa 34bf d65c 993d f85a 583e
000002f0: 5668 2c3e c1d7 1fbf d050 7abe 736f aabe
00000300: aa38 c6be 884a 6cbe 94da 893e 1f30 013f
00000310: 95fa 61bf 3147 663e 477f c33d 4a0e 533d
00000320: 0c92 a3bf 69b1 a8be 64d7 173c 009a 41bf
00000330: 83a1 133e 9fbe edbe de7b 363f 49f7 3740
00000340: c04b 063f 4b3b 6fbe f5e4 debe bd78 4b3e
00000350: 0c73 59bf 33f5 323f bf26 37bd e288 ea3e
00000360: 3bec d63d bbf7 e93e f937 a93e 4d2a 493f
00000370: 93cf 06bf 750a b53d 7dff d3bd d829 063d
00000380: 6315 bdbf 9447 263e 4f00 a43d c376 663e
00000390: 8348 473e 7d68 8f3e 00d8 c2be 9996 3f40
000003a0: 71d3 503d dd37 97bd 288f 9bbe b861 f8be
000003b0: 6db6 ccbe d8c0 3abd d8ea 8fbe 0926 15bf
000003c0: fcfc de3d 1725 413d 897b 513f c051 a43e
000003d0: 917c 81bf 079e 0c3f 97ee 31be d386 9ebf
000003e0: bf07 5b3f a32e a7be 5f36 1ebe 58c7 333f
000003f0: b1fb f1bd c060 633c cb76 cfbe 840b 903d
0.34164536 -0.3056808 0.8355737 1.1007352 0.87137914 0.17929791 -0.5581873 -0.038066417
-0.97248495 0.707794 -0.17742904 0.34197536 -0.03210183 1.6350054 -1.9164157 -0.35452464
1.7634699 -2.7995768 -0.38358396 -10.164618 0.21829051 0.30098113 0.3427076 0.69560367
-0.48726746 -0.050538644 -0.5609634 0.44907913 0.32578686 -1.0153906 0.77604413 -0.48633477
0.75309503 0.7231537 -0.43662393 1.0071754 0.26165625 -0.03498979 0.038741056 0.21359822
-0.09540606 -0.04025601 -0.030405357 -0.05040189 -0.0070873075 -0.17496382 0.024124341 -0.16484898
1.0987196 -0.1011566 -0.58930504 -0.053669073 0.36833838 0.835713 -1.3133565 -1.575481
0.09431864 0.22826685 -1.0444199 -0.258716 -1.8253521 -0.22739305 0.22331046 4.0713577
-0.058176544 0.081837706 1.3872678 -0.86981416 0.14190246 -0.12788151 -0.35905674 -0.29621667
0.76395345 -0.8481894 -0.67717046 0.19263014 0.24352178 0.40294904 -0.7565632 -0.12756287
0.61796325 -0.6813955 -0.8495966 -1.0389332 -1.588788 0.15466867 0.5706666 1.5545684
0.18459117 -0.49803847 1.4137235 -0.5926166 -0.34689295 -0.36867288 0.04388386 0.2507611
-1.4111431 -0.74348664 0.737981 -0.54015136 1.4238249 -0.187079 1.2143669 0.011083474
0.07430326 -0.19423604 -0.086416975 0.6134981 -0.044155896 -0.07306219 -0.07919318 -0.3215957
-1.9027584 0.1533411 0.117257304 0.20400621 -0.9869703 -0.4745231 -0.22880068 -0.7208232
0.11056339 -0.20038372 0.6746015 -1.9809824 -0.54092175 0.25295618 0.019916762 0.39505604
-1.1327419 0.10137977 -0.08109718 0.22111247 0.25984547 -0.13916478 0.2144645 0.16180249
-0.23778605 -0.18976633 0.27605858 0.25418228 0.040551785 -0.2616397 0.06846576 -0.2440996
0.118152335 -0.5484484 0.65612614 -1.4385177 0.1724606 0.18722296 -0.036669906 0.1626486
-0.47639617 0.52484727 0.01339096 0.65385115 0.029669601 -0.09575519 -0.31065038 -0.3747887
-0.38705182 0.4686591 -0.13744573 0.92621213 -2.0244281 -0.0085000545 0.05654448 0.039597116
0.23079763 -1.0357099 0.95408946 0.57243955 -0.6625254 -0.17596105 -0.28019834 0.13203172
0.32240865 0.7005004 -0.88681793 0.8528297 0.06573916 -0.011147388 -0.28473908 0.22651362
-0.07685385 -0.7069484 0.0748841 0.21128452 0.16836676 -0.6243859 -0.2444489 -0.33288154
-0.38715106 -0.23075306 0.26924574 0.5046405 -0.8827298 0.22488095 0.095457606 0.0515273
-1.2778945 -0.32947853 0.009267662 -0.7562561 0.1441708 -0.46434495 0.71282756 2.874468
0.52459335 -0.23362462 -0.43534055 0.19870277 -0.8494117 0.69905394 -0.044714686 0.45807558
0.10494276 0.45696816 0.33050516 0.7858017 -0.52660483 0.08839885 -0.10351465 0.03275475
-1.4772152 0.16238242 0.08007871 0.22506242 0.19461255 0.28009406 -0.3805542 2.9935668
0.050982896 -0.07383702 -0.30382657 -0.48512053 -0.3998293 -0.045594066 -0.2810886 -0.5826116
0.10888097 0.047154512 0.81829125 0.3209362 -1.011614 0.5492863 -0.17376171 -1.2384895
0.85558695 -0.32652768 -0.15450428 0.7022605 -0.118155845 0.0138780475 -0.4052032 0.070334464

network.0.bias f4 [128]
00000000: a385 31be e143 00bf 98f8 04bf ce35 e7bd
00000010: fff2 78bf f1b1 5abf 3eea 2ebf 8fc9 66bf
00000020: 6fde 29bf 5343 613e e9ea 9a3d 057c 83be
00000030: cc23 d5be 0c4a 543f 85ec 48bf 7089 333e
00000040: 34a2 573e 8be3 97be f67c 9d3c 3cb1 34bf
00000050: 0bdc 7fbe 9125 893e baa5 8dbd fcc0 babe
00000060: 2f6c 8ebe 5a83 663f 1083 cdbe fc38 49be
00000070: e064 3d3d 96a5 723f e6ef 9d3e 6cfe 0e3f
00000080: c958 813e 086e a1be 334b 1c3f 1dba f7be
00000090: 5a02 80be 226f e3bc 18f4 7c3f 35bd 643e
000000a0: e944 2bbf af51 b63d 903f 233f 0ba5 173e
000000b0: ce83 0b3e a248 1f3d f68a 4ebf 9345 303e
000000c0: 3be7 1c3f 8b95 60be 3651 353f acd0 35bf
000000d0: 6098 7fbe 678f 4bbf 9a49 ca3c bddd 6bbf
000000e0: e7f2 99bd a647 373f c99e 0bbf df14 91bd
000000f0: d543 efbe 9429 2d3f a024 3dbf cf89 76be
00000100: 5ca8 fdbe ccfa 45be 9f9c 90bf 5282 c5be
00000110: be60 88bf 54c5 da3e 89f1 45be 0f80 9ebe
00000120: 989d f0be 174e 63be 2bfc 373e 15f1 f9bd
00000130: bf1b ed3d 2ca8 d5bd 6a3c 78bc af5d 1c3f
00000140: 2bfd ff3c 341c ff3c 2592 263d a0a3 923d
00000150: 6087 97be cfd3 053f e262 e7be 78a1 91be
00000160: 8fce 88be 5fda 1bbc 1802 51be 7a67 c3be
00000170: 07dc 813e 59bc 91be 6739 f3be 3b51 523e
00000180: 49e3 5d3f ac17 aabe f1a5 093f df7f 88be
00000190: fd75 aebe fa2b 2f3f 0ddf c93e 8195 12be
000001a0: a28e 363f 67a7 8abf adee 74bf 7cf5 5e3f
000001b0: 6b75 86be 1e78 64be b879 8fbe d720 a23e
000001c0: cf77 e43e 871a 47bf 5089 5cbe 9021 223f
000001d0: 1c5f 4bbe 8aba 4f3f 7d4d 703d 97d3 a4be
000001e0: c246 52be c78b d1be 3bc1 b9be eedf fcbd
000001f0: d413 d23c d98b 033f 5f14 103f 459a 163f
-0.17336135 -0.50103575 -0.51941824 -0.11289559 -0.9724578 -0.8542777 -0.68326175 -0.90151304
-0.6635503 0.21998338 0.07564337 -0.25680557 -0.41628873 0.82925487 -0.784859 0.17532897
0.2105797 -0.2966579 0.019224625 -0.7058294 -0.24986283 0.26786473 -0.069163755 -0.3647536
-0.27816913 0.90044177 -0.40139055 -0.19650644 0.04623878 0.94783914 0.3084709 0.55856967
0.2526305 -0.3152926 0.61052245 -0.4838418 -0.25001794 -0.027762953 0.9880996 0.22337802
-0.66902024 0.08902299 0.63768864 0.14809053 0.13624498 0.038887627 -0.8068079 0.1721404
0.6129033 -0.21932046 0.70827043 -0.71021533 -0.2496047 -0.7951569 0.0246933 -0.9213522
-0.07517033 0.715937 -0.5453916 -0.07084059 -0.4673144 0.6764157 -0.7388401 -0.24076007
-0.4954251 -0.19333953 -1.1297797 -0.3857599 -1.0654523 0.42728674 -0.1933042 -0.30957076
-0.46995234 -0.22197758 0.17967288 -0.12204186 0.11577558 -0.10432467 -0.015151123 0.6108045
0.03124865 0.031141378 0.040666718 0.07160115 -0.2959547 0.5227632 -0.4519263 -0.28443503
-0.26720092 -0.009512513 -0.20410955 -0.38164884 0.2536318 -0.2846401 -0.47504732 0.205388
0.86674935 -0.33221185 0.5376883 -0.26660058 -0.34074393 0.6842648 0.39427987 -0.14314844
0.7131139 -1.0832337 -0.9567669 0.8709333 -0.26261458 -0.22311446 -0.28022552 0.3166568
0.44622657 -0.7777485 -0.21536756 0.6333246 -0.198605 0.8114401 0.05866765 -0.3219268
-0.20534804 -0.40926954 -0.36280236 -0.12347399 0.02564422 0.51385266 0.56281084 0.58829147

network.2.weight f4 [128, 128]
00000000: 8468 3e3f d04f dfbf cf5b db3e a7dc a33d
00000010: d9c6 e73f eb5f 91bd 2ae1 c53e c12c 563e
00000020: a4f5 1a3e 3ef0 c4be 62d9 703e b440 63bd
00000030: d427 823e fdcd 4e3f cc73 bb3d 980a 263e
00000040: 3622 1dbf 1759 763e 28f6 33be fc9a 543e
00000050: acd8 c43e 5d83 943e 61a1 2cbc 7d6b 78bd
00000060: c11b 29bd d82d 4c3f 2cbb a83e 65a3 b33e
00000070: 2211 503e 4ebf 573f 7859 033f 4e91 5e3e
00000080: d976 a83f c56f 733f 148d 2b3f a66d 103f
00000090: 6e12 913d 726d 7c3f 72f9 933f 38f5 d43e
000000a0: 4c1f 23bf e00c e33e 3a4b 6b3e 82e2 ee3e
000000b0: a986 29bf 8597 d23e d279 c6bf cf34 813e
000000c0: 4493 533f 47fa 79be adce 473f de0c febe
000000d0: d342 e7bc 1d02 5dbd 293a f63e 8fa1 14bf
000000e0: 47d0 91bc 02bf 4d3f 4282 8cbe 3278 f0bd
000000f0: 000b b4bf 7817 15bf c5ad b6bf a164 b93c
00000100: 570e 933f c8e4 53bf a0ee 8f3e af91 eabe
00000110: fa63 03bf bb60 30bb 8e0d d83f 6715 d03e
00000120: fb20 03bf f370 373e bc82 e2be d907 05c0
00000130: 588b a23e 6af0 b8be 5c5d be3c f10c 473f
00000140: c902 653e a9db bdbd 2ee6 443f c84d b33b
00000150: e43f 5d3d fe46 183e 1588 893e 2dae 943d
00000160: 7685 883c 7b09 233f e39e 90be 4531 353e
00000170: bc19 e53b ed18 23bf b0f4 0abf 56fb 87bf
00000180: bde0 a33f c1ac d03f 24e4 963d 9520 a73d
00000190: 64c4 18bf f9c0 2f3f 5089 fd3e eee6 223d
000001a0: b9bc 653f 191a a0be c1f3 3fc0 4018 583f
000001b0: 46d3 58bd 438e 5f3c 34a1 5abd c28a 7a3f
000001c0: 1ac5 d73e 3444 983e 638d ddbe 65fa 8e3f
000001d0: ce43 1e3a b6ba c33f 8cda 913e 0db8 ec3f
000001e0: 97d7 3b3f 63b0 113f da9b 7abf f8c8 a7be
000001f0: 2b2d fc3d d048 f93e 70a0 803f fdd7 793f
00000200: 3151 b9bd 76ce 273d 2830 1a3c 14b1 b0bd
00000210: aab2 8d3c a7b0 c1bd 36b6 833d efb6 cbbd
00000220: b7a2 553c ec13 86bd 2e2c 01bd 0dee a1bd
00000230: 924d 093a 9395 293a 89e6 10bd 4424 a13d
00000240: 7c1e 103d 241a 633d 884e 4bbc 4360 933d
00000250: bd28 a43d b534 313d 10f3 4fbb f172 713c
00000260: 5f44 6fbc 9eb9 7dbb fbf5 abbd f6a9 8dbd
00000270: f693 74bd 5833 1ebd a8ed 86bd 116a 3cbd
00000280: 3649 abbd 5951 743d c159 093b 7450 3e3c
00000290: 3149 8e3b c72b d23c 0805 b4bd f32f 703d
000002a0: 0980 b3bc dc60 d6bc fbab 5dbd 7151 76bc
000002b0: fd35 91bd 6a1b 1b3d daf2 e83c fe01 34bd
000002c0: 5313 fb3c 8185 d6bd db0a 3f3c 5403 a73d
000002d0: 3fb2 92bd 41c3 3e3d 09a0 2ebd b39b 723c
000002e0: c62f 633d bfbb 84bd 7473 eabd 43b7 5b3d
000002f0: 38c6 c6bd b56e 0b3c fb91 c8bc f541 94bb
00000300: 083c 843c 1b0f a5bd 55e6 ac3d 5b29 99bd
00000310: 95ca 7b3d 4df8 ca3a f9fd aebd 8a43 353d
00000320: 9c19 763d b3a2 02bd 99fd a5bd e23e 4d3b
00000330: 8b94 8cbd 9278 2637 4d4e 59bd 7c96 97bd
00000340: 2775 c43c 626c 883d 8cb5 333d 26f5 883d
00000350: 99cf 753c 16f1 b6bc c244 473d 037e ac3d
00000360: fb1f a7bd 10a4 91bb bf42 283d 6050 6d3d
00000370: 01c0 93bc 6af9 803d c51e 873d 6308 f8bc
00000380: a1b0 13bc 4453 31bd c59a c3bd feee 6b3d
00000390: 2fa6 9bbd deb1 50bc 1000 983d effa e03c
000003a0: 7d3c 633d 3c8e ac3d 1d54 4d3d 05e0 f0bc
000003b0: 2ce6 e6bc bb4b 2cbb 2576 973d bf1a d9bc
000003c0: 6edb 27bd e6ca b9bd f9ba 9c3d 3c9e aabd
000003d0: 1dc8 e7bc 4b9c 153d 5b9f 9fbd 38e0 b7bd
000003e0: 0fed cabc 6879 0ebd 28b3 a0bb ed58 92bc
000003f0: 93bc ca3c c072 4abd 57db ebbc cbc6 963c
0.7437823 -1.7446232 0.42843482 0.080010705 1.8107558 -0.07098373 0.3864835 0.2091551
0.15132767 -0.3846454 0.23520425 -0.055481628 0.2542101 0.80783063 0.09152946 0.16214979
-0.61380327 0.24057423 -0.1757437 0.20762247 0.38446558 0.29006472 -0.010536523 -0.060649384
-0.041286234 0.7975745 0.329553 0.35085598 0.20319036 0.8427628 0.51308393 0.21735117
1.316127 0.9509242 0.67012143 0.5641731 0.07083593 0.986045 1.15605 0.41593337
-0.6371963 0.4434576 0.22977915 0.46657187 -0.662211 0.41131225 -1.5505927 0.25235602
0.82646585 -0.2441188 0.7804974 -0.49619192 -0.028230106 -0.053957094 0.48091248 -0.5805902
-0.01779951 0.8036958 -0.2744313 -0.117416754 -1.4065857 -0.58238935 -1.427178 0.022630991
1.1488751 -0.8277097 0.28111744 -0.45814273 -0.5132443 -0.0026913125 1.6879137 0.4064133
-0.512222 0.1791418 -0.44240367 -2.078604 0.31746936 -0.3612092 0.023237877 0.7775412
0.22364344 -0.092704125 0.76913726 0.0054719187 0.05401601 0.14870831 0.26861635 0.07259784
0.016665202 0.6368634 -0.2824622 0.17694576 0.006991593 -0.6370991 -0.54279613 -1.0623577
1.280296 1.630272 0.07367733 0.081605114 -0.5967467 0.6865383 0.49518824 0.039771013
0.8974109 -0.3126991 -2.9992526 0.84412 -0.05293586 0.013644758 -0.05337639 0.9786798
0.42142564 0.29739535 -0.43271932 1.1170164 0.00060373254 1.5291355 0.2848705 1.8493668
0.7337584 0.5690977 -0.9789406 -0.32770514 0.123133026 0.48688364 1.0048962 0.97595197
-0.09048689 0.04096838 0.009410895 -0.08627525 0.017297108 -0.09457522 0.06431238 -0.09947001
0.0130392825 -0.065467685 -0.031536274 -0.07906733 0.0005237694 0.00064691267 -0.035376105 0.07868245
0.035185322 0.05544485 -0.01240886 0.07196095 0.08015583 0.043263156 -0.003173057 0.014736877
-0.014603703 -0.0038715373 -0.083965264 -0.06917183 -0.05971142 -0.038623184 -0.06588298 -0.04599959
-0.08363573 0.05964789 0.0020958039 0.011615861 0.004342221 0.02565564 -0.08790022 0.058639478
-0.021911638 -0.026169233 -0.05411909 -0.015034066 -0.070903756 0.03786794 0.028436113 -0.043947212
0.030648863 -0.104746826 0.011660303 0.08154932 -0.07162904 0.046572927 -0.04263309 0.014807629
0.055465482 -0.06481122 -0.11447802 0.05364157 -0.09705776 0.008510281 -0.024483671 -0.0045244643
0.016141906 -0.08059522 0.0844237 -0.07478591 0.061472494 0.0015485376 -0.08544535 0.044253863
0.060083017 -0.031893443 -0.081050105 0.0031317999 -0.0686427 9.9224435e-06 -0.05305319 -0.074017495
0.023981644 0.066612974 0.04387431 0.06687383 0.015003108 -0.022331756 0.048649557 0.08422472
-0.08160397 -0.0044446066 0.04107928 0.05793798 -0.01803589 0.06297572 0.06597666 -0.030277437
-0.00901428 -0.0432923 -0.09551004 0.057600968 -0.076000564 -0.012737719 0.07421887 0.027463404
0.055477608 0.084255666 0.050129045 -0.029403696 -0.028185926 -0.0026290256 0.07395581 -0.026502011
-0.04098075 -0.09071903 0.0765285 -0.08330962 -0.028293664 0.036526006 -0.077940665 -0.08978313
-0.024771241 -0.03478375 -0.0049041696 -0.017864669 0.024748122 -0.04942584 -0.028791113 0.018405339

network.2.bias f4 [128]
00000000: aa2f 323f b53c 45bd e143 ff3b 75a7 cdbd
00000010: 02fb 6bbd c4a0 a7be 35c4 74bd 9b99 d9bd
00000020: 7226 963e 6914 32be f092 25bd 2bc4 443f
00000030: 6b2b 08bf 1871 4abe 5989 95be caa1 ecbd
00000040: 06e0 253f 9650 bdbd 200f 973d 3e50 c53f
00000050: 1e2c 98bd b4fb bebd 0fac babd ea1d 3abf
00000060: d075 52ba 2e76 b2bd 8689 40bd c0bc 82bd
00000070: f1b8 85bd 9684 933c dd30 a8bd 67ef d43b
00000080: b51f 593e 69a3 773e 91fe d7bd 97f0 873e
00000090: d4d4 413f 6215 b83c 484e c4bd 2ade 76bd
000000a0: e057 b5bd 8973 e6bd df08 d8bd 845c 2cbf
000000b0: a5f2 8cbe 831e b2ba b07b babe 1ad2 ccbd
000000c0: a2c5 20be f427 61bd f46f 3abd 75dc 513e
000000d0: cc27 253f 7eac cbbd 2a19 d1be ae05 b7bd
000000e0: 13f0 273f 9d9f 933d 78d4 cf3e a9ad 413e
000000f0: 87e0 de3e 56fe e6bd 1c7e 4a3c a12f 563d
00000100: a0d2 443d 2665 3ebe 4f9d 52be 7d9e 23bf
00000110: fd6e bdbd a925 10be a03f 9f3e 5786 95be
00000120: 9a67 46bd 1640 d53e 7b2c 98bc 0e0b 293d
00000130: 41ab 7b3e c2fd acbe 9349 19be 5e89 4abc
00000140: 6439 26be f5e7 813f 8a2a 603f cc23 bf3e
00000150: 4eec ff3a ac63 5abd bef9 19be 0629 85bd
00000160: 61bf 95bd cde3 0abf 8048 93be f153 babe
00000170: 3214 afbc 1799 1ebc 1747 53be b8a2 bebd
00000180: 603e e13c c4d5 4f3d 6706 fbbd 5eac c7bd
00000190: 877c d4bd cc57 af3f 7e53 1dbd 3075 57be
000001a0: 4dd8 23be bceb 80bd 16fe 9ebd 2a65 b33f
000001b0: c8c7 b2bd 35be 38bf 5bdd adbc e63a bbbc
000001c0: 7385 34bc f084 76bf 4a24 d13c f490 e3bd
000001d0: 63ab 69bd 4c77 ad3d c072 b4bd 7a21 413f
000001e0: 7ae7 34bd 4a59 afbd 866c 91bc a3a6 80bd
000001f0: 1e85 0fbe b846 053e 9e7e 91bd d485 8b3d
0.6960398 -0.048153598 0.007790074 -0.100417055 -0.057612427 -0.32739842 -0.05975743 -0.10625001
0.29326206 -0.17390598 -0.040423334 0.7686183 -0.5319125 -0.19769704 -0.2920635 -0.11554296
0.6479496 -0.09243886 0.07375932 1.5415113 -0.0743029 -0.09325352 -0.09114849 -0.72701895
-0.00080284197 -0.08713947 -0.047006153 -0.063836575 -0.065294154 0.018007558 -0.08212445 0.0064982655
0.21203502 0.2418343 -0.105466016 0.26550743 0.75715375 0.022471134 -0.095852435 -0.060270466
-0.088546515 -0.11252505 -0.10548567 -0.6732867 -0.27528873 -0.0013589415 -0.3642249 -0.10001011
-0.15700391 -0.054969743 -0.045516923 0.20494254 0.6451385 -0.0994501 -0.4083951 -0.0893663
0.656007 0.07208178 0.40591788 0.18913902 0.43530676 -0.112789795 0.012359168 0.052291516
0.04805243 -0.18593273 -0.20567821 -0.6391371 -0.09249685 -0.14076866 0.3110323 -0.29204056
-0.048438646 0.41650456 -0.018575897 0.04127031 0.24577047 -0.33787352 -0.14969473 -0.012361852
-0.1623283 1.0148913 0.8756491 0.37331998 0.001952538 -0.05331771 -0.15036675 -0.06501965
-0.07311893 -0.54253846 -0.2876625 -0.36392167 -0.021371935 -0.009680054 -0.20632587 -0.0930838
0.027495563 0.050740972 -0.122570805 -0.09749673 -0.10375314 1.3698668 -0.038409702 -0.21040797
-0.16000481 -0.06294963 -0.07763307 1.4015248 -0.087295115 -0.7216523 -0.021223715 -0.022855233
-0.011018145 -0.96296597 0.02553 -0.11111632 -0.057048213 0.0847002 -0.08810949 0.75441706
-0.044166066 -0.085619524 -0.017751943 -0.062817834 -0.14015624 0.13015258 -0.071042284 0.06812635

network.4.weight f4 [6, 128]
00000000: 2e39 7d3f 257a c33c 13ba 863c 8851 54bc
00000010: ae1c af3d e771 763e cb49 703d 369d 0e3e
00000020: 05fc e43c f701 f9bf 44f3 2b3f a1e6 083f
00000030: d4ad 28bf 7346 44be 1f40 3abe 691f aebf
00000040: 7b0a 7e3e f864 fe3c b6b5 0bbb bb1c 8b3f
00000050: b09a 3e3d abf4 2b3d a54b 273d a40c 9bbe
00000060: 2dff babf 62eb 8e3d f0ff 84bd f27d 8abd
00000070: 7dd8 873c 9e92 903c a286 93bf 3348 d23c
00000080: eced b4bc 41b0 e63d b2ad feba 44d1 7d3e
00000090: 593b c83e 5a65 9abd e25d 2bbc 0e60 99bd
000000a0: 6679 4c3d 7d28 e93d 64d3 76bc f4a4 973f
000000b0: 6bf0 673e c648 15bc a3da a1bf bb43 8a3d
000000c0: 9ab7 c9bf 4a60 0dbd 2a3a 9f3d baae 3f3f
000000d0: dc0c 7d3f fdfb 66bd bd0f 0dbf 0881 6b3d
000000e0: 0d47 023f 3220 4ebb b260 de3b b331 153f
000000f0: e7bc 87be 5daf 14bd a78f 05c0 d1a3 95bf
00000100: f97c 53bd 18a5 0ebe 1be1 d9be a513 40bf
00000110: 3a25 2fba 5fca 2340 b5fe 733d 3227 26bd
00000120: 94bb 81bd bc38 b0bd 04e5 34bd 005b b4bd
00000130: 07f0 723c d836 c9be f53c fbbe 76c2 873d
00000140: 0b37 ba3e 05cf 893e 69c0 973f 315f 873f
00000150: 19c6 c8bf af7a 8fbc 8525 7c3f 523b a1bf
00000160: 0c15 483b c2d3 8fbd bf20 69bf e75f e1be
00000170: b5f8 a3bc 8612 1dbd 1e99 d4bf 224b 36bb
00000180: 625d da3c 19c8 62c0 8ff2 a5bd 1afd 263d
00000190: 705d 06bd 741b 673f 025d ce3c 03f2 d2bd
000001a0: 94e1 823d c5dc 9f3d e407 2dbf dcb4 873f
000001b0: 2a90 7c3d 69d2 c23d 86df 81bd c944 e93d
000001c0: de2b 1c3c 60c1 51c0 308f 2c3f 19d2 f03b
000001d0: c7bd 273c 7fee 61c0 0f8d 2bbd df56 c93d
000001e0: 5753 973c 400c 1ebc 8fa7 9e3d cf52 803d
000001f0: 9775 c53c ab30 683f f7ad 80bd 84e1 8f3d
00000200: 0647 f43e 2faf 403d f14f 643d 50e6 823d
00000210: c41d 183a 8c46 0bbe eec7 913d 2afd 81bc
00000220: de6f 8c3e 6f74 53bf 9fcb 55bf 90c3 e53e
00000230: 36dc 70bd d5af 63bf 755b 0abf fb6a 453e
00000240: bb60 223f 0f40 1cbc 942b 993d 691d 9a3f
00000250: 3da9 29bc 2106 51bc a0e9 8ebd 089d b0be
00000260: 6e22 fb3e 1702 78bd 98f7 94bd 10fb a8bd
00000270: ef59 86bd 5003 f5bc c41f 86be 74ff 8dbb
00000280: 55cc a63e a6f4 df3c 6ba2 8abb af42 3f3f
00000290: 4d27 8e3e ea69 15bd 8468 d6ba 1d7d 1cbd
000002a0: 477e a1bc 667b 193d e0f2 4f3d 06cd 0840
000002b0: 1f29 33bf 25bd c03f d513 c8bf bc29 6dbc
000002c0: 8692 7dbf 6a49 573d 5a43 453d e345 f53e
000002d0: bda8 ec3c c39e a63d f47a d7be 779f a5bd
000002e0: 20a2 373f dbbb 783d 26a2 363f 96a6 f73d
000002f0: 9577 063f 4fdc 8f3d 98c3 b63b de52 b9bf
00000300: 177c dc39 210a 0bbf ecd8 3fbf 1d91 c7bd
00000310: bb51 043d de89 973f 2046 273e b76d 21bf
00000320: 1fd3 813d 7c49 b13d 3c86 17bd 0cb6 a8bd
00000330: 3e2b 943e 4ad7 e0bf e0c4 9a3e f13b 763d
00000340: ce7b d53d d909 413f 2976 1f3f 7461 113f
00000350: 3093 98bf 4bfc 11bd 1f14 313e fe77 30bf
00000360: e1e1 da3b 6125 c83e e982 4bbf e703 f2be
00000370: 0aa5 14bd e007 733c 7879 6ebf 1f9c 66bc
00000380: d340 393d 43b9 09c0 05f5 a13d f4da 6d3c
00000390: 2fc7 913d d0cc 343f fc6c 043d a841 1abf
000003a0: aee5 9ebe 4ad7 6d3d e268 f2be f413 9e3f
000003b0: 5c9a a73c 9147 debd af0b b0bd 05d6 453d
000003c0: d98c 7abd 35c1 953f 2672 44bd b8a8 403b
000003d0: 5dc7 5bbd f40e a0c0 cf04 38bc c566 6a3f
000003e0: c63a 4d3c 6408 553d 5ec7 cebc e2c4 913c
000003f0: 0248 c0bb 7cd5 e33c f55a 8b3d faf3 413d
0.98915374 0.023861954 0.016446149 -0.012958892 0.08550392 0.24066888 0.058664124 0.13927159
0.027952204 -1.9453725 0.6716807 0.5347691 -0.6589024 -0.19167499 -0.18188523 -1.3603336
0.24808685 0.031054005 -0.0021318025 1.0868143 0.04653424 0.04198138 0.040843625 -0.30283082
-1.4609123 0.069784895 -0.06494129 -0.067623034 0.016582722 0.017648038 -1.1525462 0.025669193
-0.022086106 0.112640865 -0.0019430427 0.2478686 0.3910778 -0.075388625 -0.010459395 -0.07489024
0.049920462 0.11384676 -0.015065048 1.1847215 0.22650306 -0.009111589 -1.2644848 0.067512
-1.5759156 -0.034515657 0.07774766 0.74875987 0.98847747 -0.05639266 -0.5510214 0.0574961
0.50889665 -0.0031452295 0.0067864293 0.5827896 -0.2651131 -0.036300052 -2.0868928 -1.1690618
-0.051632855 -0.13930166 -0.42554554 -0.75029975 -0.00066812674 2.5592268 0.05956908 -0.040564723
-0.06334606 -0.08604571 -0.04416372 -0.088064194 0.014827735 -0.39299655 -0.49069944 0.06628887
0.3637012 0.26915756 1.1855594 1.0575925 -1.5685455 -0.017514555 0.9849475 -1.2596228
0.0030530123 -0.070228115 -0.9106559 -0.4401848 -0.020016054 -0.038347743 -1.6609228 -0.0027815779
0.026655857 -3.543463 -0.08102905 0.04076872 -0.032803953 0.90276265 0.025190834 -0.10300066
0.06390682 0.0780578 -0.67590165 1.0602069 0.061660923 0.09512789 -0.06341462 0.11390073
0.009531943 -3.2774277 0.67405987 0.0073492643 0.010238118 -3.5301816 -0.04188257 0.098310225
0.018472357 -0.009646475 0.07746803 0.062657945 0.024103923 0.9069926 -0.06283181 0.070254356
0.47710437 0.047042068 0.0557403 0.06391585 0.0005802775 -0.1360113 0.07118212 -0.015867788
0.27429098 -0.8259954 -0.83513826 0.44875765 -0.05880376 -0.88940173 -0.540458 0.19279091
0.6342885 -0.009536757 0.07479015 1.2040225 -0.010355291 -0.012757809 -0.06978154 -0.34494805
0.49049705 -0.060548868 -0.07273787 -0.08251011 -0.06560122 -0.029908806 -0.2619611 -0.004333431
0.32577768 0.027338337 -0.0042307875 0.74711126 0.2776436 -0.03647796 -0.0016358052 -0.038205255
-0.019713534 0.037471198 0.050768733 2.1375136 -0.6998462 1.5057722 -1.5631052 -0.014475282
-0.990517 0.052560247 0.048159935 0.47904882 0.028889054 0.0813575 -0.42085993 -0.08087056
0.7173176 0.060726028 0.7134117 0.120923206 0.5252622 0.070244424 0.005577516 -1.4478414
0.00042054124 -0.5431233 -0.7494037 -0.09744475 0.032304507 1.1838949 0.16335344 -0.63058037
0.06339096 0.08656594 -0.03699325 -0.08237848 0.2893924 -1.7565701 0.3022833 0.06011576
0.104240045 0.7540565 0.62289673 0.56789327 -1.1919918 -0.035640996 0.17292832 -0.68933094
0.006679759 0.39091018 -0.7949663 -0.47268602 -0.036290206 0.0148334205 -0.93154097 -0.014075308
0.045227837 -2.1519325 0.07908062 0.0145175345 0.071180694 0.7062502 0.032330498 -0.60256433
-0.31034607 0.058066644 -0.47345644 1.2349839 0.020459346 -0.10853494 -0.085959785 0.048299808
-0.06116948 1.1699587 -0.047960423 0.002939744 -0.053656925 -5.0018253 -0.011231615 0.91563064
0.01252622 0.052009955 -0.02524155 0.017794076 -0.005867959 0.027811758 0.06804458 0.047351815

network.4.bias f4 [6]
00000000: 3bcb 743f 8ca5 6a3f 974d d83e 4291 1a3f
00000010: af62 133f 149c 5e3f
0.95622605 0.91658854 0.42246696 0.60377896 0.57572454 0.86956906

network.0.weight f4 [128, 12]
00000000: 3985 af3e 7050 9cbe 6854 553f 5194 8c3f
00000010: 6b2d 5f3f a6ed 363e e831 0fbf d9af 1ebd
00000020: c6f4 78bf e41a 353f a675 38be b3c8 ae3e
00000030: b33b 09bd 3a0a d03f 1c4d f5bf 4184 b5be
00000040: 62b9 e13f 7ee5 33c0 4fad c3be 1ac6 22c1
00000050: c6b4 553e 1d42 963e f944 ac3e 3b7a 2f3f
00000060: 84dc f9be bffa 3fbd 83c4 10bf c56e e33e
00000070: 471c a93e 2f2e 82bf 84db 463f 8836 fbbe
00000080: 2ccf 403f c23a 393f fb20 dfbe 7f24 813f
00000090: cff7 853e 7451 0fbd f1ae 1e3d 7eb9 5a3e
000000a0: 4164 c3bd 7ce3 24bd a814 f9bc 3672 4ebd
000000b0: a53c e8bb b729 33be 69a0 c53c 2cce 28be
000000c0: c5d5 8d3f 5ab5 bebd 9021 16bf 0719 71bd
000000d0: b06b be3e 2a78 583f fe4e a9bf 4d79 c8bf
000000e0: bab3 d33d f212 733e fd51 85bf 4bd0 7fbe
000000f0: 69a1 eabf 5104 61be c034 703e 2372 8240
00000100: 84de 94bd c27e b23d 448e b23f 14ab 5dbf
00000110: 3099 113e d2d8 eebd 803f b4be afe7 93be
00000120: 9861 433f e604 59bf 1573 2cbf 47fa 413e
00000130: ad1a 7d3e 346d cd3e 447d 41bf 0d76 04be
00000140: ecf3 1c3f 0ce7 2ebf 3683 59bf 5323 85bf
00000150: 9da5 cabf 1de5 193e 8ff8 0f3f f51d c73f
00000160: 908a 453e 05b4 00bf 193d b43f 66b0 18bf
00000170: 1fb9 b2be 82ff c0be 91a4 1c3d 12eb 7a3e
00000180: 7187 b4bf 05c0 3dbf b675 3c3f ac10 0abf
00000190: bf84 b63f f40d 41be 7b57 9b3f 4136 163c
000001a0: 9d14 973d a7a1 48be 56dd b1bd 6e1f 1d3f
000001b0: 4fec 25bd a8c0 a1bd 9780 b1bd dac1 a4be
000001c0: a655 f2bf 9028 1a3e 5bac e83d 3255 4f3e
000001d0: 16aa 7cbf e6f5 f5be 1f83 70be 2daf 3abf
000001e0: 58ab e33d 7f37 4ebe f60d 2c3f bb9a fdbf
000001f0: 6b10 0abf 3323 813e 5137 9e3c 6714 ca3e
00000200: b0fd 90bf 6465 cd3d 1a08 aabd 630d 613e
00000210: 770a 853e 3681 0ebe 959c 5b3e 8daf 253e
00000220: 307e 73be 1b52 42be 8d57 8d3e 2e24 823e
00000230: a119 263d a4f5 85be c737 8c3d 3ff5 79be
00000240: 53f5 ea3d 3610 0ebf c868 263f 3b88 b8bf
00000250: ef6e 383e 66eb 3d3e 242a 08bd 02a4 253e
00000260: 33ea f3be 8539 053f a6e3 193c e7ed 253f
00000270: 92d0 f73c 4784 c4bd cfed 9fbe 9a9b c0be
00000280: 4ed0 c5be 40c1 ef3e ef56 0dbe 8f07 6d3f
00000290: 3b90 01c0 f703 13bc 2f36 633d f560 203d
000002a0: 46be 6d3e 1a10 85bf a5ad 743f bb5a 123f
000002b0: d34b 28bf 137e 31be 302a 90be 20f5 093e
000002c0: a2c0 a43e d3ac 333f 8870 62bf 0181 5a3f
000002d0: 9ef4 863d 59d5 3ebc 52c9 91be 30f3 673e
000002e0: 8d65 9dbd 9203 35bf 7a0a 993d 3b3b 583e
000002f0: 3f12 2c3e 83da 1fbf a4b5 7abe 5cb3 aabe
00000300: 9c7e c6be 1512 6ebe d7cd 883e 5e8c 003f
00000310: 1366 61bf bb70 653e 0d97 c43d a2f5 4f3d
00000320: 0c92 a3bf 170d aabe e35c 0a3c e8f9 41bf
00000330: 14fa 163e 19b3 ecbe 8ee3 363f a2de 3740
00000340: 9684 053f 4b1e 6ebe 3d91 e0be ab0e 4c3e
00000350: 0c73 59bf 5f9b 333f 32e1 33bd 0cf8 eb3e
00000360: 9cce e03d d36b e73e adf0 a53e 8219 493f
00000370: c844 05bf dd6f ac3d dae1 ddbd b3cf f33c
00000380: 6315 bdbf 5ebf 213e 18a5 953d 895d 603e
00000390: 8348 473e 7d68 8f3e 00d8 c2be 9996 3f40
000003a0: 71d3 503d dd37 97bd 288f 9bbe b861 f8be
000003b0: 6db6 ccbe d8c0 3abd d8ea 8fbe 0926 15bf
000003c0: 12a4 e23d 8def 473d 66f8 503f ba23 a63e
000003d0: 772e 81bf 3a70 0b3f 22c2 33be 1d5e 9fbf
000003e0: 594a 5a3f 9454 a8be 86df 21be 7f8a 333f
000003f0: b1fb f1bd c060 633c cb76 cfbe 840b 903d
0.34281328 -0.3053012 0.8333192 1.0982763 0.8717868 0.17864093 -0.55935526 -0.03874192
-0.97248495 0.70744157 -0.1801363 0.34137496 -0.0335042 1.6253121 -1.9164157 -0.35452464
1.7634699 -2.810882 -0.3821816 -10.173365 0.20869741 0.29347315 0.33646372 0.68545884
-0.48801053 -0.04686999 -0.56549853 0.44420448 0.33029386 -1.0170344 0.77678704 -0.49065042
0.7531612 0.7235528 -0.4357985 1.0089263 0.26165625 -0.03498979 0.038741056 0.21359822
-0.09540606 -0.04025601 -0.030405357 -0.05040189 -0.0070873075 -0.17496382 0.024124341 -0.16484898
1.1080862 -0.09311934 -0.5864496 -0.05886176 0.37191534 0.84558356 -1.3227232 -1.5662018
0.103370145 0.23737696 -1.0415646 -0.24981801 -1.8330508 -0.21974303 0.23457623 4.0764327
-0.07269004 0.087155834 1.3949666 -0.8658917 0.14218593 -0.11662449 -0.35204697 -0.28887698
0.7632079 -0.847731 -0.673631 0.1894313 0.24717207 0.40122378 -0.75581765 -0.12935658
0.61309695 -0.683213 -0.84965837 -1.0401405 -1.5831791 0.15028806 0.56238645 1.5556017
0.19291139 -0.5027469 1.4081146 -0.5964416 -0.3490686 -0.37694937 0.03824288 0.24503735
-1.4103833 -0.74121124 0.7361711 -0.5393169 1.4259261 -0.18852979 1.2136072 0.009168209
0.073769785 -0.19592915 -0.086847946 0.6137608 -0.040508565 -0.078980744 -0.08667105 -0.32179147
-1.8932388 0.15054536 0.11360999 0.20247343 -0.9869703 -0.48039168 -0.23487519 -0.7292355
0.111166656 -0.20138358 0.672088 -1.9812845 -0.539313 0.25222167 0.019313486 0.3946869
-1.1327419 0.10029104 -0.083023265 0.21977763 0.25984547 -0.13916478 0.2144645 0.16180249
-0.23778605 -0.18976633 0.27605858 0.25418228 0.040551785 -0.2616397 0.06846576 -0.2440996
0.11472573 -0.55493486 0.65003633 -1.4416574 0.18011068 0.18546829 -0.033243313 0.16175845
-0.47639617 0.5204089 0.0093926545 0.64816135 0.030250821 -0.095955424 -0.3123612 -0.37618715
-0.38635486 0.46827126 -0.13802694 0.9258966 -2.0244281 -0.008973113 0.055471595 0.039154965
0.23217115 -1.0395539 0.9557746 0.57169694 -0.657407 -0.1733325 -0.28157187 0.13472414
0.32178217 0.70185584 -0.8845296 0.85353094 0.06589626 -0.011647546 -0.28473908 0.22651362
-0.07685385 -0.7070857 0.07472701 0.21116345 0.16803835 -0.624428 -0.24483353 -0.33339965
-0.3876847 -0.23249085 0.26719543 0.50214183 -0.8804638 0.22406285 0.09599123 0.050771363
-1.2778945 -0.33213112 0.0084449975 -0.7577195 0.14743835 -0.4623039 0.7144097 2.8729634
0.52155435 -0.23253743 -0.43860808 0.1992747 -0.8494117 0.7015895 -0.043915935 0.46087682
0.109769076 0.4519945 0.32410184 0.78554547 -0.52058077 0.08419774 -0.108340934 0.029762125
-1.4772152 0.15795657 0.0730688 0.21910681 0.19461255 0.28009406 -0.3805542 2.9935668
0.050982896 -0.07383702 -0.30382657 -0.48512053 -0.3998293 -0.045594066 -0.2810886 -0.5826116
0.1106645 0.048812438 0.81629026 0.32449132 -1.0092305 0.5446812 -0.17554525 -1.2450596
0.85269696 -0.32877028 -0.15807924 0.70133203 -0.118155845 0.0138780475 -0.4052032 0.070334464

network.0.bias f4 [128]
00000000: c81c 32be 91b8 02bf 4205 05bf ce35 e7bd
00000010: 858c 76bf 28c4 58bf d18f 2fbf 5a4b 68bf
00000020: 4714 2abf 3128 5c3e a449 993d 057c 83be
00000030: 89f7 d6be 042f 543f 2185 48bf 5933 333e
00000040: 2f14 563e 59fc 96be d4e7 6b3c 3cb1 34bf
00000050: 161e 82be 9125 893e baa5 8dbd 5882 b9be
00000060: 2f6c 8ebe 8c6d 663f 0c42 d0be c093 4ebe
00000070: 641c 453d 4e8e 723f e53d 9e3e 422d 0f3f
00000080: 7d9e 803e 7189 a4be a251 1c3f 69be f8be
00000090: 5a02 80be 2e99 ddbc e3f7 7c3f 98e9 613e
000000a0: e944 2bbf 991e c03d c90b 233f f8cd 183e
000000b0: 06b6 093e a248 1f3d d9ec 4ebf 9345 303e
000000c0: 02e8 1c3f 1a4c 62be 6148 353f 5d7a 36bf
000000d0: 6098 7fbe 9e49 4bbf bc9a bc3c bddd 6bbf
000000e0: e7f2 99bd 8525 373f bb4c 0cbf df14 91bd
000000f0: b68c f1be 842a 2d3f 092c 3dbf cf89 76be
00000100: 0feb 00bf 559b 48be 9f9c 90bf ec70 c6be
00000110: 2ba5 88bf 572a dc3e cbe7 45be 868b 9ebe
00000120: a9ec eebe 4a1b 61be 60b2 383e 6a2c 06be
00000130: a5a7 ec3d 2ca8 d5bd 4183 6abc cc30 1c3f
00000140: 2bfd ff3c 341c ff3c 9761 373d c01a 993d
00000150: 6087 97be 52b3 053f 1fd6 e8be 78a1 91be
00000160: 8fce 88be 4b00 1dbc 04ce 57be a99c c4be
00000170: 07dc 813e ba31 90be c339 f5be 611c 473e
00000180: 88d1 5d3f ac17 aabe d970 093f df7f 88be
00000190: fba6 afbe b02b 2f3f f792 c83e aefb 13be
000001a0: bf74 363f 295b 8abf 63b2 75bf 5de5 5e3f
000001b0: 6b75 86be 1e78 64be b879 8fbe 86fb a13e
000001c0: b786 e43e 4c23 47bf 3360 5cbe 6f18 223f
000001d0: 1c5f 4bbe 00cf 4f3f ef8b 763d 4cc7 a3be
000001e0: a206 58be 635f d0be 48c5 b7be c292 fabd
000001f0: 1773 c33c b642 033f 7331 103f 8371 163f
-0.17393792 -0.51062876 -0.5196115 -0.11289559 -0.96308166 -0.8467431 -0.6857882 -0.9073998
-0.6643719 0.21499707 0.07484749 -0.25680557 -0.4198573 0.8288424 -0.7832814 0.17500056
0.20906137 -0.294894 0.014398534 -0.7058294 -0.2541358 0.26786473 -0.069163755 -0.36232257
-0.27816913 0.90010905 -0.4067539 -0.2017355 0.04812278 0.9474839 0.30906597 0.5592843
0.25120917 -0.3213611 0.6106206 -0.4858277 -0.25001794 -0.02705058 0.98815745 0.22061765
-0.66902024 0.09380836 0.6368986 0.14922321 0.13448343 0.038887627 -0.8083015 0.1721404
0.61291516 -0.22099343 0.70813566 -0.7128046 -0.2496047 -0.79409206 0.023023002 -0.9213522
-0.07517033 0.71541625 -0.5480458 -0.07084059 -0.47177666 0.67643 -0.7389532 -0.24076007
-0.5035867 -0.19590504 -1.1297797 -0.38758028 -1.0675405 0.43001053 -0.19326703 -0.30965823
-0.46664932 -0.21983066 0.18036795 -0.1310288 0.11555413 -0.10432467 -0.01431352 0.6101196
0.03124865 0.031141378 0.044770803 0.07475805 -0.2959547 0.52226746 -0.4547586 -0.28443503
-0.26720092 -0.009582589 -0.21074682 -0.38400772 0.2536318 -0.28162938 -0.4789563 0.1944442
0.86647844 -0.33221185 0.53687817 -0.26660058 -0.34307083 0.68426037 0.39174625 -0.14451477
0.7127189 -1.080907 -0.9597532 0.8706873 -0.26261458 -0.22311446 -0.28022552 0.3163721
0.4463403 -0.77788234 -0.21521072 0.6331853 -0.198605 0.8117523 0.060192045 -0.3198799
-0.2109628 -0.40697774 -0.358927 -0.12235023 0.02385859 0.5127367 0.56325454 0.58766955

network.2.weight f4 [128, 128]
00000000: e439 3e3f 225d debf 0c3a dd3e a7dc a33d
00000010: d425 e83f 54a6 8cbd 863c c73e 404b 583e
00000020: 2fd4 1d3e f694 c5be 799c 703e b440 63bd
00000030: e058 813e 36d1 4e3f db31 bf3d fbf3 253e
00000040: fc41 1dbf 193c 753e 4940 34be fc9a 543e
00000050: 8d92 c53e 5d83 943e 61a1 2cbc 5976 81bd
00000060: c11b 29bd 393b 4c3f 7710 af3e d0bb b23e
00000070: 8ca8 503e 4fdc 573f 4d44 033f 4d8a 5d3e
00000080: 5684 a83f 2167 753f 00a1 2b3f 8b66 103f
00000090: 6e12 913d 9945 7c3f d408 943f 8e5f d53e
000000a0: 4c1f 23bf a075 e33e bc85 6b3e a497 ee3e
000000b0: d8db 29bf 8597 d23e 790c c6bf cf34 813e
000000c0: c29a 533f 0a0f 79be a6d1 473f 3450 00bf
000000d0: d342 e7bc 2319 52bd bb5e f73e 8fa1 14bf
000000e0: 47d0 91bc 14c6 4d3f 3d15 8cbe 3278 f0bd
000000f0: ec18 b4bf cf10 15bf c16b b6bf a164 b93c
00000100: 70c9 933f ffda 53bf a0ee 8f3e 1746 eabe
00000110: 7621 03bf f06f 31bb bb5e d83f b2b3 ce3e
00000120: b1f6 03bf e7dd 383e b9db e1be 5484 04c0
00000130: 5286 a23e 6af0 b8be 2370 b83c 3f6f 473f
00000140: c902 653e a9db bdbd 8bcd 443f b3d5 ae3b
00000150: e43f 5d3d a971 163e 10a7 8a3e 2dae 943d
00000160: 7685 883c 871a 233f bdaa 8fbe 5e47 343e
00000170: bc19 e53b 66ba 22bf a381 0abf 8c6d 86bf
00000180: 38e3 a33f c1ac d03f 243b 993d 9520 a73d
00000190: c741 18bf 64d4 2f3f db87 fd3e 40fa 273d
000001a0: 9bc7 653f 0b1d a0be db06 40c0 3b37 583f
000001b0: 46d3 58bd 438e 5f3c 34a1 5abd cbed 7a3f
000001c0: f6b4 d73e 1c0a 983e ff5a dcbe 5c2a 8f3f
000001d0: ce43 1e3a dfcb c33f 45a2 913e a6d5 ec3f
000001e0: 721c 3c3f 5a86 123f 5cc6 79bf 1a5e a8be
000001f0: 4fc1 fb3d a1fb f93e 4d9b 803f 9dd5 793f
00000200: 3151 b9bd 76ce 273d 2830 1a3c 14b1 b0bd
00000210: aab2 8d3c a7b0 c1bd 36b6 833d efb6 cbbd
00000220: b7a2 553c ec13 86bd 2e2c 01bd 0dee a1bd
00000230: 924d 093a 9395 293a 89e6 10bd 4424 a13d
00000240: 7c1e 103d 241a 633d 884e 4bbc 4360 933d
00000250: bd28 a43d b534 313d 10f3 4fbb f172 713c
00000260: 5f44 6fbc 9eb9 7dbb fbf5 abbd f6a9 8dbd
00000270: f693 74bd 5833 1ebd a8ed 86bd 116a 3cbd
00000280: 3649 abbd 5951 743d c159 093b 7450 3e3c
00000290: 3149 8e3b c72b d23c 0805 b4bd f32f 703d
000002a0: 0980 b3bc dc60 d6bc fbab 5dbd 7151 76bc
000002b0: fd35 91bd 6a1b 1b3d daf2 e83c fe01 34bd
000002c0: 5313 fb3c 8185 d6bd db0a 3f3c 5403 a73d
000002d0: 3fb2 92bd 41c3 3e3d 09a0 2ebd b39b 723c
000002e0: c62f 633d bfbb 84bd 7473 eabd 43b7 5b3d
000002f0: 38c6 c6bd b56e 0b3c fb91 c8bc f541 94bb
00000300: 083c 843c 1b0f a5bd 55e6 ac3d 5b29 99bd
00000310: 95ca 7b3d 4df8 ca3a f9fd aebd 8a43 353d
00000320: 9c19 763d b3a2 02bd 99fd a5bd e23e 4d3b
00000330: 8b94 8cbd 9278 2637 4d4e 59bd 7c96 97bd
00000340: 2775 c43c 626c 883d 8cb5 333d 26f5 883d
00000350: 99cf 753c 16f1 b6bc c244 473d 037e ac3d
00000360: fb1f a7bd 10a4 91bb bf42 283d 6050 6d3d
00000370: 01c0 93bc 6af9 803d c51e 873d 6308 f8bc
00000380: a1b0 13bc 4453 31bd c59a c3bd feee 6b3d
00000390: 2fa6 9bbd deb1 50bc 1000 983d effa e03c
000003a0: 7d3c 633d 3c8e ac3d 1d54 4d3d 05e0 f0bc
000003b0: 2ce6 e6bc bb4b 2cbb 2576 973d bf1a d9bc
000003c0: 6edb 27bd e6ca b9bd f9ba 9c3d 3c9e aabd
000003d0: 1dc8 e7bc 4b9c 153d 5b9f 9fbd 38e0 b7bd
000003e0: 0fed cabc 6879 0ebd 28b3 a0bb ed58 92bc
000003f0: 93bc ca3c c072 4abd 57db ebbc cbc6 963c
0.74307084 -1.7372172 0.4320835 0.080010705 1.8136544 -0.06867662 0.38913363 0.21122456
0.15412973 -0.3859021 0.2349719 -0.055481628 0.2526312 0.8078798 0.09335681 0.16206352
-0.6142881 0.23948707 -0.17602648 0.20762247 0.38588372 0.29006472 -0.010536523 -0.06321401
-0.041286234 0.79777867 0.3419225 0.34908915 0.20376796 0.8432054 0.51276094 0.21634789
1.3165386 0.9586049 0.6704254 0.5640647 0.07083593 0.985437 1.1565194 0.41674465
-0.6371963 0.44425678 0.23000234 0.46600068 -0.6635108 0.41131225 -1.5472556 0.25235602
0.82658017 -0.24322143 0.78054273 -0.5012238 -0.028230106 -0.051293503 0.4831446 -0.5805902
-0.01779951 0.8038037 -0.27359954 -0.117416754 -1.4070106 -0.5822877 -1.4251634 0.022630991
1.1545849 -0.82756037 0.28111744 -0.457566 -0.5122293 -0.0027074777 1.690391 0.40371472
-0.51548296 0.18053399 -0.44112948 -2.0705767 0.31743103 -0.3612092 0.022514408 0.77904123
0.22364344 -0.092704125 0.76876134 0.0053355335 0.05401601 0.14691795 0.27080584 0.07259784
0.016665202 0.6371235 -0.2805995 0.1760535 0.006991593 -0.6356567 -0.5410406 -1.0502181
1.2803717 1.630272 0.07481983 0.081605114 -0.5947537 0.6868346 0.49517712 0.04101014
0.897577 -0.31272158 -3.0004184 0.84459275 -0.05293586 0.013644758 -0.05337639 0.98019093
0.4213025 0.29695213 -0.43038175 1.1184802 0.00060373254 1.5296592 0.28444114 1.85027
0.73480904 0.57236254 -0.975683 -0.32884294 0.1229273 0.4882479 1.0047394 0.97591573
-0.09048689 0.04096838 0.009410895 -0.08627525 0.017297108 -0.09457522 0.06431238 -0.09947001
0.0130392825 -0.065467685 -0.031536274 -0.07906733 0.0005237694 0.00064691267 -0.035376105 0.07868245
0.035185322 0.05544485 -0.01240886 0.07196095 0.08015583 0.043263156 -0.003173057 0.014736877
-0.014603703 -0.0038715373 -0.083965264 -0.06917183 -0.05971142 -0.038623184 -0.06588298 -0.04599959
-0.08363573 0.05964789 0.0020958039 0.011615861 0.004342221 0.02565564 -0.08790022 0.058639478
-0.021911638 -0.026169233 -0.05411909 -0.015034066 -0.070903756 0.03786794 0.028436113 -0.043947212
0.030648863 -0.104746826 0.011660303 0.08154932 -0.07162904 0.046572927 -0.04263309 0.014807629
0.055465482 -0.06481122 -0.11447802 0.05364157 -0.09705776 0.008510281 -0.024483671 -0.0045244643
0.016141906 -0.08059522 0.0844237 -0.07478591 0.061472494 0.0015485376 -0.08544535 0.044253863
0.060083017 -0.031893443 -0.081050105 0.0031317999 -0.0686427 9.9224435e-06 -0.05305319 -0.074017495
0.023981644 0.066612974 0.04387431 0.06687383 0.015003108 -0.022331756 0.048649557 0.08422472
-0.08160397 -0.0044446066 0.04107928 0.05793798 -0.01803589 0.06297572 0.06597666 -0.030277437
-0.00901428 -0.0432923 -0.09551004 0.057600968 -0.076000564 -0.012737719 0.07421887 0.027463404
0.055477608 0.084255666 0.050129045 -0.029403696 -0.028185926 -0.0026290256 0.07395581 -0.026502011
-0.04098075 -0.09071903 0.0765285 -0.08330962 -0.028293664 0.036526006 -0.077940665 -0.08978313
-0.024771241 -0.03478375 -0.0049041696 -0.017864669 0.024748122 -0.04942584 -0.028791113 0.018405339

network.2.bias f4 [128]
00000000: 4343 323f b53c 45bd e143 ff3b 75a7 cdbd
00000010: 02fb 6bbd 580f a9be 35c4 74bd 9b99 d9bd
00000020: 3d6f 983e 23ce 33be b745 1ebd 629f 443f
00000030: 6b2b 08bf 4849 48be ede5 95be caa1 ecbd
00000040: 4636 253f 9650 bdbd 200f 973d 4843 c53f
00000050: 1e2c 98bd b4fb bebd 0fac babd ea1d 3abf
00000060: 2c10 44bb 2e76 b2bd 8689 40bd c0bc 82bd
00000070: f1b8 85bd 9684 933c dd30 a8bd 67ef d43b
00000080: 4a7a 5b3e 27a1 773e 91fe d7bd e53f 883e
00000090: 52f1 413f 6215 b83c 484e c4bd 2ade 76bd
000000a0: e057 b5bd 8973 e6bd df08 d8bd 845c 2cbf
000000b0: 6e9a 8abe b3ca 6cba b07b babe 1ad2 ccbd
000000c0: b3aa 21be f427 61bd f46f 3abd bd49 513e
000000d0: a124 253f 7eac cbbd 2a19 d1be ae05 b7bd
000000e0: b2e1 273f 9d9f 933d 9db4 ce3e ded1 413e
000000f0: 19b0 de3e 56fe e6bd 1c7e 4a3c aa48 583d
00000100: a0d2 443d 3b90 3dbe 8809 52be 4d82 23bf
00000110: fd6e bdbd a925 10be e2e2 9d3e 4be9 95be
00000120: 9a67 46bd ba52 d53e 7b2c 98bc 0e0b 293d
00000130: 57b3 7b3e 6a9c acbe a744 1bbe 5e89 4abc
00000140: fc46 25be a1d1 813f b85e 603f dbde be3e
00000150: a47d 243b ac63 5abd 5b30 1dbe 8326 8fbd
00000160: 61bf 95bd 6e55 0bbf 8048 93be f153 babe
00000170: 3214 afbc 1799 1ebc 1747 53be b8a2 bebd
00000180: 603e e13c c4d5 4f3d 6706 fbbd 5eac c7bd
00000190: 877c d4bd e746 af3f 7e53 1dbd 336c 59be
000001a0: fb09 26be bceb 80bd 16fe 9ebd 7e62 b33f
000001b0: c8c7 b2bd fe41 38bf 5bdd adbc e63a bbbc
000001c0: 7385 34bc f084 76bf 4313 d13c f490 e3bd
000001d0: 63ab 69bd 7009 973d c072 b4bd dae2 403f
000001e0: 7ae7 34bd 4a59 afbd 866c 91bc a3a6 80bd
000001f0: 1e85 0fbe 28d1 053e 9e7e 91bd d485 8b3d
0.69633883 -0.048153598 0.007790074 -0.100417055 -0.057612427 -0.3301952 -0.05975743 -0.10625001
0.29772368 -0.17559104 -0.038640704 0.768057 -0.5319125 -0.19559205 -0.29276982 -0.11554296
0.6453594 -0.09243886 0.07375932 1.5411158 -0.0743029 -0.09325352 -0.09114849 -0.72701895
-0.0029916866 -0.08713947 -0.047006153 -0.063836575 -0.065294154 0.018007558 -0.08212445 0.0064982655
0.21433368 0.24182568 -0.105466016 0.26611248 0.7575885 0.022471134 -0.095852435 -0.060270466
-0.088546515 -0.11252505 -0.10548567 -0.6732867 -0.27070946 -0.000903289 -0.3642249 -0.10001011
-0.15787773 -0.054969743 -0.045516923 0.20438285 0.64509016 -0.0994501 -0.4083951 -0.0893663
0.6557876 0.07208178 0.40372172 0.18927714 0.43493727 -0.112789795 0.012359168 0.052803673
0.04805243 -0.18512051 -0.20511448 -0.638707 -0.09249685 -0.14076866 0.3083716 -0.2927955
-0.048438646 0.41664678 -0.018575897 0.04127031 0.24580131 -0.33713084 -0.15162908 -0.012361852
-0.1614036 1.0142099 0.8764453 0.372794 0.0025099302 -0.05331771 -0.15350477 -0.069897674
-0.07311893 -0.5442723 -0.2876625 -0.36392167 -0.021371935 -0.009680054 -0.20632587 -0.0930838
0.027495563 0.050740972 -0.122570805 -0.09749673 -0.10375314 1.3693513 -0.038409702 -0.21232681
-0.16214745 -0.06294963 -0.07763307 1.4014432 -0.087295115 -0.71975696 -0.021223715 -0.022855233
-0.011018145 -0.96296597 0.02552188 -0.11111632 -0.057048213 0.07374847 -0.08810949 0.7534615
-0.044166066 -0.085619524 -0.017751943 -0.062817834 -0.14015624 0.13068068 -0.071042284 0.06812635

network.4.weight f4 [6, 128]
00000000: 7146 7d3f 257a c33c 13ba 863c 8851 54bc
00000010: ae1c af3d e005 723e cb49 703d 369d 0e3e
00000020: 2893 f73c 9489 f8bf cb0d 2c3f 9202 093f
00000030: d4ad 28bf be1e 45be 1b21 3abe 691f aebf
00000040: 76ab 7d3e f864 fe3c b6b5 0bbb db2b 8b3f
00000050: b09a 3e3d abf4 2b3d a54b 273d a40c 9bbe
00000060: 2dff babf 62eb 8e3d f0ff 84bd f27d 8abd
00000070: 7dd8 873c 9e92 903c a286 93bf 3348 d23c
00000080: 8f90 94bc e9cf e93d b2ad feba 19f4 7d3e
00000090: 135b c83e 5a65 9abd e25d 2bbc 0e60 99bd
000000a0: 6679 4c3d 7d28 e93d 64d3 76bc f4a4 973f
000000b0: 692e 6a3e 19b4 53bb a3da a1bf bb43 8a3d
000000c0: c451 c9bf 4a60 0dbd 2a3a 9f3d e6a6 3f3f
000000d0: ba0d 7d3f fdfb 66bd bd0f 0dbf 0881 6b3d
000000e0: fb51 023f 3220 4ebb 94e9 ed3b bc98 153f
000000f0: fac8 87be 5daf 14bd a78f 05c0 2ea1 95bf
00000100: f97c 53bd f3a2 0ebe 41e3 dabe a513 40bf
00000110: 3a25 2fba 5fca 2340 5eb4 823d c2d6 1ebd
00000120: 94bb 81bd c984 b1bd 04e5 34bd 005b b4bd
00000130: 2a53 ab3c fb90 c9be 5960 fabe 76c2 873d
00000140: c27a ba3e 281e 8a3e 2711 983f d15c 873f
00000150: 9ad5 c8bf af7a 8fbc 8525 7c3f 1367 a1bf
00000160: 0c15 483b b8e8 81bd bf20 69bf e75f e1be
00000170: b5f8 a3bc 8612 1dbd 1e99 d4bf 224b 36bb
00000180: 625d da3c 19c8 62c0 8ff2 a5bd 1afd 263d
00000190: 705d 06bd 4a2e 673f 025d ce3c 2396 d5bd
000001a0: 7d30 883d c5dc 9f3d e407 2dbf 95c0 873f
000001b0: 2a90 7c3d 7249 ca3d 86df 81bd c944 e93d
000001c0: de2b 1c3c 60c1 51c0 cb99 2c3f 19d2 f03b
000001d0: c7bd 273c 0044 62c0 0f8d 2bbd 9f03 ca3d
000001e0: 5753 973c 400c 1ebc 8fa7 9e3d cf52 803d
000001f0: 9775 c53c a21c 683f f7ad 80bd 84e1 8f3d
00000200: 26e0 f23e 2faf 403d f14f 643d 50e6 823d
00000210: c41d 183a d959 0abe eec7 913d 2afd 81bc
00000220: 3d19 8d3e 8c2c 52bf a347 5abf 707d e53e
00000230: 36dc 70bd 5c48 65bf 8eec 0dbf fb6a 453e
00000240: a393 203f 0f40 1cbc 942b 993d 1001 9a3f
00000250: 3da9 29bc 2106 51bc a0e9 8ebd 089d b0be
00000260: 92c2 f63e 1702 78bd 98f7 94bd 10fb a8bd
00000270: ef59 86bd 5003 f5bc c41f 86be 74ff 8dbb
00000280: f30a a43e a99b 983c 6ba2 8abb 96b8 3d3f
00000290: 7176 8d3e ea69 15bd 8468 d6ba 1d7d 1cbd
000002a0: 477e a1bc 667b 193d e0f2 4f3d 06cd 0840
000002b0: 4c1b 38bf 1a6f c03f d513 c8bf bc29 6dbc
000002c0: b61b 7dbf 6a49 573d 5a43 453d 27ed f03e
000002d0: 0ea9 e63c c39e a63d f47a d7be 779f a5bd
000002e0: 1a77 363f dbbb 783d 155c 363f 9ebe fa3d
000002f0: b8a5 053f 4fdc 8f3d 98c3 b63b ca26 b9bf
00000300: 177c dc39 b337 0bbf 12b2 3fbf bb31 cbbd
00000310: bb51 043d de89 973f 8023 283e 838a 21bf
00000320: 1fd3 813d a8d6 8d3d 3c86 17bd 0cb6 a8bd
00000330: 7b43 903e 2d0d e1bf 76c9 9c3e f13b 763d
00000340: e3fd bc3d 2cd4 403f a2c7 1f3f 9709 113f
00000350: f98b 99bf 4bfc 11bd f7aa 353e ffd5 30bf
00000360: e1e1 da3b a6bc b93e e982 4bbf e703 f2be
00000370: 0aa5 14bd e007 733c 7879 6ebf 1f9c 66bc
00000380: d340 393d 43b9 09c0 05f5 a13d f4da 6d3c
00000390: 2fc7 913d 88aa 343f fc6c 043d 523a 1abf
000003a0: f7fa a1be 4ad7 6d3d e268 f2be bfd7 9d3f
000003b0: 5c9a a73c 9712 08be af0b b0bd 05d6 453d
000003c0: d98c 7abd 35c1 953f 7888 82bd b8a8 403b
000003d0: 5dc7 5bbd d563 9fc0 cf04 38bc 3322 6a3f
000003e0: c63a 4d3c 6408 553d 5ec7 cebc e2c4 913c
000003f0: 0248 c0bb 71ce 7f3c f55a 8b3d faf3 413d
0.9893561 0.023861954 0.016446149 -0.012958892 0.08550392 0.23635054 0.058664124 0.13927159
0.030221537 -1.9416986 0.67208546 0.53519547 -0.6589024 -0.19250008 -0.18176691 -1.3603336
0.24772438 0.031054005 -0.0021318025 1.0872759 0.04653424 0.04198138 0.040843625 -0.30283082
-1.4609123 0.069784895 -0.06494129 -0.067623034 0.016582722 0.017648038 -1.1525462 0.025669193
-0.018135337 0.11416609 -0.0019430427 0.24800147 0.39131984 -0.075388625 -0.010459395 -0.07489024
0.049920462 0.11384676 -0.015065048 1.1847215 0.22869267 -0.0032303391 -1.2644848 0.067512
-1.5728078 -0.034515657 0.07774766 0.7486404 0.9884907 -0.05639266 -0.5510214 0.0574961
0.5090634 -0.0031452295 0.0072605107 0.5843618 -0.2652052 -0.036300052 -2.0868928 -1.1689813
-0.051632855 -0.13929348 -0.42751506 -0.75029975 -0.00066812674 2.5592268 0.063820586 -0.038779028
-0.06334606 -0.08667905 -0.04416372 -0.088064194 0.02091368 -0.39368424 -0.48901632 0.06628887
0.36421782 0.26976132 1.1880234 1.05752 -1.5690186 -0.017514555 0.9849475 -1.2609581
0.0030530123 -0.06343216 -0.9106559 -0.4401848 -0.020016054 -0.038347743 -1.6609228 -0.0027815779
0.026655857 -3.543463 -0.08102905 0.04076872 -0.032803953 0.90305007 0.025190834 -0.10429027
0.066498734 0.0780578 -0.67590165 1.0605646 0.061660923 0.0987729 -0.06341462 0.11390073
0.009531943 -3.2774277 0.6742217 0.0073492643 0.010238118 -3.5354004 -0.04188257 0.09863972
0.018472357 -0.009646475 0.07746803 0.062657945 0.024103923 0.9066869 -0.06283181 0.070254356
0.47436637 0.047042068 0.0557403 0.06391585 0.0005802775 -0.13510837 0.07118212 -0.015867788
0.27558318 -0.82099223 -0.8526556 0.44822264 -0.05880376 -0.89563537 -0.5543908 0.19279091
0.62725276 -0.009536757 0.07479015 1.2031574 -0.010355291 -0.012757809 -0.06978154 -0.34494805
0.4819532 -0.060548868 -0.07273787 -0.08251011 -0.06560122 -0.029908806 -0.2619611 -0.004333431
0.32039604 0.018628912 -0.0042307875 0.7410978 0.27629426 -0.03647796 -0.0016358052 -0.038205255
-0.019713534 0.037471198 0.050768733 2.1375136 -0.7191665 1.5033906 -1.5631052 -0.014475282
-0.9887041 0.052560247 0.048159935 0.47055933 0.028156783 0.0813575 -0.42085993 -0.08087056
0.71275485 0.060726028 0.71234256 0.122433886 0.5220599 0.070244424 0.005577516 -1.4464962
0.00042054124 -0.54381865 -0.7488109 -0.09921595 0.032304507 1.1838949 0.16419792 -0.6310198
0.06339096 0.06925708 -0.03699325 -0.08237848 0.28176484 -1.7582146 0.30622452 0.06011576
0.092281125 0.7532375 0.6241399 0.5665526 -1.1995841 -0.035640996 0.17740999 -0.6907653
0.006679759 0.3627674 -0.7949663 -0.47268602 -0.036290206 0.0148334205 -0.93154097 -0.014075308
0.045227837 -2.1519325 0.07908062 0.0145175345 0.071180694 0.7057271 0.032330498 -0.6024524
-0.31636783 0.058066644 -0.47345644 1.2331465 0.020459346 -0.13288341 -0.085959785 0.048299808
-0.06116948 1.1699587 -0.063736856 0.002939744 -0.053656925 -4.9809365 -0.011231615 0.91458434
0.01252622 0.052009955 -0.02524155 0.017794076 -0.005867959 0.015613184 0.06804458 0.047351815

network.4.bias f4 [6]
00000000: 13ee 743f 4951 6a3f 8bb0 d83e 9c6a 1a3f
00000010: 43a5 133f 8955 5e3f
0.9567577 0.9153028 0.42322192 0.60318923 0.57674044 0.86849266
