modelos_s2/dqn_entorno1.pth (torch, 313661 bytes, 24 tensors)

network.0.weight f4 [128, 12]
0.18063569 0.14823656 -0.41951078 0.41199043 -0.31364575 0.44348836 -0.10706557 0.45697233
0.14877392 -0.3788902 0.06017303 -0.53494185 0.29443038 -0.62839574 0.12707584 -0.2891175
-0.47405934 0.5511811 -0.1660743 0.47184503 -0.10748057 0.16538157 0.27435476 -0.2696932
-0.25522995 -0.060615767 0.03708174 -0.07117288 -0.14723505 -0.26704392 0.04982355 -0.19646333
0.10721081 0.22120063 -0.17545289 -0.20175545 -0.10416593 0.2862725 -0.43795133 -2.4240003
-0.2665767 0.049401376 -0.04984111 0.3055951 -0.18102734 -0.12999336 0.13716206 0.40571877
0.088767946 0.2615993 0.005998006 0.27329037 0.1244568 0.0064601693 0.05510494 -0.24832214
0.018750513 -0.22156279 -0.13063468 -0.14785992 -0.48889205 -0.31271794 -0.0024322073 2.433093
0.47193438 0.17440557 0.11251785 -0.29180175 0.10470787 0.71433437 -0.07140054 0.47451192
-0.8098076 -0.92200017 0.92017794 0.31281188 2.369248 -0.3219182 0.4626675 -0.12854497
-0.11577333 -0.4331915 -0.33160943 -0.5733494 -0.08723748 0.082350336 -1.0626376 0.1578501
-0.778263 -0.25826558 -0.32656938 0.3956126 -0.16657147 0.029275304 -0.4917457 -0.92885834
0.1837984 -0.027473819 0.49966425 -1.0267617 -0.41499192 -0.28612372 -0.32629877 0.20866765
0.1096282 -0.26939422 0.23748574 -0.3032075 -0.6723146 -0.4715997 0.041182995 -2.6260996
-0.8755061 -0.10274058 0.4119403 0.2512933 0.13681741 -0.8519903 0.14925447 -0.3496013
0.0563565 -0.04054217 0.30749175 -0.23768872 -0.75398374 -0.29594696 -0.052922733 0.014388022
0.2833254 -0.46029344 -0.19164488 -0.49269468 0.63164735 0.48487043 0.6989274 -0.74539626
-0.33947483 0.043659993 -0.415388 0.15343586 0.20624866 0.18742403 0.07104028 -0.41090116
-0.17372692 1.1470915 0.2850619 -1.706217 -0.6164082 -0.17800508 -0.27523318 -0.5389968
0.2497992 0.108196266 0.48420963 0.27475616 -0.09454757 -0.17446226 -0.040618546 0.23240094
-0.20289324 -0.13777694 -0.1355111 -0.15400314 -0.20068525 -0.14431654 -0.2553987 0.24677622
0.94888926 0.5440845 0.14124517 -1.9623547 0.8905895 -0.029502897 -0.9245755 -0.87196225
0.08903888 0.30792466 -0.6088028 0.40512472 -0.49549466 0.013315335 -0.33298337 1.4006526
-0.097403735 -0.059923217 0.3307581 0.49639863 -0.041506775 -0.22384061 -0.27137 -0.23817144
1.4947302 -0.19528244 -0.55105466 -1.5112586 -0.49621895 0.40203035 -1.049441 0.11440006
0.08823541 0.6547305 -1.024407 0.08599218 0.42372325 -0.5019448 -0.44735616 -0.31353733
0.13699575 0.41509086 -0.3662219 0.50172824 0.17301527 -0.20389162 0.15784575 -0.039670236
-0.3396168 -0.2733886 -0.4203432 -6.182131 -0.14146069 0.06507968 0.5614225 0.27338037
-0.2789497 -0.09351575 -0.23168491 -0.16231932 0.045141768 0.12606934 -0.2832978 0.07806866
0.02359608 -0.2667978 0.2180634 0.073733665 0.048371915 -0.008947466 0.029755259 -0.10723866
0.18258105 0.09879421 0.021955201 -0.002945388 0.17905332 -0.13212179 0.15108226 -0.23536856
0.0154567305 -0.12572174 -0.046620063 0.07266842 -0.09321065 0.38769677 -0.30708587 3.7391806
00000000: 90f8 383e 53cb 173e 1eca d6be 69f0 d23e
00000010: 2d96 a0be e810 e33e 3245 dbbd 47f8 e93e
00000020: 3158 183e e5fd c1be ff77 763d f3f1 08bf
00000030: 94bf 963e 8bde 20bf 2b20 023e 3507 94be
00000040: e8b7 f2be 341a 0d3f 620f 2abe ac95 f13e
00000050: c61e dcbd c959 293e 3a78 8c3e 3a15 8abe
00000060: 80ad 82be 3d48 78bd 06e3 173d 16c3 91bd
00000070: c9c4 16be fbb9 88be c713 4c3d af2d 49be
00000080: 5791 db3d 6b82 623e eca9 33be fb98 4ebe
00000090: f254 d5bd 4f92 923e 283b e0be d222 1bc0
000000a0: be7c 88be 1959 4a3d 3126 4cbd f676 9c3e
000000b0: 3b5f 39be fb1c 05be 3674 0c3e 5fba cf3e
000000c0: f8cb b53d 58f0 853e ec8a c43b b7ec 8b3e
000000d0: 35e3 fe3d d4af d33b b8b5 613d 2948 7ebe
000000e0: ad9a 993c 5be1 62be 19c5 05be 9768 17be
000000f0: 0f50 fabe 911c a0be ab65 1fbb ccb7 1b40
00000100: 62a1 f13e 6097 323e c26f e63d 0a67 95be
00000110: 1471 d63d 9ede 363f 723a 92bd 3af3 f23e
00000120: 8d4f 4fbf 3408 6cbf c890 6b3f e128 a03e
00000130: c2a1 1740 76d2 a4be c1e2 ec3e 4ba1 03be
00000140: 911a edbd 47cb ddbe b6c8 a9be 07c7 12bf
00000150: 90a9 b2bd 4ba7 a83d 8204 88bf 75a3 213e
00000160: 3e3c 47bf 633b 84be 1a34 a7be bc8d ca3e
00000170: b691 2abe c3d2 ef3c 18c6 fbbe a9c9 6dbf
00000180: a635 3c3e c610 e1bc fed3 ff3e ed6c 83bf
00000190: d279 d4be cf7e 92be a210 a7be f9ac 553e
000001a0: c084 e03d 0aee 89be 762f 733e 033e 9bbe
000001b0: cf1c 2cbf 8475 f1be 80af 283d 0412 28c0
000001c0: 2b21 60bf a769 d2bd d7e9 d23e 84a9 803e
000001d0: dd19 0c3e 091c 5abf 2ad6 183e f1fe b2be
000001e0: 13d6 663d 8c0f 26bd 8f6f 9d3e ac64 73be
000001f0: 1405 41bf 5c86 97be 82c5 58bd bdbb 6b3c
00000200: 0710 913e 95ab ebbe 8e3e 44be 7a42 fcbe
00000210: a4b3 213f f040 f83e e8ec 323f 4ad2 3ebf
00000220: a5cf adbe d2d4 323d bcad d4be 4a1e 1d3e
00000230: d932 533e 16ec 3f3e 917d 913d a361 d2be
00000240: 78e5 31be e5d3 923f a2f3 913e 5265 dabf
00000250: eecc 1dbf f746 36be 5deb 8cbe b2fb 09bf
00000260: 5dcb 7f3e 0196 dd3d 53ea f73e d7ac 8c3e
00000270: 28a2 c1bd 3ca6 32be a25f 26bd 83fa 6d3e
00000280: 3fc3 4fbe 6615 0dbe 6cc3 0abe 00b3 1dbe
00000290: 6f80 4dbe b7c7 13be 9ec3 82be e8b2 7c3e
000002a0: 68ea 723f 1f49 0b3f 93a2 103e 702e fbbf
000002b0: acfd 633f 0fb0 f1bc fbb0 6cbf eb38 5fbf
000002c0: 045a b63d 4da8 9d3e 80da 1bbf 826c cf3e
000002d0: 7ab1 fdbe 9028 5a3c cc7c aabe 9648 b33f
000002e0: 9c7b c7bd 0c72 75bd 2059 a93e f627 fe3e
000002f0: 0203 2abd 7936 65be 02f1 8abe 37e3 73be
00000300: 5253 bf3f 1ff8 47be eb11 0dbf ec70 c1bf
00000310: 6910 febe ecd6 cd3e 1554 86bf 944a ea3d
00000320: c4b4 b43d 6b9c 273f c51f 83bf ab1c b03d
00000330: 41f2 d83e 747f 00bf de0b e5be f787 a0be
00000340: 9d48 0c3e ca86 d43e 7081 bbbe 4371 003f
00000350: ea2a 313e f7c8 50be 51a2 213e 427d 22bd
00000360: 41e2 adbe 97f9 8bbe 3937 d7be 04d4 c5c0
00000370: 12db 10be 7f48 853d 63b9 0f3f 83f8 8b3e
00000380: 7fd2 8ebe 2f85 bfbd cf3e 6dbe 0937 26be
00000390: 93e6 383d 5218 013e 690c 91be 76e2 9f3d
000003a0: 914c c13c b999 88be 034c 5f3e ad01 973d
000003b0: a121 463d 6498 12bc 4dc1 f33c f19f dbbd
000003c0: 87f6 3a3e 9e54 ca3d 65db b33c 6907 41bb
000003d0: c159 373e ef4a 07be 4fb5 1a3e 7504 71be
000003e0: 3a3e 7d3c 33bd 00be aef4 3ebd 2ed3 943d
000003f0: 3ae5 bebd 3180 c63e 5c3a 9dbe bc4e 6f40

network.0.bias f4 [128]
0.39734733 0.2484016 -0.2793733 0.11290471 -0.106532745 -0.14312553 -1.1952299 0.46084583
0.55303997 -0.115360975 0.5110361 0.1316054 -0.037891664 -0.1612608 -0.9870388 0.66726726
0.08119811 0.31040177 0.13803783 0.014506772 -0.069601074 0.07584218 -0.1136534 0.34418735
-0.17334081 0.2503199 0.12234965 0.28251505 0.35822755 0.33315676 0.6125258 -0.31579417
0.31752753 0.3090556 0.3532324 0.42636305 0.6344173 0.49458796 0.10674107 0.500363
-0.63844097 0.5227502 0.35951796 -0.27983257 0.110919945 0.59368867 0.30007467 -0.26884443
0.21676649 -0.18056996 -0.9566126 0.5224254 0.099024154 0.19726369 -0.031730782 0.05524236
0.33270463 -0.20551987 0.114563085 0.3326923 0.45049414 -0.17631021 0.30652118 0.004508534
0.429687 -0.18411513 -0.05798518 -0.05997018 -0.038860917 -0.2713509 0.2791775 0.4215677
-0.08446659 0.20251188 0.6861749 0.48621258 -0.04693644 0.19238691 -0.26976505 0.40514985
0.35447496 0.3346619 -0.8222357 0.37092295 -0.390612 -1.0731753 -0.062143527 0.24284689
-0.49032688 0.30564898 -0.36744204 -0.29282203 -0.06803103 0.19716583 0.3017559 0.08019055
0.48223698 -0.26198572 -0.009468045 0.4922618 0.51667607 0.45740414 0.34622473 -0.41530514
0.3149408 0.39594224 0.1319332 0.53706115 -0.9119663 0.073649384 0.36865154 0.46540633
-0.1046579 0.32677093 0.6229119 0.5737946 0.41730013 0.34010476 -0.0037651605 0.33626348
0.32987693 0.5687851 -0.1617626 0.4910286 -0.25725928 0.4345889 0.59882486 -0.28664672
00000000: 1c71 cb3e fd5c 7e3e 040a 8fbe 963a e73d
00000010: d72d dabd 808f 12be 4bfd 98bf fcf3 eb3e
00000020: 0794 0d3f 6042 ecbd 43d3 023f 91c3 063e
00000030: 4a34 1bbd 8d21 25be 93ae 7cbf 07d2 2a3f
00000040: 324b a63d fbec 9e3e ca59 0d3e d0ad 6d3c
00000050: 028b 8ebd 2553 9b3d 1dc3 e8bd 5339 b03e
00000060: 4180 31be ee29 803e 7492 fa3d d0a5 903e
00000070: 9a69 b73e 8693 aa3e 7ece 1c3f c6af a1be
00000080: f892 a23e 893c 9e3e e1da b43e 424c da3e
00000090: 2c69 223f a23a fd3e 109b da3d ca17 003f
000000a0: de70 23bf f5d2 053f bd12 b83e 3746 8fbe
000000b0: ff29 e33d fbfb 173f 63a3 993e faa5 89be
000000c0: 09f8 5d3e 55e7 38be 90e4 74bf acbd 053f
000000d0: 2dcd ca3d 7eff 493e 23f8 01bd d045 623d
000000e0: 4358 aa3e cd73 52be 0da0 ea3d a556 aa3e
000000f0: 2ba7 e63e aa8a 34be 58f0 9c3e 53bc 933b
00000100: efff db3e ad88 3cbe de81 6dbd 4ba3 75bd
00000110: a02c 1fbd 81ee 8abe 5af0 8e3e b9d7 d73e
00000120: d2fc acbd 465f 4f3e 29a9 2f3f dbf0 f83e
00000130: 6d40 40bd 1301 453e a51e 8abe cd6f cf3e
00000140: be7d b53e ce58 ab3e 0a7e 52bf 9de9 bd3e
00000150: 4cfe c7be cf5d 89bf 368a 7ebd dbac 783e
00000160: 200c fbbe 067e 9c3e 5d21 bcbe c5ec 95be
00000170: da53 8bbd d7e5 493e c07f 9a3e f13a a43d
00000180: c4e7 f63e fe22 86be dc1f 1bbc bd09 fc3e
00000190: e244 043f e030 ea3e 5e44 b13e e0a2 d4be
000001a0: ec3f a13e f1b8 ca3e 7f19 073e d77c 093f
000001b0: a076 69bf 7dd5 963d e5bf bc3e bd49 ee3e
000001c0: e256 d6bd 854e a73e 2777 1f3f 34e4 123f
000001d0: 5da8 d53e 3622 ae3e e9c0 76bb ba2a ac3e
000001e0: a1e5 a83e e69b 113f 18a5 25be 1a68 fb3e
000001f0: 7db7 83be 7082 de3e 964c 193f 5cc3 92be

network.2.weight f4 [128, 128]
0.1527027 0.7160912 0.07564048 0.3271461 -0.023391364 -0.039190583 -4.53609 -0.31445494
0.27370915 -0.24060428 -0.1352561 0.6113355 0.6439425 0.027888274 -0.09065468 -0.055535123
-0.25225246 0.5249606 -0.6759458 -0.0652297 0.023727527 -0.25584248 0.18368237 -0.27805066
-0.046463635 0.46015832 -0.09582619 0.46290705 -0.27533796 -0.19189385 0.09659874 -0.613443
-0.19806278 0.032998122 -0.26237768 -0.2611144 0.3070437 -0.55215937 0.46876258 0.2551903
-0.18828131 -0.12231154 -0.46321037 -0.7314841 -0.04076329 0.23522604 -0.13767505 -0.080640435
-2.065531 -0.0010053919 -3.168556 -0.30603883 -0.2891543 0.074699484 0.17037238 0.45503178
-0.36136812 0.0077492036 0.2997441 0.12469202 -0.23772556 -0.04338506 -0.6226562 -0.28101194
-0.10541144 -0.08453459 0.5444905 -0.036036514 0.0862303 0.040417563 -0.18094923 0.1416705
-0.029247552 0.4310324 0.502049 -0.28985634 0.8794474 0.5281321 0.07596554 -0.30895802
0.4706961 0.11793866 -0.06615886 -0.27910498 -0.44528016 -0.7243114 0.06801135 -0.65264183
0.13347882 -0.10069785 -1.165688 -0.045977257 0.07594311 -0.23651145 -0.115794316 -0.48019174
-0.13286906 0.019838879 0.025621373 -0.30624428 -0.39856923 0.028481727 0.07445818 -0.32231313
0.39621902 -0.17881182 -0.44381675 -0.15377955 0.5864649 -0.46295506 -0.065964736 -0.6488078
-0.50010264 0.25772128 0.067013815 0.63798803 0.03168314 0.08283043 0.4396178 -0.40521753
0.13159373 0.47919875 0.054170173 -0.08335176 0.021034133 -0.3038179 -0.060989264 -0.008334455
0.33976337 0.41462445 0.03120286 0.35083768 -0.043891896 -0.53045875 -1.2002267 -0.48364818
0.09994331 0.29947978 0.008151861 0.18359092 0.47280928 -0.084371485 -2.6722307 0.28817928
-0.90822697 0.34261054 -0.7204539 0.065482974 0.017843964 0.08834644 -0.19665307 0.12706956
-0.055194385 0.18477131 -0.24149776 0.5965377 0.054190084 0.11043452 0.24366546 0.3790782
-0.053859174 0.15436184 0.06508843 -0.06652125 0.040137846 -0.285489 0.29591244 -0.069729894
-2.4272826 -0.026629938 0.27252084 -0.37082708 -0.14258473 0.105764195 -0.16397162 0.07719304
1.3308793 0.014769172 -2.4860752 0.111394614 0.2802271 0.700686 -0.3093023 0.05303439
0.2469729 -0.012654264 0.784149 0.12015578 0.07624629 0.021774653 0.19669037 -0.044283148
0.17431737 0.04187149 0.09477021 -0.05161829 0.0558812 0.03765056 0.014159622 0.070000745
-0.0054798173 0.14230481 0.51128304 0.06269332 1.0684165 0.30930263 0.06805815 -0.09156599
0.53261054 0.05193824 -0.6948243 0.03360678 -0.5606786 0.094546124 -0.519677 -0.45862764
0.13510482 0.11038992 0.10512305 0.048665386 0.03686075 -0.30785355 -0.11125944 -0.29204917
0.17434299 -0.08631864 -0.017898168 0.010818291 -0.08772735 0.12778549 0.27507475 0.05215879
0.17380545 0.07836316 0.79131556 0.033757597 -4.665303 -0.3731606 0.24024452 -0.25473467
0.60746986 -0.12729654 0.16543186 1.0058836 -0.0047344863 0.5055458 0.14599285 0.11675342
-0.008290497 0.6952993 -0.06975047 0.08522947 -0.042524062 -0.4585516 0.25054786 -0.008274321
00000000: 195e 1c3e c151 373f 65e9 9a3d b27f a73e
00000010: 3f9f bfbc 4e86 20bd a627 91c0 3d00 a1be
00000020: 9b23 8c3e f860 76be 9380 0abe 7c80 1c3f
00000030: 6ad9 243f f375 e43c 29a9 b9bd cc78 63bd
00000040: 3c27 81be d163 063f c90a 2dbf 2697 85bd
00000050: 3b60 c23c c9fd 82be 3b17 3c3e a85c 8ebe
00000060: a750 3ebd df99 eb3e 8640 c4bd 2702 ed3e
00000070: 19f9 8cbe d27f 44be 8fd5 c53d 9a0a 1dbf
00000080: f8d0 4abe 0a29 073d 5e56 86be c9b0 85be
00000090: d534 9d3e 515a 0dbf a601 f03e 4ea8 823e
000000a0: d1cc 40be 797e fabd e929 edbe 8b42 3bbf
000000b0: 68f7 26bd 18df 703e b0fa 0cbe d026 a5bd
000000c0: a931 04c0 5bc7 83ba 9fc9 4ac0 1fb1 9cbe
000000d0: 080c 94be 0bfc 983d 1976 2e3e edf9 e83e
000000e0: 3e05 b9be 08ed fd3b 0f78 993e 885e ff3d
000000f0: 546e 73be 88b4 31bd 6666 1fbf cce0 8fbe
00000100: f4e1 d7bd 7920 adbd bb63 0b3f 069b 13bd
00000110: 8399 b03d e38c 253d c14a 39be 1212 113e
00000120: 9098 efbc 47b0 dc3e 4986 003f 0d68 94be
00000130: 7723 613f aa33 073f d293 9b3d bf2f 9ebe
00000140: 14ff f03e d389 f13d 4c7e 87bd d9e6 8ebe
00000150: c3fb e3be 796c 39bf 8949 8b3d 8913 27bf
00000160: acae 083e ad3a cebd 4435 95bf a652 3cbd
00000170: 1088 9b3d 0f30 72be 9225 edbd b1db f5be
00000180: d40e 08be 2585 a23c eae3 d13c 0dcc 9cbe
00000190: 4411 ccbe 8352 e93c 887d 983d 3a06 a5be
000001a0: 38dd ca3e 721a 37be f33b e3be 6378 1dbe
000001b0: 9022 163f 7208 edbe 8518 87bd 4518 26bf
000001c0: ba06 00bf 0bf4 833e 8a3e 893d 2f53 233f
000001d0: 2ec6 013d 00a3 a93d 9615 e13e ac78 cfbe
000001e0: 82c0 063e 8a59 f53e 8be1 5d3d 54b4 aabd
000001f0: c64f ac3c 058e 9bbe e1cf 79bd 3d8d 08bc
00000200: 77f5 ad3e a849 d43e 249d ff3c ffa0 b33e
00000210: fdc7 33bd 25cc 07bf 07a1 99bf bca0 f7be
00000220: 14af cc3d 6a55 993e 628f 053c 42ff 3b3e
00000230: 0f14 f23e f5ca acbd d405 2bc0 3c8c 933e
00000240: 9081 68bf a66a af3e ab6f 38bf f01b 863d
00000250: 812d 923c faee b43d 6c5f 49be 861e 023e
00000260: 8213 62bd b134 3d3e 304b 77be b2b6 183f
00000270: 6cf6 5d3d 7e2b e23d 7083 793e 8a16 c23e
00000280: 709b 5cbd 0811 1e3e 154d 853d 4b3c 88bd
00000290: 9567 243d 9d2b 92be d681 973e 8cce 8ebd
000002a0: 9958 1bc0 0727 dabc da87 8b3e 0cdd bdbe
000002b0: bb01 12be e69a d83d 2de8 27be 6217 9e3d
000002c0: 415a aa3f 66fa 713c db1b 1fc0 dc22 e43d
000002d0: ed79 8f3e 2860 333f df5c 9ebe 973a 593d
000002e0: 77e6 7c3e d553 4fbc fdbd 483f 3c14 f63d
000002f0: 0427 9c3d c260 b23c 3369 493e 3f62 35bd
00000300: 4180 323e 7181 2b3d e216 c23d b36d 53bd
00000310: afe3 643d 7937 1a3d c2fd 673c 8d5c 8f3d
00000320: 0a90 b3bb 5ab8 113e 72e3 023f 5b65 803d
00000330: dfc1 883f ea5c 9e3e 1262 8b3d f386 bbbd
00000340: 2a59 083f 31bd 543d 01e0 31bf 43a7 093d
00000350: a288 0fbf 66a1 c13d 8d09 05bf 3ed1 eabe
00000360: eb58 0a3e 1c14 e23d c14a d73d 5b55 473d
00000370: 4cfb 163d fb9e 9dbe fddb e3bd 7887 95be
00000380: f886 323e d4c7 b0bd 2e9f 92bc 343f 313c
00000390: 66aa b3bd 33da 023e 99d6 8c3e 75a4 553d
000003a0: 0efa 313e dd7c a03d a893 4a3f 6845 0a3d
000003b0: 2a4a 95c0 e80e bfbe a902 763e 956c 82be
000003c0: 2583 1b3f 065a 02be f866 293e cbc0 803f
000003d0: c023 9bbb 736b 013f 267f 153e 6b1c ef3d
000003e0: ddd4 07bc 23ff 313f 56d9 8ebd ca8c ae3d
000003f0: b62d 2ebd 46c7 eabe cf47 803e 0591 07bc

network.2.bias f4 [128]
0.22198714 0.16335435 0.031937607 -0.10235003 0.30280203 0.0077635185 0.32658383 -0.052274346
0.14440604 0.1739241 0.3259688 0.3234728 0.03478285 0.22272676 0.4235445 0.06279308
0.20737201 -0.08568843 -0.043508694 0.0024158184 -0.017812125 -0.11279129 -0.11136828 0.34334797
0.3217123 0.39850327 -0.068096496 0.014022599 0.3452168 0.46519062 -0.037422996 -0.12891325
0.30102816 -0.043161996 0.123173185 0.27265927 -0.029214876 0.28119314 0.19133602 0.36494753
0.29099655 -0.059950616 -0.044399824 0.21090442 0.050351225 0.0047634495 -0.24916326 0.18603285
0.101855 -0.06473295 -0.16286387 -0.0624886 0.40485102 0.31975263 0.2862536 0.18833755
-0.12029758 0.05052994 0.03585418 0.1773174 -0.072376445 0.3155279 0.23742223 0.2821641
-0.11297765 0.01770391 0.016744677 0.24326973 0.010366421 -0.015871646 -0.30844465 -0.08031145
-0.08179641 0.29100057 0.1020045 0.001856876 0.07136632 0.30143237 -0.10334915 0.03518985
0.00040855454 0.092484616 -0.08162991 -0.019710261 0.44784728 -0.19289486 0.18014896 0.082157336
0.5477044 0.24440043 -0.121253625 -0.0036570027 0.036381844 -0.0534076 -0.10873542 0.054496124
-0.4253692 0.28341314 0.024496904 -0.38132897 -0.09354178 0.3611533 -0.0897137 0.41479144
-0.08834211 0.31279254 -0.08424889 0.31448162 -0.42048666 0.35345373 0.40620714 0.2934088
-0.09176282 0.110976145 -0.07455736 -0.21690892 -0.085196435 0.2882847 -0.20112273 0.039504614
-0.056572393 0.44702923 0.0035282965 -0.034407802 0.18046008 0.17221789 0.11059233 0.0888488
00000000: 9950 633e 5d46 273e 02d1 023d e49c d1bd
00000010: de08 9b3e 1d65 fe3b ff35 a73e a01d 56bd
00000020: 2ddf 133e 2919 323e 62e5 a63e 3a9e a53e
00000030: 7678 0e3d 7c12 643e d3da d83e a999 803d
00000040: 5459 543e 6a7d afbd 2c36 32bd b552 1e3b
00000050: bcea 91bc 1fff e6bd 0e15 e4bd 4ecb af3e
00000060: 79b7 a43e 9f08 cc3e 2d76 8bbd 0bbf 653c
00000070: 42c0 b03e 772d ee3e db48 19bd d601 04be
00000080: 5d20 9a3e a2ca 30bd 3942 fc3d ff99 8b3e
00000090: 0954 efbc 8cf8 8f3e 97ed 433e 67da ba3e
000000a0: 80fd 943e c78e 75bd 97dc 35bd 54f7 573e
000000b0: 163d 4e3d b616 9c3b a724 7fbe 657f 3e3e
000000c0: 5b99 d03d b592 84bd c9c5 26be 0cf4 7fbd
000000d0: a248 cf3e 9eb6 a33e d58f 923e 8fdb 403e
000000e0: 945e f6bd 7bf8 4e3d d5db 123d b192 353e
000000f0: 1a3a 94bd df8c a13e d01e 733e d077 903e
00000100: d360 e7bd ca07 913c 222c 893c b31b 793e
00000110: ecd7 293c 4105 82bc 75ec 9dbe 547a a4bd
00000120: e084 a7bd 07fe 943e bce7 d03d 6b62 f33a
00000130: 8128 923d 5855 9a3e b8a8 d3bd 3b23 103d
00000140: 4333 d639 9368 bd3d 952d a7bd 6a77 a1bc
00000150: 3d4c e53e 3b86 45be f878 383e 1b42 a83d
00000160: 5b36 0c3f 1b44 7a3e d253 f8bd 53aa 6fbb
00000170: 2105 153d edc1 5abd adb0 debd 5437 5f3d
00000180: fec9 d9be 871b 913e bbad c83c 8d3d c3be
00000190: d592 bfbd 16e9 b83e d1bb b7bd 8b5f d43e
000001a0: b5ec b4bd 5826 a03e af8a acbd bc03 a13e
000001b0: 074a d7be e3f7 b43e 62fa cf3e ae39 963e
000001c0: 25ee bbbd 7647 e33d 87b1 98bd 5f1d 5ebe
000001d0: 787b aebd 0d9a 933e 1ef3 4dbe 97cf 213d
000001e0: 74b8 67bd 04e1 e43e fe3a 673b 32ef 0cbd
000001f0: 87ca 383e e359 303e 3b7e e23d 5cf6 b53d

network.4.weight f4 [6, 128]
0.8392293 0.94935733 -0.021819348 0.09118785 0.5704176 -0.057931297 0.44697735 0.056875084
0.8504129 0.5101444 0.26960683 0.58699757 0.009925268 0.8584055 0.5898282 -0.0072379834
-0.020407617 -0.0044346494 0.030472843 0.098810434 -0.062895164 0.04954561 -0.027231608 0.39688677
0.077011704 0.49946046 -0.053056758 -0.070405416 0.7196829 0.6015936 -0.0003234349 -0.0613748
0.5240963 -0.0024637887 0.6356592 -0.11944776 0.013824707 -0.21250534 1.016203 0.6986909
0.7190488 -0.03932483 0.06826884 -0.24440421 0.056741383 -0.66962796 0.21898454 0.47006047
-0.6275724 0.07556842 -0.6123671 0.03404225 0.6823742 0.62713623 0.4704664 0.68060577
0.027052443 0.015987575 0.082566015 0.536491 -0.08199159 -0.014696194 -0.3437608 0.45156774
0.05980629 0.043036446 -1.6322547 -0.5637541 1.1635064 0.06379523 -0.109772325 0.019514054
0.023896283 0.33130768 0.65507483 -0.0569495 -0.22695775 -0.52450854 -0.004595293 -0.05321073
-0.06037192 0.14785731 0.10015592 0.09769225 0.5708817 0.5399483 0.8525814 1.1250191
0.63723314 0.664423 -0.017333336 0.034804318 0.09158795 0.06216549 -0.010815333 -0.065313525
-0.15781732 0.4572008 0.029622348 -1.5233529 0.12966388 0.86971825 0.026860934 0.6064249
0.06526689 -0.49969655 -1.3111275 1.0661111 -0.007986057 0.18915455 0.33581886 0.031022388
0.06395587 -0.4804835 -0.017853495 -1.7626365 0.029399648 0.27938762 1.2786318 -0.03702176
0.17788285 0.799288 -0.08588587 -0.0007557525 0.8559037 -0.92867136 0.9633991 0.50501937
0.78088063 0.417241 -0.027428027 -0.0031101338 0.34165886 0.084547706 -0.062788606 -0.071056016
0.2897 0.264601 0.3233013 0.36305717 0.03696111 0.3250769 0.06664206 0.01629328
-0.6054243 -0.044042107 -0.049122438 -0.0052469345 0.07236617 0.08587148 -0.04550019 0.19797128
0.37098715 0.2489149 -0.04864269 0.7940076 0.06476723 0.04016909 0.0141266715 0.029901562
0.47680143 0.032421254 0.4661269 -0.123327784 -0.038850896 0.54786885 0.4303223 0.16159518
0.42832923 -0.035168853 -0.05665804 0.66432 -0.00012501575 0.56738806 1.3333992 0.37310436
-0.56957304 -0.041760743 -0.88426125 -0.032976925 0.95036304 0.2569269 0.33327767 0.7190056
0.058848746 -0.0037164579 0.06952512 0.18412247 0.029709091 0.43945226 0.3927192 0.24630065
-0.098539405 -0.019833816 0.8322964 0.5320782 0.86605906 0.037330046 -0.8238427 0.018164312
-0.07762634 0.3692974 0.45345733 0.01621369 1.2154278 0.2585587 -0.0060885265 0.0039947308
0.055959433 0.3534596 -0.07511916 -0.027157545 0.101024546 0.5163448 0.5404613 0.86692524
0.19981037 0.4405789 0.034235828 0.004774214 -0.37398565 0.018562587 -0.019035568 -0.06841362
-0.24853188 0.01804818 0.022479601 -1.1484011 -0.08180408 0.4272921 0.041506164 1.1093847
0.05266389 0.5434702 -0.69326293 0.9251392 1.244754 0.3605217 0.22038798 0.40271965
-0.003914531 0.5255722 -0.009762364 -0.9503866 -0.004542134 0.41155186 -0.56310993 0.082460396
-0.70107067 0.36545977 -0.020078074 0.0565903 0.32539552 0.3308175 0.28681153 1.4805626
00000000: bbd7 563f 1509 733f 7dbe b2bc b2c0 ba3d
00000010: e306 123f 5e49 6dbd 37da e43e d9f5 683d
00000020: a9b4 593f d398 023f e809 8a3e 7945 163f
00000030: 979d 223c 76c0 5b3f fbfe 163f 9b2c edbb
00000040: e02d a7bc 8950 91bb 2fa2 f93c 205d ca3d
00000050: 2ecf 80bd 56f0 4a3d d214 dfbc be34 cb3e
00000060: 50b8 9d3d 48b9 ff3e 0b52 59bd b730 90bd
00000070: 233d 383f 0a02 1a3f b392 a9b9 2464 7bbd
00000080: 2d2b 063f 8477 21bb 90ba 223f 07a1 f4bd
00000090: 0681 623c 009b 59be f112 823f 68dd 323f
000000a0: 9513 383f 1313 21bd 89d0 8b3d 1945 7abe
000000b0: a769 683d bd6c 2bbf 7c3d 603e c4ab f03e
000000c0: 96a8 20bf 9ec3 9a3d 17c4 1cbf e36f 0b3d
000000d0: 13b0 2e3f 008c 203f f9e0 f03e 2e3c 2e3f
000000e0: 169d dd3c 60f8 823c 5f18 a93d 7957 093f
000000f0: 35eb a7bd 4ec8 70bc 6a01 b0be e333 e73e
00000100: 71f7 743d fc46 303d b9ed d0bf 3052 10bf
00000110: c7ed 943f 13a7 823d 50d0 e0bd f0db 9f3c
00000120: 23c2 c33c 29a1 a93e fcb2 273f e143 69bd
00000130: 9d67 68be 3146 06bf 1d94 96bb 7ff3 59bd
00000140: 8c48 77bd e867 173e 8c1e cd3d e012 c83d
00000150: 4e25 123f 0d3a 0a3f c642 5a3f a000 903f
00000160: b621 233f a017 2a3f a4fe 8dbc f98e 0e3d
00000170: 7792 bb3d 3ea1 7e3d cb32 31bc 19c3 85bd
00000180: dd9a 21be 3916 ea3e 91aa f23c 3afd c2bf
00000190: 9cc6 043e dba5 5e3f 760b dc3c aa3e 1b3f
000001a0: a6aa 853d 3ad8 ffbe 07d3 a7bf 5476 883f
000001b0: f3d7 02bc bbb1 413e 73f0 ab3e aa22 fe3c
000001c0: 4cfb 823d ef01 f6be 7e41 92bc 139e e1bf
000001d0: 88d7 f03c e50b 8f3e 35aa a33f 21a4 17bd
000001e0: ec26 363e 239e 4c3f eee4 afbd b11d 46ba
000001f0: 811c 5b3f 68bd 6dbf 53a1 763f f348 013f
00000200: cbe7 473f 9da0 d53e beb0 e0bc 63d3 4bbb
00000210: e9ed ae3e 5927 ad3d 5097 80bd d185 91bd
00000220: 8f53 943e c879 873e bf87 a53e a1e2 b93e
00000230: 8864 173d 7b70 a63e a27b 883d 7c79 853c
00000240: 16fd 1abf 7f65 34bd 9c34 49bd 7aee abbb
00000250: b734 943d 63dd af3d 685e 3abd fcb8 4a3e
00000260: 07f2 bd3e 8ce3 7e3e 8f3d 47bd 1544 4b3f
00000270: aea4 843d 5888 243d 8e73 673c 1ff4 f43c
00000280: 511f f43e 26cc 043d 2fa8 ee3e 4793 fcbd
00000290: 1e22 1fbd 2241 0c3f 3453 dc3e 3579 253e
000002a0: f84d db3e 370d 10bd 4312 68bd e010 2a3f
000002b0: a916 03b9 5840 113f d3ac aa3f 8907 bf3e
000002c0: 8acf 11bf 500d 2bbd f25e 62bf d012 07bd
000002d0: fe4a 733f ec8b 833e 5fa3 aa3e c010 383f
000002e0: 620b 713d d18f 73bb 3063 8e3d 9a8a 3c3e
000002f0: 7b60 f33c e3ff e03e 7e12 c93e 3d36 7c3e
00000300: 07cf c9bd 877a a2bc 6011 553f 4736 083f
00000310: 0cb6 5d3f 64e7 183d 5be7 52bf 53cd 943c
00000320: 8ffa 9ebd 8c14 bd3e 8f2b e83e 93d2 843c
00000330: 2393 9b3f ce61 843e 4382 c7bb 3be6 823b
00000340: b835 653d a8f8 b43e 13d8 99bd 8079 debc
00000350: f5e5 ce3d 2c2f 043f ac5b 0a3f d0ee 5d3f
00000360: 179b 4c3e 8f93 e13e de3a 0c3d 0271 9c3b
00000370: 0c7b bfbe 9110 983c 7bf0 9bbc 711c 8cbd
00000380: 247f 7ebe c7d9 933c 2427 b83c cffe 92bf
00000390: e688 a7bd 08c6 da3e 5e02 2a3d 5100 8e3f
000003a0: 17b6 573d dd20 0b3f ae79 31bf ecd5 6c3f
000003b0: 1954 9f3f 4d96 b83e 63ad 613e 4531 ce3e
000003c0: 7745 80bb e68b 063f 53f2 1fbc 894c 73bf
000003d0: 2ed6 94bb edb6 d23e f927 10bf ffe0 a83d
000003e0: 5e79 33bf 8b1d bb3e c67a a4bc 3bcb 673d
000003f0: 3e9a a63e e960 a93e f6d8 923e 1383 bd3f

network.4.bias f4 [6]
0.43894506 0.24541557 0.3894951 -0.1032256 0.033751465 0.019402597
00000000: 68bd e03e 384e 7b3e e76b c73e f267 d3bd
00000010: fa3e 0a3d 32f2 9e3c

network.0.weight f4 [128, 12]
0.1807998 0.1492745 -0.41884366 0.4101022 -0.31454295 0.44340175 -0.10722971 0.45648828
0.14877392 -0.37802374 0.06051779 -0.534168 0.29518595 -0.6286727 0.12732138 -0.2917475
-0.4731571 0.55102134 -0.16682975 0.47153756 -0.10748057 0.16575563 0.27433684 -0.26963955
-0.25522995 -0.060615767 0.03708174 -0.07117288 -0.14723505 -0.26704392 0.04982355 -0.19646333
0.10721081 0.22120063 -0.17545289 -0.20175545 -0.101718485 0.29170653 -0.4368902 -2.4265065
-0.26758862 0.046206076 -0.05228856 0.30173534 -0.18102734 -0.12927882 0.13519481 0.40552104
0.088767946 0.2615993 0.005998006 0.27329037 0.1244568 0.0064601693 0.05510494 -0.24832214
0.018750513 -0.22156279 -0.13063468 -0.14785992 -0.48496094 -0.32018465 -0.00085072836 2.430663
0.47526157 0.17968841 0.10858678 -0.28591844 0.10470787 0.7191835 -0.06972093 0.47533983
-0.8103033 -0.92258364 0.9221143 0.3190153 2.370643 -0.32178155 0.46316332 -0.12848215
-0.11577333 -0.4312392 -0.33136857 -0.57250625 -0.08747301 0.08119388 -1.063738 0.15794277
-0.77557427 -0.2580816 -0.32633376 0.39590886 -0.16657147 0.02791996 -0.49245057 -0.930019
0.18570295 -0.027193205 0.4999491 -1.0292361 -0.4138799 -0.28760815 -0.3282033 0.20707442
0.1096282 -0.26919055 0.2360409 -0.30432516 -0.67451036 -0.47292715 0.041809674 -2.6185546
-0.8741441 -0.10242887 0.41413593 0.2518712 0.13681741 -0.8522448 0.14986677 -0.35058343
0.062081266 -0.035691552 0.30956462 -0.24751037 -0.7559565 -0.30083302 -0.05864749 0.009627981
0.2833254 -0.4591256 -0.19499822 -0.4943369 0.634403 0.48717684 0.6973559 -0.7512195
-0.3380662 0.041773565 -0.41814357 0.15094419 0.20624866 0.18700874 0.06871536 -0.41094902
-0.17248216 1.1460882 0.2841558 -1.7180579 -0.6160902 -0.1784561 -0.27647802 -0.5389637
0.2497992 0.10734332 0.48312828 0.27358222 -0.09454757 -0.17446226 -0.040618546 0.23240094
-0.20289324 -0.13777694 -0.1355111 -0.15400314 -0.20068525 -0.14431654 -0.2553987 0.24677622
0.9493607 0.53936076 0.13830768 -1.9637252 0.893908 -0.027835622 -0.925047 -0.86719215
0.08903888 0.30748096 -0.6117402 0.40399614 -0.4968455 0.012182353 -0.33419937 1.4005919
-0.09661499 -0.059894998 0.33210894 0.49626824 -0.041506775 -0.2243454 -0.27118918 -0.23863666
1.496881 -0.19858314 -0.55096084 -1.5018176 -0.4906012 0.40260002 -1.0515916 0.11516265
0.08823541 0.654768 -1.0264767 0.085071936 0.423143 -0.49837226 -0.44138262 -0.30929357
0.13179025 0.4157694 -0.36564165 0.50195056 0.17301527 -0.20083192 0.16105919 -0.035814572
-0.34259748 -0.2714341 -0.41926748 -6.1821103 -0.14437108 0.064018555 0.5644032 0.2721523
-0.2789497 -0.09541843 -0.23100694 -0.16203184 0.045141768 0.12606934 -0.2832978 0.07806866
0.02359608 -0.2667978 0.2180634 0.073733665 0.048371915 -0.008947466 0.029755259 -0.10723866
0.18258105 0.09879421 0.021955201 -0.002945388 0.17905332 -0.13212179 0.15108226 -0.23536856
0.0154567305 -0.12572174 -0.046620063 0.07266842 -0.0900019 0.38594797 -0.31256288 3.7370765
00000000: 9523 393e 6adb 183e ad72 d6be eaf8 d13e
00000010: c60b a1be 8e05 e33e 409b dbbd d5b8 e93e
00000020: 3158 183e 548c c1be 81e1 773d 3cbf 08bf
00000030: 9d22 973e b2f0 20bf 8960 023e ee5f 95be
00000040: a641 f2be bc0f 0d3f 6bd5 2abe 5f6d f13e
00000050: c61e dcbd d8bb 293e e175 8c3e 320e 8abe
00000060: 80ad 82be 3d48 78bd 06e3 173d 16c3 91bd
00000070: c9c4 16be fbb9 88be c713 4c3d af2d 49be
00000080: 5791 db3d 6b82 623e eca9 33be fb98 4ebe
00000090: c851 d0bd 8f5a 953e 13b0 dfbe e24b 1bc0
000000a0: 6001 89be 9542 3d3d 872c 56bd 0e7d 9a3e
000000b0: 3b5f 39be ab61 04be 8270 0a3e 74a0 cf3e
000000c0: f8cb b53d 58f0 853e ec8a c43b b7ec 8b3e
000000d0: 35e3 fe3d d4af d33b b8b5 613d 2948 7ebe
000000e0: ad9a 993c 5be1 62be 19c5 05be 9768 17be
000000f0: cd4c f8be 3eef a3be 6a03 5fba fc8f 1b40
00000100: 7c55 f33e 3d00 383e bf62 de3d e763 92be
00000110: 1471 d63d 691c 383f d9c9 8ebd be5f f33e
00000120: 0970 4fbf 712e 6cbf af0f 6c3f f955 a33e
00000130: 9db8 1740 8dc0 a4be be23 ed3e d390 03be
00000140: 911a edbd 62cb dcbe 24a9 a9be c58f 12bf
00000150: 0d25 b3bd fa48 a63d 9128 88bf c0bb 213e
00000160: 098c 46bf 4523 84be 3815 a7be 91b4 ca3e
00000170: b691 2abe 66b8 e43c 7b22 fcbe ba15 6ebf
00000180: ea28 3e3e 49c4 debc 54f9 ff3e 02be 83bf
00000190: 11e8 d3be 6041 93be 430a a8be 510b 543e
000001a0: c084 e03d 58d3 89be b5b4 713e 82d0 9bbe
000001b0: b6ac 2cbf 8223 f2be 9f40 2b3d 6696 27c0
000001c0: e8c7 5fbf 3ac6 d1bd a009 d43e 43f5 803e
000001d0: dd19 0c3e b72c 5abf ad76 193e ac7f b3be
000001e0: ed48 7e3d 4e31 12bd 417f 9e3e 5c73 7dbe
000001f0: 5d86 41bf c906 9abe 5a38 70bd aebe 1d3c
00000200: 0710 913e 8312 ebbe 9dad 47be ba19 fdbe
00000210: 3c68 223f 3e6f f93e eb85 323f ec4f 40bf
00000220: 0317 adbe c21a 2b3d ea16 d6be 1d91 1a3e
00000230: d932 533e 387f 3f3e a3ba 8c3d e967 d2be
00000240: 2a9f 30be 05b3 923f de7c 913e 52e9 dbbf
00000250: 16b8 1dbf 32bd 36be 878e 8dbe 86f9 09bf
00000260: 5dcb 7f3e d1d6 db3d 975c f73e f812 8c3e
00000270: 28a2 c1bd 3ca6 32be a25f 26bd 83fa 6d3e
00000280: 3fc3 4fbe 6615 0dbe 6cc3 0abe 00b3 1dbe
00000290: 6f80 4dbe b7c7 13be 9ec3 82be e8b2 7c3e
000002a0: 4e09 733f 8c13 0a3f 87a0 0d3e 595b fbbf
000002b0: 28d7 643f 8807 e4bc e1cf 6cbf 4e00 5ebf
000002c0: 045a b63d 256e 9d3e 019b 1cbf 95d8 ce3e
000002d0: 8962 febe 7e98 473c 2e1c abbe 9846 b33f
000002e0: 14de c5bd 7554 75bd 2f0a aa3e df16 fe3e
000002f0: 0203 2abd cdba 65be 4fd9 8abe 2b5d 74be
00000300: cc99 bf3f 6159 4bbe c50b 0dbf 8f3b c0bf
00000310: 1530 fbbe 9721 ce3e 8e9a 86bf 65da eb3d
00000320: c4b4 b43d e09e 273f 9763 83bf 323a ae3d
00000330: 33a6 d83e a62a ffbe e7fc e1be ba5b 9ebe
00000340: 06f4 063e badf d43e 6235 bbbe d57f 003f
00000350: ea2a 313e e2a6 4dbe b3ec 243e 4db2 12bd
00000360: f068 afbe 69f9 8abe 3aaa d6be d9d3 c5c0
00000370: 03d6 13be 291c 833d ba7c 103f 8c57 8b3e
00000380: 7fd2 8ebe bd6a c3bd 158d 6cbe adeb 25be
00000390: 93e6 383d 5218 013e 690c 91be 76e2 9f3d
000003a0: 914c c13c b999 88be 034c 5f3e ad01 973d
000003b0: a121 463d 6498 12bc 4dc1 f33c f19f dbbd
000003c0: 87f6 3a3e 9e54 ca3d 65db b33c 6907 41bb
000003d0: c159 373e ef4a 07be 4fb5 1a3e 7504 71be
000003e0: 3a3e 7d3c 33bd 00be aef4 3ebd 2ed3 943d
000003f0: eb52 b8bd f99a c53e 3e08 a0be 432c 6f40

network.0.bias f4 [128]
0.39719445 0.24791476 -0.2793733 0.11057532 -0.106532745 -0.13884676 -1.1956486 0.4607315
0.5513102 -0.11522657 0.5083466 0.12994525 -0.03833061 -0.1612608 -0.98685116 0.66661215
0.080712944 0.3121964 0.13733093 0.014506772 -0.069601074 0.07327876 -0.11148379 0.3445946
-0.17334081 0.24957617 0.12298145 0.28243324 0.3584373 0.3363663 0.6122326 -0.31933087
0.3186198 0.30808836 0.36019233 0.42660707 0.63232297 0.49436453 0.107721716 0.5004437
-0.63844097 0.52087843 0.36159906 -0.28197297 0.111493565 0.5915742 0.2994482 -0.26884443
0.2198518 -0.18056996 -0.9566126 0.52584076 0.09926731 0.1968244 -0.032936875 0.06070553
0.32944253 -0.20551987 0.11173053 0.33068976 0.45806122 -0.17631021 0.30826175 0.004508534
0.42865896 -0.18411513 -0.05689103 -0.05997018 -0.038860917 -0.2713509 0.27729264 0.4210141
-0.08446659 0.20212685 0.6872919 0.48414254 -0.04866109 0.19113472 -0.26976505 0.40556532
0.35460457 0.3344445 -0.82525647 0.36984178 -0.39197326 -1.0699524 -0.06328181 0.24186826
-0.48320994 0.30031788 -0.3708887 -0.29282203 -0.06803103 0.19364914 0.30396473 0.07911863
0.48255426 -0.26198572 -0.009468045 0.49253073 0.517894 0.45755827 0.3450039 -0.41039804
0.3149088 0.3967756 0.13035953 0.5373624 -0.91319627 0.07559607 0.3668692 0.46722227
-0.10505987 0.32054827 0.6226001 0.5719454 0.41638058 0.34085038 -0.0015059477 0.334724
0.329417 0.5686465 -0.1617626 0.49015704 -0.25725928 0.43484363 0.5987246 -0.28664672
00000000: 125d cb3e 5edd 7d3e 040a 8fbe 5075 e23d
00000010: d72d dabd d82d 0ebe 030b 99bf 00e5 eb3e
00000020: aa22 0d3f e8fb ebbd 0123 023f 5e10 053e
00000030: 8f00 1dbd 8d21 25be 47a2 7cbf 18a7 2a3f
00000040: d44c a53d 35d8 9f3e 7ba0 0c3e d0ad 6d3c
00000050: 028b 8ebd 2d13 963d 9d51 e4bd b46e b03e
00000060: 4180 31be e590 7f3e b3dd fb3d 179b 903e
00000070: 1885 b73e 3438 ac3e 47bb 1c3f 567f a3be
00000080: 2222 a33e c2bd 9d3e 216b b83e 3e6c da3e
00000090: ebdf 213f 591d fd3e 349d dc3d 141d 003f
000000a0: de70 23bf 4a58 053f 8323 b93e c35e 90be
000000b0: bd56 e43d 6871 173f 4651 993e faa5 89be
000000c0: d520 613e 55e7 38be 90e4 74bf 809d 063f
000000d0: a94c cb3d 568c 493e d1e8 06bd 5da6 783d
000000e0: b1ac a83e cd73 52be fad2 e43d 2b50 a93e
000000f0: 0087 ea3e aa8a 34be 7cd4 9d3e 53bc 933b
00000100: 3079 db3e ad88 3cbe 9206 69bd 4ba3 75bd
00000110: a02c 1fbd 81ee 8abe 4df9 8d3e 298f d73e
00000120: d2fc acbd 57fa 4e3e 5df2 2f3f 88e1 f73e
00000130: da50 47bd d2b8 433e a51e 8abe 42a6 cf3e
00000140: bb8e b53e 4f3c ab3e 0244 53bf e75b bd3e
00000150: b8b0 c8be 33f4 88bf e599 81bd 50ac 773e
00000160: 4b67 f7be 44c3 993e 20e5 bdbe c5ec 95be
00000170: da53 8bbd f64b 463e 44a1 9b3e f308 a23d
00000180: 5a11 f73e fe22 86be dc1f 1bbc fd2c fc3e
00000190: b494 043f 1445 ea3e 5aa4 b03e b11f d2be
000001a0: ba3b a13e 2c26 cb3e f87c 053e 9590 093f
000001b0: 3bc7 69bf 1dd2 9a3d 48d6 bb3e c237 ef3e
000001c0: a129 d7bd e71e a43e b862 1f3f 046b 123f
000001d0: d62f d53e f183 ae3e 3863 c5ba f260 ab3e
000001e0: 58a9 a83e d192 113f 18a5 25be ddf5 fa3e
000001f0: 7db7 83be d3a3 de3e 0446 193f 5cc3 92be

network.2.weight f4 [128, 128]
0.15295415 0.71554923 0.07564048 0.32898584 -0.023391364 -0.029143622 -4.5222297 -0.31695908
0.2741294 -0.23405503 -0.13390997 0.61233854 0.6467454 0.027888274 -0.08464719 -0.052729335
-0.2536621 0.52382535 -0.6739191 -0.0652297 0.023727527 -0.2478202 0.1828813 -0.27817452
-0.046463635 0.45979658 -0.092108466 0.4643749 -0.27449033 -0.19027358 0.09878139 -0.61047024
-0.19860668 0.03503387 -0.26117578 -0.26002157 0.30704093 -0.5489436 0.4695302 0.25417975
-0.18828131 -0.123220585 -0.46108758 -0.7275153 -0.038502865 0.23513626 -0.13662957 -0.080640435
-2.0549006 -0.0010053919 -3.168556 -0.3000969 -0.2886757 0.07953302 0.17511858 0.45404854
-0.35963276 0.0077492036 0.30616224 0.124801524 -0.23599516 -0.04338506 -0.6199633 -0.28101194
-0.10224269 -0.08453459 0.54571456 -0.036036514 0.0862303 0.040417563 -0.17983404 0.14099532
-0.029247552 0.43069136 0.5015149 -0.28961828 0.88894266 0.5287706 0.07596554 -0.3036919
0.47179285 0.12022743 -0.07429523 -0.27925768 -0.44559845 -0.7243114 0.06918694 -0.6504468
0.13403921 -0.0927309 -1.1596661 -0.045977257 0.07594311 -0.23185998 -0.11321462 -0.47299096
-0.12914546 0.019838879 0.025621373 -0.30690086 -0.39765435 0.032113843 0.07387901 -0.31703
0.39677566 -0.17397618 -0.442081 -0.1544196 0.5877545 -0.45672348 -0.06236402 -0.6472047
-0.4915594 0.25840828 0.07069618 0.6425126 0.030803178 0.08656326 0.4440924 -0.40372106
0.13358673 0.4792403 0.054170173 -0.08294429 0.021034133 -0.30705342 -0.05716736 -0.008334455
0.3389514 0.41326225 0.03120286 0.3493215 -0.043891896 -0.5289849 -1.2075387 -0.48422036
0.09855704 0.29756805 0.0066958964 0.18366094 0.47499198 -0.084371485 -2.6711135 0.28803724
-0.90965825 0.340368 -0.7245592 0.065482974 0.017843964 0.08660553 -0.19982032 0.12732056
-0.055194385 0.18256605 -0.24228062 0.5952166 0.053677447 0.11000298 0.24345462 0.37935328
-0.054150853 0.1530936 0.06422942 -0.06728087 0.038966414 -0.28607503 0.29762465 -0.07170042
-2.4272826 -0.028012685 0.26986837 -0.37006667 -0.14794624 0.10450984 -0.15452209 0.07719304
1.3396626 0.014769172 -2.4860752 0.11210069 0.2782204 0.69870657 -0.30872685 0.05224381
0.24328415 -0.012654264 0.78437966 0.11895919 0.076219745 0.021774653 0.19986202 -0.044283148
0.17427789 0.04187149 0.094333164 -0.05161829 0.0558812 0.03765056 0.0121217705 0.06805256
-0.0054798173 0.14111038 0.509989 0.06153729 1.0687983 0.30898732 0.06805815 -0.0919091
0.5321281 0.05261278 -0.69495106 0.031905353 -0.5610753 0.093003996 -0.5209518 -0.46254182
0.13354851 0.11053449 0.10540681 0.048665386 0.03686075 -0.30901432 -0.112978 -0.29483968
0.1743866 -0.08631864 -0.017898168 0.00925458 -0.088409536 0.12725845 0.27464205 0.054281276
0.17231217 0.078937605 0.79212964 0.032130696 -4.6657553 -0.37258115 0.24000233 -0.25619254
0.6057735 -0.12865764 0.1654702 1.0074766 -0.0086622685 0.5044073 0.14517745 0.11278739
-0.00847465 0.6941506 -0.06975047 0.0838139 -0.042524062 -0.4595329 0.25079918 -0.008274321
00000000: 03a0 1c3e 3c2e 373f 65e9 9a3d d570 a83e
00000010: 3f9f bfbc 9bbe eebc 1bb6 90c0 7648 a2be
00000020: b05a 8c3e 1fac 6fbe b21f 09be 38c2 1c3f
00000030: 1b91 253f f375 e43c 825b adbd b7fa 57bd
00000040: 00e0 81be 6b19 063f f685 2cbf 2697 85bd
00000050: 3b60 c23c 94c4 7dbe 3c45 3b3e e46c 8ebe
00000060: a750 3ebd 756a eb3e 5da3 bcbd 8cc2 ed3e
00000070: ff89 8cbe 14d7 42be e64d ca3d c747 1cbf
00000080: 8d5f 4bbe ad7f 0f3d d5b8 85be 8c21 85be
00000090: 7834 9d3e 9187 0cbf 4366 f03e d923 823e
000000a0: d1cc 40be 135b fcbd ac13 ecbe 713e 3abf
000000b0: 2eb5 1dbd 8fc7 703e 9fe8 0bbe d026 a5bd
000000c0: 7e83 03c0 5bc7 83ba 9fc9 4ac0 4da6 99be
000000d0: 4dcd 93be 35e2 a23d 4952 333e 0d79 e83e
000000e0: c921 b8be 08ed fd3b 4cc1 9c3e f197 ff3d
000000f0: b7a8 71be 88b4 31bd eab5 1ebf cce0 8fbe
00000100: 9e64 d1bd 7920 adbd f3b3 0b3f 069b 13bd
00000110: 8399 b03d e38c 253d 6a26 38be 1461 103e
00000120: 9098 efbc 9483 dc3e 4863 003f d948 94be
00000130: bf91 633f 835d 073f d293 9b3d 817d 9bbe
00000140: d58e f13e cc39 f63d 1928 98bd ddfa 8ebe
00000150: 7b25 e4be 796c 39bf e2b1 8d3d ae83 26bf
00000160: 9341 093e b3e9 bdbd f06f 94bf a652 3cbd
00000170: 1088 9b3d b46c 6dbe 11dd e7bd df2b f2be
00000180: b53e 04be 2585 a23c eae3 d13c 1c22 9dbe
00000190: 5a99 cbbe ce89 033d e14d 973d c251 a2be
000001a0: 2e26 cb3e d026 32be 7158 e2be 2c20 1ebe
000001b0: 1477 163f a9d7 e9be 6a71 7fbd 35af 25bf
000001c0: acad fbbe 174e 843e 29c9 903d b57b 243f
000001d0: f256 fc3c 1448 b13d 1460 e33e 87b4 cebe
000001e0: f6ca 083e fc5e f53e 8be1 5d3d b2de a9bd
000001f0: c64f ac3c 1b36 9dbe 5228 6abd 3d8d 08bc
00000200: 0a8b ad3e 1c97 d33e 249d ff3c 45da b23e
00000210: fdc7 33bd 8e6b 07bf a190 9abf bbeb f7be
00000220: 46d8 c93d d75a 983e 4069 db3b 9d11 3c3e
00000230: 2632 f33e f5ca acbd 86f3 2ac0 9e79 933e
00000240: 5ddf 68bf b744 ae3e b67c 39bf f01b 863d
00000250: 812d 923c 3d5e b13d b39d 4cbe 5260 023e
00000260: 8213 62bd 98f2 3a3e 6918 78be 1d60 183f
00000270: e2dc 5b3d 3e49 e13d 2b4c 793e 983a c23e
00000280: 49cd 5dbd 92c4 1c3e b78a 833d 8eca 89bd
00000290: 3f9b 1f3d 6d78 92be 4262 983e abd7 92bd
000002a0: 9958 1bc0 dc7a e5bc 302c 8a3e 6179 bdbe
000002b0: 387f 17be 4109 d63d 0a3b 1ebe 6217 9e3d
000002c0: 107a ab3f 66fa 713c db1b 1fc0 0c95 e53d
000002d0: e772 8e3e 6fde 323f 7211 9ebe 9bfd 553d
000002e0: 7b1f 793e d553 4fbc 1bcd 483f e0a0 f33d
000002f0: 1919 9c3d c260 b23c a1a8 4c3e 3f62 35bd
00000300: e775 323e 7181 2b3d bf31 c13d b36d 53bd
00000310: afe3 643d 7937 1a3d 649a 463c 245f 8b3d
00000320: 0a90 b3bb 3d7f 103e a48e 023f 870e 7c3d
00000330: 62ce 883f 9633 9e3e 1262 8b3d d73a bcbd
00000340: 8c39 083f 8080 573d 50e8 31bf 30af 023d
00000350: a2a2 0fbf e178 be3d 195d 05bf 48d2 ecbe
00000360: f1c0 083e e85f e23d 87df d73d 5b55 473d
00000370: 4cfb 163d 2037 9ebe 0261 e7bd 3af5 96be
00000380: 6792 323e d4c7 b0bd 2e9f 92bc 86a0 173c
00000390: 0f10 b5bd 0a50 023e e29d 8c3e 0b56 5e3d
000003a0: 9a72 303e 0aaa a13d 02c9 4a3f 7a9b 033d
000003b0: de4d 95c0 f5c2 bebe 2cc3 753e ab2b 83be
000003c0: f913 1b3f d4be 03be 0571 293e fef4 803f
000003d0: 30ec 0dbc d620 013f 66a9 143e 13fd e63d
000003e0: 42d9 0abc dbb3 313f 56d9 8ebd 9fa6 ab3d
000003f0: b62d 2ebd e547 ebbe c068 803e 0591 07bc

network.2.bias f4 [128]
0.22295156 0.1621936 0.031937607 -0.10235003 0.30255198 0.0077635185 0.3270938 -0.052274346
0.1439176 0.17338316 0.32653007 0.32309362 0.03478285 0.22171952 0.42382008 0.06279308
0.20736547 -0.08568843 -0.043508694 0.0024158184 -0.017812125 -0.11279129 -0.11136828 0.3435428
0.3220193 0.39929786 -0.068096496 0.014350786 0.34523335 0.46549737 -0.037422996 -0.12891325
0.29998237 -0.043161996 0.12385612 0.27190024 -0.029214876 0.2818583 0.19023964 0.36423597
0.28994176 -0.059950616 -0.044399824 0.2113483 0.050351225 0.0011364246 -0.24436827 0.18699096
0.10038557 -0.06473295 -0.16428788 -0.0624886 0.40324965 0.31971496 0.28637403 0.1884774
-0.12029758 0.05052994 0.03585418 0.17688574 -0.072376445 0.3166085 0.2382969 0.28249967
-0.10668882 0.01770391 0.016530797 0.24402507 0.010366421 -0.015871646 -0.31236556 -0.08031145
-0.08179641 0.2915233 0.103537634 0.001856876 0.07146769 0.2976554 -0.10334915 0.03518985
0.00040855454 0.09653323 -0.08162991 -0.019710261 0.44810185 -0.19510867 0.17681237 0.08247317
0.54779017 0.24429265 -0.121253625 -0.0036570027 0.038559362 -0.0534076 -0.10873542 0.054496124
-0.42927137 0.28364092 0.024496904 -0.37758335 -0.09354178 0.36047074 -0.0897137 0.4141288
-0.08834211 0.31557003 -0.082172215 0.31455323 -0.4238324 0.35391718 0.4063514 0.29441255
-0.09176282 0.11232578 -0.07455736 -0.21455435 -0.085196435 0.28865886 -0.20065 0.039504614
-0.05357292 0.44662213 0.0035282965 -0.034407802 0.18019025 0.17138515 0.10745676 0.08746855
00000000: 6a4d 643e 1416 263e 02d1 023d e49c d1bd
00000010: 18e8 9a3e 1d65 fe3b d778 a73e a01d 56bd
00000020: 235f 133e 5b8b 313e f32e a73e 876c a53e
00000030: 7678 0e3d 710a 633e f2fe d83e a999 803d
00000040: 9d57 543e 6a7d afbd 2c36 32bd b552 1e3b
00000050: bcea 91bc 1fff e6bd 0e15 e4bd d8e4 af3e
00000060: b7df a43e c570 cc3e 2d76 8bbd 8f1f 6b3c
00000070: 6dc2 b03e ac55 ee3e db48 19bd d601 04be
00000080: 4a97 993e a2ca 30bd 47a8 fd3d 8236 8b3e
00000090: 0954 efbc bb4f 903e 2ece 423e 237d ba3e
000000a0: 3f73 943e c78e 75bd 97dc 35bd b06b 583e
000000b0: 163d 4e3d 15f4 943a ad3b 7abe 8f7a 3f3e
000000c0: f396 cd3d b592 84bd 153b 28be 0cf4 7fbd
000000d0: bd76 ce3e aeb1 a33e 9e9f 923e 3800 413e
000000e0: 945e f6bd 7bf8 4e3d d5db 123d 8921 353e
000000f0: 1a3a 94bd 821a a23e 1a04 743e cca3 903e
00000100: ab7f dabd ca07 913c 986b 873c b5e1 793e
00000110: ecd7 293c 4105 82bc 61ee 9fbe 547a a4bd
00000120: e084 a7bd 8b42 953e 8a0b d43d 6b62 f33a
00000130: a75d 923d 4a66 983e b8a8 d3bd 3b23 103d
00000140: 4333 d639 37b3 c53d 952d a7bd 6a77 a1bc
00000150: 9b6d e53e 91ca 47be 4d0e 353e b1e7 a83d
00000160: fa3b 0c3f da27 7a3e d253 f8bd 53aa 6fbb
00000170: 6cf0 1d3d edc1 5abd adb0 debd 5437 5f3d
00000180: 75c9 dbbe 6239 913e bbad c83c 9b52 c1be
00000190: d592 bfbd 9f8f b83e d1bb b7bd b108 d43e
000001a0: b5ec b4bd 6592 a13e e849 a8bd 1f0d a13e
000001b0: 8f00 d9be a234 b53e 4a0d d03e 3ebd 963e
000001c0: 25ee bbbd 0f0b e63d 87b1 98bd 23b4 5bbe
000001d0: 787b aebd 18cb 933e 3277 4dbe 97cf 213d
000001e0: 476f 5bbd a8ab e43e fe3a 673b 32ef 0cbd
000001f0: cb83 383e 977f 2f3e 4a12 dc3d b622 b33d

network.4.weight f4 [6, 128]
0.838908 0.94971466 -0.021819348 0.09118785 0.5702133 -0.057931297 0.44814205 0.056875084
0.85166574 0.51127976 0.2696686 0.5890784 0.009925268 0.85820854 0.5887627 -0.0072379834
-0.019377628 -0.0044346494 0.030472843 0.098810434 -0.062895164 0.04954561 -0.027231608 0.39578655
0.07650146 0.49985942 -0.053056758 -0.07061951 0.71886694 0.60034513 -0.0003234349 -0.0613748
0.5219046 -0.0024637887 0.63552386 -0.118991815 0.013824707 -0.21382782 1.014896 0.7000209
0.72047985 -0.03932483 0.06826884 -0.2459522 0.056741383 -0.6706351 0.21433653 0.47048146
-0.63140184 0.07556842 -0.6141897 0.03404225 0.6799074 0.62669265 0.46967298 0.68277526
0.027052443 0.015987575 0.082566015 0.536775 -0.08199159 -0.0146299265 -0.34518087 0.45420158
0.048415836 0.043036446 -1.6399591 -0.5644994 1.1635064 0.06379523 -0.11748172 0.019514054
0.023896283 0.33118963 0.6539315 -0.0569495 -0.2226026 -0.5267146 -0.004595293 -0.05321073
-0.06037192 0.1474927 0.10015592 0.09769225 0.56991416 0.527646 0.8529689 1.1197476
0.6364609 0.66468596 -0.017333336 0.034804318 0.09136522 0.06216549 -0.010815333 -0.065313525
-0.15503307 0.45765164 0.029622348 -1.5189683 0.12966388 0.87062746 0.026860934 0.59752303
0.06526689 -0.50029564 -1.3125817 1.0615792 -0.0061368933 0.18901753 0.33501875 0.031397097
0.06395587 -0.48153868 -0.017853495 -1.7623419 0.029399648 0.27894825 1.274239 -0.03702176
0.17654252 0.79899067 -0.08588587 -0.0007557525 0.85757065 -0.9265132 0.96407604 0.5069549
0.78209186 0.41659698 -0.027428027 -0.0031101338 0.34180757 0.084547706 -0.064308956 -0.071056016
0.28994054 0.26519695 0.32325485 0.36306947 0.03696111 0.323622 0.066812366 0.01629328
-0.60207987 -0.044042107 -0.049122438 -0.0052469345 0.07236617 0.08587148 -0.04550019 0.19772226
0.37113023 0.24897091 -0.04864269 0.79799 0.0652754 0.03993717 0.0141266715 0.029901562
0.47961742 0.032421254 0.46542987 -0.12613893 -0.038850896 0.54754525 0.43003312 0.16250633
0.42786407 -0.035168853 -0.05665804 0.66314834 -0.00012501575 0.5648602 1.3323059 0.37199286
-0.56598854 -0.041760743 -0.88226783 -0.032976925 0.9496971 0.25684127 0.33304477 0.716857
0.058848746 -0.0037164579 0.06952512 0.18486488 0.029709091 0.43882793 0.3921659 0.24680723
-0.089980036 -0.019833816 0.83342034 0.53146684 0.86605906 0.037330046 -0.8215927 0.018164312
-0.07762634 0.36896765 0.4528621 0.01621369 1.2163118 0.25855827 -0.0060885265 0.0039947308
0.055959433 0.3534227 -0.07511916 -0.027157545 0.10089646 0.518225 0.53951716 0.8668339
0.19962457 0.44025573 0.034235828 0.004774214 -0.37540662 0.018562587 -0.019035568 -0.06841362
-0.25293943 0.01950186 0.022479601 -1.1520787 -0.08180408 0.4265001 0.041506164 1.1090933
0.05266389 0.54284793 -0.69135153 0.92433655 1.2427647 0.3604046 0.22031602 0.40215513
-0.003914531 0.5240018 -0.009762364 -0.94776106 -0.004542134 0.41135535 -0.55931884 0.082460396
-0.6995497 0.36541763 -0.020078074 0.0565903 0.32581216 0.33104712 0.28619316 1.4778681
00000000: adc2 563f 8020 733f 7dbe b2bc b2c0 ba3d
00000010: 80f9 113f 5e49 6dbd e072 e53e d9f5 683d
00000020: c406 5a3f 3be3 023f 0112 8a3e d8cd 163f
00000030: 979d 223c 8eb3 5b3f 27b9 163f 9b2c edbb
00000040: d5bd 9ebc 8950 91bb 2fa2 f93c 205d ca3d
00000050: 2ecf 80bd 56f0 4a3d d214 dfbc 89a4 ca3e
00000060: ccac 9c3d 93ed ff3e 0b52 59bd f6a0 90bd
00000070: aa07 383f 38b0 193f b392 a9b9 2464 7bbd
00000080: 8a9b 053f 8477 21bb b1b1 223f fbb1 f3bd
00000090: 0681 623c aef5 5abe 1de8 813f 9234 333f
000000a0: 5e71 383f 1313 21bd 89d0 8b3d e5da 7bbe
000000b0: a769 683d beae 2bbf 097b 5b3e f2e2 f03e
000000c0: 8da3 21bf 9ec3 9a3d 893b 1dbf e36f 0b3d
000000d0: 690e 2e3f ee6e 203f fa78 f03e 5cca 2e3f
000000e0: 169d dd3c 60f8 823c 5f18 a93d 166a 093f
000000f0: 35eb a7bd 5cb2 6fbc 8cbb b0be 1c8d e83e
00000100: af4f 463d fc46 303d 2eea d1bf 0883 10bf
00000110: c7ed 943f 13a7 823d 429a f0bd f0db 9f3c
00000120: 23c2 c33c b091 a93e 0e68 273f e143 69bd
00000130: f0f1 63be c5d6 06bf 1d94 96bb 7ff3 59bd
00000140: 8c48 77bd 5408 173e 8c1e cd3d e012 c83d
00000150: e5e5 113f cf13 073f 2b5c 5a3f e453 8f3f
00000160: 1aef 223f dc28 2a3f a4fe 8dbc f98e 0e3d
00000170: b01d bb3d 3ea1 7e3d cb32 31bc 19c3 85bd
00000180: fdc0 1ebe 5151 ea3e 91aa f23c 8e6d c2bf
00000190: 9cc6 043e 71e1 5e3f 760b dc3c 45f7 183f
000001a0: a6aa 853d 6013 00bf ad02 a8bf d4e1 873f
000001b0: fe17 c9bb d08d 413e 9487 ab3e 3e9a 003d
000001c0: 4cfb 823d 3d8c f6be 7e41 92bc 6b94 e1bf
000001d0: 88d7 f03c 4ed2 8e3e 431a a33f 21a4 17bd
000001e0: 90c7 343e a78a 4c3f eee4 afbd b11d 46ba
000001f0: c089 5b3f f82f 6dbf b0cd 763f ccc7 013f
00000200: 2c37 483f 334c d53e beb0 e0bc 63d3 4bbb
00000210: 6701 af3e 5927 ad3d 6ab4 83bd d185 91bd
00000220: 1673 943e e5c7 873e a981 a53e 3ee4 b93e
00000230: 8864 173d c8b1 a53e ecd4 883d 7c79 853c
00000240: e821 1abf 7f65 34bd 9c34 49bd 7aee abbb
00000250: b734 943d 63dd af3d 685e 3abd b477 4a3e
00000260: c804 be3e 3bf2 7e3e 8f3d 47bd 1349 4c3f
00000270: 1caf 853d 2895 233d 8e73 673c 1ff4 f43c
00000280: 6a90 f53e 26cc 043d d34c ee3e 902a 01be
00000290: 1e22 1fbd ed2b 0c3f 4d2d dc3e 0f68 263e
000002a0: 0011 db3e 370d 10bd 4312 68bd 17c4 293f
000002b0: a916 03b9 ae9a 103f 0089 aa3f d975 be3e
000002c0: a0e4 10bf 500d 2bbd 4edc 61bf d012 07bd
000002d0: 591f 733f b380 833e d884 aa3e f183 373f
000002e0: 620b 713d d18f 73bb 3063 8e3d 384d 3d3e
000002f0: 7b60 f33c 0eae e03e f8c9 c83e 09bb 7c3e
00000300: 7447 b8bd 877a a2bc 095b 553f 360e 083f
00000310: 0cb6 5d3f 64e7 183d e653 52bf 53cd 943c
00000320: 8ffa 9ebd 54e9 bc3e 8bdd e73e 93d2 843c
00000330: 1bb0 9b3f c061 843e 4382 c7bb 3be6 823b
00000340: b835 653d d2f3 b43e 13d8 99bd 8079 debc
00000350: cea2 ce3d 65aa 043f cc1d 0a3f d4e8 5d3f
00000360: 626a 4c3e 3369 e13e de3a 0c3d 0271 9c3b
00000370: 4c35 c0be 9110 983c 7bf0 9bbc 711c 8cbd
00000380: 4781 81be 5dc2 9f3c 2427 b83c 5177 93bf
00000390: e688 a7bd 395e da3e 5e02 2a3d c5f6 8d3f
000003a0: 17b6 573d 15f8 0a3f 6afc 30bf 52a1 6c3f
000003b0: ea12 9f3f f486 b83e 869a 613e 47e7 cd3e
000003c0: 7745 80bb fb24 063f 53f2 1fbc 78a0 72bf
000003d0: 2ed6 94bb 2b9d d23e 852f 0fbf ffe0 a83d
000003e0: b015 33bf 0518 bb3e c67a a4bc 3bcb 673d
000003f0: dad0 a63e 027f a93e e987 923e c82a bd3f

network.4.bias f4 [6]
0.43688092 0.24494672 0.39214253 -0.10410994 0.034387007 0.019402597
00000000: dbae df3e 50d3 7a3e e8c6 c83e 9837 d5bd
00000010: 64d9 0c3d 32f2 9e3c
