modelos_s2/dqn_entorno1.pth (torch, 313341 bytes, 24 tensors)

network.0.weight f4 [128, 12]
000000 03 57 90 3d 60 33 d9 be f4 81 39 c0 02 26 0d bf
       0.07047846 -0.4242201 -2.8985567 -0.5513612
000010 07 3a 9d 3e cc 0c 05 3f 5f fc 72 bc 5e 2d f3 3e
       0.30708334 0.5197265 -0.014830678 0.4749555
000020 a4 02 62 3e fc ff dd 3e 07 6b 2f be 0e 32 4a be
       0.2207132 0.43359363 -0.17130671 -0.19745657
000030 83 52 a3 be 3f 94 30 3f 0d 0d ab be 3c 54 5b 40
       -0.3189889 0.68976206 -0.33408394 3.4270163
000040 c7 50 65 bf 35 6f e1 3e fd c6 de 3e 06 b3 c2 3e
       -0.8957638 0.44030157 0.4351119 0.3802721
000050 8e b0 5c be a3 ef f3 3e 0a 8d 0f bf a6 3e 03 3e
       -0.21551725 0.47643766 -0.56074584 0.12816867
000060 c8 83 29 3f 0b 44 87 bf 6f 32 f3 3f b6 05 d2 bc
       0.6621671 -1.056764 1.8999766 -0.025637489
000070 e1 6e d4 bd 9b 74 00 bc 64 84 03 bf 58 c0 05 3f
       -0.10372711 -0.007840301 -0.5137389 0.5224662
000080 49 e4 46 be ba 40 95 3e 8e 9f 42 3e bf cd 46 bd
       -0.19423021 0.29150945 0.19006178 -0.04853606
000090 41 7e a5 bd a8 85 13 bd c3 b5 04 be 87 3e 28 3e
       -0.08080722 -0.036016136 -0.12959962 0.16430102
0000a0 69 5b a9 3d 55 6a 01 3e 9a f1 a3 bc f2 01 aa 3d
       0.08269388 0.12638219 -0.020012666 0.08301152
0000b0 49 75 27 3e 52 35 6a bd eb 25 b3 be 17 42 10 3e
       0.16353334 -0.057179756 -0.34989867 0.14087711
0000c0 42 65 1e be 7d 2e dd 3d cd 16 c4 bd 88 55 c1 bd
       -0.15468314 0.107998826 -0.095746614 -0.09440142
0000d0 20 c8 88 be 44 9b 40 3e c6 e3 8c be d9 34 e4 3c
       -0.26715183 0.18809229 -0.27517527 0.027857231
0000e0 29 32 1d 3e 02 63 f2 bb 6a eb cc bd 66 7d d2 bc
       0.15351166 -0.0073970566 -0.10005839 -0.02569456
0000f0 83 44 cb 3f 3a 07 d2 3e ec fe 66 bf 92 2e dc 3f
       1.5880283 0.41021138 -0.9023273 1.7201712
000100 2b dd 4b 3f 38 12 8a bd 1f ad 9c bf 17 d0 9c 3e
       0.7963435 -0.06741756 -1.2240332 0.3062751
000110 cd 16 f6 3d 0b 71 a8 3e ae d9 ba bf ea 2b 89 3d
       0.12016068 0.32898745 -1.459768 0.06697829
000120 1b 43 0b 3e f1 1d 43 be a4 4f 2e 3d 53 3e 01 be
       0.13599817 -0.1905439 0.04255642 -0.12621431
000130 ee 23 2b 3e 46 8d 9c bd 78 f3 67 3e de a9 2c 3d
       0.16712925 -0.07644133 0.2265147 0.042154185
000140 82 13 84 3c 8e c9 bc bd a0 c2 88 bd 25 9c 06 be
       0.016122583 -0.09218131 -0.06677747 -0.13145502
000150 0c cc 05 be d5 a3 25 3f 10 d2 24 bf a8 a8 0d 40
       -0.13066119 0.6470311 -0.6438303 2.213419
000160 ec 2d 98 be 04 bb 97 bc 30 75 f7 3d b2 03 b4 3e
       -0.29722536 -0.018521793 0.120828986 0.3515907
000170 6c f3 92 bc ca 1f 3b 3e d1 86 45 be 69 2b 09 bf
       -0.017938338 0.18273845 -0.1928971 -0.53581864
000180 57 c7 18 be d0 d1 e3 bd 65 78 4b 3c e8 53 19 3e
       -0.14919792 -0.11124003 0.012418841 0.14973414
000190 d1 c4 0d 3d d2 ce b4 3d 71 55 89 be 62 6f 80 be
       0.034611527 0.0882851 -0.26823 -0.25084978
0001a0 13 ba d0 bd 2a 16 be bd 49 19 8c be f4 5b bd bd
       -0.10191741 -0.09281571 -0.2736304 -0.09246054
0001b0 2c ce ce 3e 62 ea a4 bc 65 12 28 bd 0c 1a 67 3f
       0.40391672 -0.020131294 -0.041033167 0.9027412
0001c0 19 8c 37 3e 7f da dc be 16 29 ea be df 25 82 3f
       0.17924537 -0.4313545 -0.4573447 1.0167807
0001d0 25 77 67 3e f9 ec cf be eb 95 23 be 1e 70 c5 be
       0.22604044 -0.40610483 -0.15975158 -0.385621
0001e0 a6 ed 27 3f 4b 7d a4 3e 2f 95 ab 3f b6 a5 d5 3d
       0.65597 0.3212684 1.3404902 0.104319975
0001f0 32 6b 16 3e f4 c6 a2 bd 46 97 b2 be af f5 ec be
       0.1468933 -0.079481035 -0.34881037 -0.46281192
000200 8a aa 85 be 25 37 c5 3e a7 6a 71 3e 71 65 19 3f
       -0.26106673 0.38518634 0.23575841 0.5992041
000210 6b 4f 57 be ef 83 ef bd f8 98 84 be ae 3f 04 3e
       -0.2102639 -0.11695086 -0.25897956 0.12914917
000220 07 3a 3f 3e 8d e7 f5 bd 52 ba d5 bd 68 f1 10 bd
       0.1867448 -0.120070554 -0.104359284 -0.035386473
000230 6a 77 41 ba f2 72 83 be fa 05 7b bd 3a 22 fe 3c
       -0.000738016 -0.25673634 -0.061284997 0.03102218
000240 9b 37 0c 3d 70 81 ee be 2c 51 b8 bf 70 19 73 c0
       0.034232717 -0.46583128 -1.4399772 -3.7984276
000250 46 35 91 3f f7 52 bf 3b 81 2b 91 be a3 80 5a 3f
       1.1344383 0.0058387476 -0.28353503 0.85352534
000260 6b 6c 72 be 07 42 5b bf e4 4e 7a be f2 07 b4 bf
       -0.2367417 -0.85647625 -0.24444157 -1.4064925
000270 d7 ac 33 3e 20 74 41 3f 8a cf a1 bf 86 7c f3 3e
       0.17546402 0.7556782 -1.2641461 0.4755594
000280 b1 48 e5 be d7 1e 03 3e d5 8f 2c be dc 77 8a 3e
       -0.44782022 0.12804733 -0.16851743 0.2704457
000290 fd db 7d bc 79 d1 77 be df 0a 98 bc 87 ac 4b bf
       -0.015494344 -0.24201001 -0.018559871 -0.7956013
0002a0 05 c9 0b bf 45 da f9 bf f9 9c 15 be 01 06 90 40
       -0.54603606 -1.9519736 -0.14610662 4.500733
0002b0 b8 cd 1d 40 ab 9f 00 3f d4 d4 1a 3f 21 41 30 3f
       2.465681 0.50243634 0.60481 0.6884938
0002c0 68 97 15 be d4 37 4d 3f b3 aa 5c be 19 fe 9f be
       -0.14608538 0.8016331 -0.21549492 -0.3124855
0002d0 01 9d 25 be f3 f4 70 3f 28 47 d1 bf 24 a3 36 bf
       -0.16173173 0.9412376 -1.634984 -0.7134268
0002e0 71 eb 3f bf 05 15 fc 3d e2 bd 82 bd cd 94 5c 3d
       -0.7496863 0.12308697 -0.063838735 0.053852845
0002f0 f4 17 92 be b1 77 6e be cd bc c8 be b1 d5 3e bf
       -0.285339 -0.23287846 -0.39206544 -0.7454482
000300 f8 66 ff 3d f0 88 44 bd ed d9 05 3e 6a b1 b8 bd
       0.124708116 -0.047982156 0.13071413 -0.09018214
000310 92 43 35 be fa 88 e5 bd 2a 17 14 be ed 48 fd bd
       -0.17701557 -0.11207767 -0.14461961 -0.12367425
000320 6f 0e 09 3e d0 96 ca bd 00 f1 0b 3e ed e0 8e bd
       0.13384412 -0.098920465 0.13666153 -0.06976495
000330 9a 68 bb 3d 8c 45 07 3f 4b 2f 7b 3e 3f 8a 10 bd
       0.091508105 0.52840495 0.2452976 -0.03528809
000340 2a 30 da bc 08 95 16 3c 0c 1b af 3e 8f 2e 81 c1
       -0.026634295 0.009190805 0.34200323 -16.147734
000350 e5 49 8e 3e 11 0f 52 3d 33 e9 19 be fa 20 57 3b
       0.27790752 0.0512839 -0.15030365 0.0032826052
000360 2e 4c 22 be ff 8f 4d 3d c9 dc 74 be 9e 55 8c 3e
       -0.15849373 0.050186154 -0.23912348 0.2740907
000370 c1 ca 43 3e 15 11 c6 bd 00 c8 76 3e e8 d7 50 be
       0.19120313 -0.09671227 0.24099731 -0.20394862
000380 82 44 74 be b6 7e 86 be 0c 2a 24 3c 65 ac 82 be
       -0.23854259 -0.26268548 0.01001979 -0.25522152
000390 84 c7 a3 bd 72 c7 da be 3f eb 87 3e c5 30 04 41
       -0.07997039 -0.4273029 0.26546666 8.261907
0003a0 7f 6b 0f 3e 4d f5 13 bd 6c 70 21 be 7a ed 2b 3e
       0.1400585 -0.03612261 -0.15765542 0.16789809
0003b0 c6 42 85 3e f1 e3 b3 bd c6 7d 0d bf ff 5f 80 3d
       0.26027507 -0.08783711 -0.5527004 0.0626831
0003c0 e3 59 26 3d af a4 4e bf 03 58 a3 3f 64 32 45 c0
       0.040613066 -0.8072004 1.2761234 -3.0812006
0003d0 9f dd cd 3e d8 7e bf 3e ab 82 d3 bd 6b 5b 89 3e
       0.40208146 0.37401462 -0.10327657 0.2682756
0003e0 fe 2c 29 3e bf f3 d8 3d d1 68 1e 3f 8e 61 f9 3e
       0.1652107 0.10593366 0.6187869 0.4870724
0003f0 61 39 60 3e 8f 51 b5 3e 84 be ce be 51 1d a6 40
       0.21896888 0.35413787 -0.40379727 5.1910787

network.0.bias f4 [128]
000000 18 b3 eb 3e 70 1b 82 3f 9f 6f e5 3d 7d 3e 80 be
       0.46035075 1.0164623 0.11202931 -0.25047675
000010 cb af 89 be 29 3f 05 3f a3 84 7b be df 1c 84 3f
       -0.26891932 0.520495 -0.24562316 1.0321311
000020 5e b4 c8 bd 9d 87 18 3f ef b6 ee bc 17 2c c5 bd
       -0.09800027 0.5958193 -0.029139964 -0.0962755
000030 4d e0 0f 3f 94 0c 5b 3f 50 52 8e be 2b 09 6a 3f
       0.5620163 0.8556607 -0.27797174 0.9142024
000040 c2 cf 7d be 94 23 15 bf 68 41 51 bd 10 96 57 be
       -0.24786285 -0.5825741 -0.051087767 -0.21053338
000050 c0 2c 0a bf e7 36 cc 3e 83 a0 d0 3e f9 c0 82 3f
       -0.53974533 0.39885637 0.4074746 1.021514
000060 98 ae 27 be ce 6d 98 3f 4e 64 f2 3e c5 a1 2e bf
       -0.16375196 1.190851 0.4734215 -0.6821559
000070 b1 d2 39 3e c0 25 e8 3e b3 0e 9e 3e 6f 29 95 3e
       0.18146779 0.453413 0.3087059 0.29133174
000080 d8 5a 2d 3d ef 2c 7a bf d7 19 69 bd 7a da 78 be
       0.042322963 -0.97724813 -0.05690941 -0.24302092
000090 da d8 30 bf 44 c5 5b bf 35 c4 0b 3f 47 bb 53 be
       -0.6908089 -0.8584788 0.54596263 -0.2067691
0000a0 de a0 c3 3e 9f 54 37 be 2e 8a 8f bc 0b 2e 13 3f
       0.3820867 -0.17903374 -0.017521944 0.5749213
0000b0 73 33 25 be 04 bd be 3d 4e 49 8c be 45 73 6e be
       -0.16132908 0.093133956 -0.27399677 -0.2328616
0000c0 b0 e7 54 bf 78 3a f2 3d 1f 19 d4 bc bf f2 25 bf
       -0.8316603 0.11827558 -0.025890885 -0.64823526
0000d0 f6 de 85 be 0c 9b b4 3e 55 51 80 be a8 81 ac 3e
       -0.26146668 0.3527454 -0.2506205 0.3369267
0000e0 ae 56 0e 3f 6f 59 e2 3e d2 76 76 bd b8 4b a3 3f
       0.5560101 0.44208857 -0.06017191 1.2757483
0000f0 37 17 e5 be 12 c8 82 be 7a 92 65 be 3a 4a 75 3d
       -0.44744274 -0.25543267 -0.22419158 0.05988524
000100 59 17 40 be 55 0e 6f be 51 42 09 bd b8 bb 48 be
       -0.18758906 -0.23345311 -0.03351051 -0.19602859
000110 52 0a 4e be 90 69 06 3f 3a 0b 78 3e 30 8b 37 bd
       -0.20121124 0.52504826 0.24223033 -0.044810474
000120 c5 61 14 be bb 2b 0d 3f dd 8f a7 bd b8 df a1 3e
       -0.14490421 0.5514485 -0.081817366 0.31615996
000130 1b 48 a7 be 23 b3 03 bf 75 33 c2 3d 5c 05 8f 3e
       -0.326722 -0.51445216 0.09482471 0.27933776
000140 6e dd d8 3e f5 79 67 3e 77 a8 7d 3e 93 35 3c 3d
       0.42356437 0.22605117 0.24771295 0.04594953
000150 8d 26 0d 3d 94 cf 82 be 07 f1 7f be 5c 7a 87 3f
       0.034460593 -0.25548995 -0.24994288 1.0584216
000160 59 5d 86 be f7 ab ca 3d 78 84 89 be 31 d3 3a 3f
       -0.26243094 0.09896081 -0.26858878 0.729785
000170 45 0c 1b be b5 b3 b2 be ec 54 02 3f 79 72 11 bc
       -0.15141399 -0.3490273 0.5091083 -0.00887739
000180 8b e1 a6 bd b0 13 be 3e 32 a5 b7 be 16 7d 5d 3e
       -0.08148488 0.37124395 -0.35868222 0.21629748
000190 8f 25 2c be 9a a1 77 bf 3f 87 fa 3e e3 b5 1a 3f
       -0.16811202 -0.9673096 0.4893131 0.6043379
0001a0 06 f9 76 be cb 2d 90 be 7e 46 e5 3e 58 5b 14 3f
       -0.24118432 -0.28159937 0.44780344 0.5795188
0001b0 b4 7b 2c be f9 5e ab 3d 61 5b ad 3e 3f 70 07 be
       -0.16844064 0.08367724 0.3385878 -0.13226412
0001c0 56 51 09 bf 78 7e f1 3e fb 00 00 bf 3e 53 ec 3e
       -0.53639734 0.471668 -0.50001496 0.4615726
0001d0 a1 4c 92 3f 89 87 22 3e f6 6f 70 3d 9e c9 84 bf
       1.1429635 0.15872015 0.058700524 -1.0374029
0001e0 13 91 79 be 8e 9c 2a 3f 5c 00 76 3f 7a 64 2e 3e
       -0.24371748 0.66645133 0.960943 0.17030516
0001f0 61 32 19 3d 66 60 b3 be f2 b0 33 3f 74 3e e3 bb
       0.03740156 -0.35034484 0.7019187 -0.006934935

network.2.weight f4 [128, 128]
000000 83 c8 d8 bd be 44 13 bd b2 02 09 bd 0f 33 9a 3d
       -0.105851196 -0.03595423 -0.033449836 0.0752927
000010 8c 8c af bd 8a 56 b0 bd fb 9e 58 bd f3 25 16 bd
       -0.08571729 -0.08610256 -0.05288599 -0.036657285
000020 8e 90 84 3d c4 f7 98 bd ad 84 96 bc cf 7e 85 3d
       0.06472884 -0.074691325 -0.018373812 0.065183274
000030 43 f0 19 bd d1 4f da bd 96 d6 45 bc f8 a5 70 bd
       -0.037582647 -0.10659755 -0.012075087 -0.05875203
000040 9f cc 45 bd f5 9f 88 3d ec 4c 2a 3d 06 db 8f bd
       -0.048290845 0.066711344 0.041577265 -0.07024197
000050 a1 74 24 be 71 e9 5e bd ee db f2 bd ee 39 a2 bd
       -0.16060115 -0.054421846 -0.118583545 -0.079212055
000060 eb df af 3d 3e 2e 44 bd 83 05 10 bd b6 d9 75 3c
       0.08587631 -0.047895662 -0.035161506 0.01500552
000070 8c f3 a4 3b 70 3f 85 bc 3c 27 fd 3b e9 bd 11 be
       0.005033916 -0.0162656 0.0077256244 -0.14232601
000080 e2 43 92 bd 65 eb 1a 3d 51 81 5a 3d 02 5c 3a bd
       -0.07141854 0.037822146 0.053345982 -0.0454979
000090 bf 2e 0d bd 78 23 6d bd c3 61 1d 3c 8b 06 2e 3d
       -0.03446841 -0.057895154 0.009605828 0.04248671
0000a0 74 fe aa 3c 4a 95 02 bd 09 c6 97 bc f8 2a 58 bd
       0.020873286 -0.031880654 -0.018527048 -0.052775353
0000b0 2e 8d 33 3d 10 73 a7 3c 68 5b 95 bd 2d 72 91 bd
       0.04383581 0.020440608 -0.07292825 -0.071018554
0000c0 ea a0 1a bd 37 da ba bd 0a d2 8c bd 13 ae b0 bd
       -0.037751116 -0.091236524 -0.06875999 -0.08626952
0000d0 f2 b7 41 bd dc 59 fc bc 8a b3 4c bd 76 47 97 bd
       -0.047294565 -0.030804567 -0.04997591 -0.07386677
0000e0 a9 43 f5 bc 6f 07 db ba e3 0b 9d 3d d9 7e 0a be
       -0.02993949 -0.0016710589 0.07668283 -0.13524951
0000f0 1c af 37 bc b0 ab a8 bd 6e ce 74 3c 7b 01 2d 3c
       -0.011211183 -0.08235872 0.014941795 0.010559435
000100 9a 98 db bc 9f 9b 95 3c ae f3 b2 bc 6b ad 95 bd
       -0.026806165 0.018262682 -0.021844711 -0.073084675
000110 d2 b8 e3 bc fa 72 ce bc 0c 76 8d bd c9 1d 47 bc
       -0.02779809 -0.02520131 -0.06907281 -0.012153097
000120 62 3e 56 3b e3 49 8f bd b5 55 55 3d 47 ff 24 bb
       0.0032690992 -0.06996515 0.05208369 -0.0025176571
000130 b6 b6 3d bd 36 9d 24 3c ff f0 e8 bc 06 5b 87 bc
       -0.046316825 0.010047248 -0.028435228 -0.016522896
000140 52 a9 38 bd a8 b3 85 3c 70 4d e7 3c a6 76 2c 39
       -0.04508335 0.016321018 0.028235167 0.00016447398
000150 31 15 6d bc 83 bf 85 bd 98 02 1a bd 75 2e 39 bd
       -0.014470384 -0.065306686 -0.03760013 -0.04521032
000160 f7 dd 87 3d 06 96 f3 bd bc 89 f4 bd a2 51 5a bd
       0.06634133 -0.11893849 -0.11940333 -0.053300507
000170 f0 09 88 bd 82 86 a4 3c b3 43 43 bd 2d 7b a7 3c
       -0.066425204 0.02008367 -0.047671985 0.020444477
000180 77 4d 6b bc 41 50 48 bd a8 39 49 3d 8b 4e 9e 3d
       -0.014361731 -0.04890466 0.04912725 0.07729825
000190 8b f4 8b bd f3 70 b3 bc e4 cc 10 bd bf 50 fa bd
       -0.06833752 -0.021904444 -0.03535165 -0.12222432
0001a0 10 99 29 3c 79 b7 c9 bd 4f de 19 3c c1 3d 23 bd
       0.010351434 -0.09849448 0.009391381 -0.039853815
0001b0 bc 12 a4 bd 10 11 fa bd eb 1f 72 bd 07 0b 97 3c
       -0.08011386 -0.12210286 -0.05911247 0.018437875
0001c0 45 41 f0 3c 3b 9a 04 3d a7 54 25 bc c4 c0 05 3d
       0.029327998 0.032373648 -0.0100909835 0.03265454
0001d0 5c 16 ea 3c 31 7c 11 be b2 48 d1 bb c3 61 54 bd
       0.028575115 -0.14207532 -0.00638684 -0.051851045
0001e0 7a 7b 4a 3d cb f9 a0 bc ed 85 3d 3d 8d ad 8e bd
       0.049434163 -0.01965036 0.0462703 -0.06966696
0001f0 5e 26 4c 3c e8 56 ff bd d0 48 bc bd 35 a8 1b bd
       0.012460319 -0.12467748 -0.091935754 -0.03800221
000200 60 1d df bd f0 46 dd bd 90 df e6 bd 50 59 4d bd
       -0.10894275 -0.10804546 -0.1127311 -0.050134003
000210 4c 37 91 bc a2 ba b5 3c 27 23 9a 3d 15 5d a1 3a
       -0.017726563 0.02218372 0.07526236 0.0012311066
000220 ba 88 0d bc cb 9a 2c bd a2 a7 e7 bd 41 c3 9b 3d
       -0.008638555 -0.04213981 -0.1131127 0.07605601
000230 cf c5 4c 3d 90 37 5a bd c1 15 d9 bc 58 f8 30 3d
       0.049993332 -0.053275645 -0.02649963 0.04320559
000240 4d 03 92 bc 9e b8 10 bd 16 7b 94 bd c3 f4 58 bc
       -0.01782384 -0.035332315 -0.07250039 -0.0132419495
000250 dd da 32 bd 43 f0 d5 bd 57 78 da 3a 62 7b 95 bc
       -0.043665756 -0.10446217 0.0016667944 -0.01824731
000260 a0 99 81 3c 67 06 19 bd 5b 98 c6 bc 71 73 27 bd
       0.015820324 -0.03735962 -0.02424257 -0.040881578
000270 d0 91 8d 3d 72 0d c5 bd 1b 19 82 3a da 77 29 3c
       0.06912577 -0.09621705 0.0009925695 0.010343516
000280 c1 2b d3 bd 84 d7 e1 bd 32 c7 a7 bd 41 8a 2e bd
       -0.1031108 -0.110274345 -0.0819229 -0.042612318
000290 53 94 4c bd eb ae a9 bd d7 e0 1c bd 76 c0 8f 3d
       -0.04994614 -0.08285316 -0.03830036 0.07019131
0002a0 9c 29 ed bd c4 e9 02 3c 34 51 a9 3c 53 68 a1 bd
       -0.11580202 0.007990304 0.020668603 -0.078812264
0002b0 d9 e4 9a bd dc ee 5d 3d fc 47 f1 bc 64 f3 ed 3c
       -0.075631805 0.054182872 -0.02945327 0.029046722
0002c0 65 41 a2 bd bc 17 59 3d ad 57 64 3d 07 3a 53 bc
       -0.07922629 0.05300115 0.055747677 -0.012892253
0002d0 30 50 8b bd b7 57 76 3c 62 60 03 bc 84 8b a2 bd
       -0.06802404 0.015035561 -0.008018585 -0.07936767
0002e0 e2 c3 19 3d 74 50 88 3d df e3 0e bd 50 bb a2 bd
       0.037540324 0.0665597 -0.034885284 -0.07945883
0002f0 a7 45 2d bd 3a 15 d2 bd ac 3d 9b bd 87 e9 ca bc
       -0.042302754 -0.10257955 -0.07580122 -0.024769558
000300 81 b3 85 3a 04 dc c7 3c 6e 01 8c bc ec 43 e4 3c
       0.0010200591 0.024396904 -0.017090525 0.027864419
000310 64 87 97 bd cc 49 1a 3d d1 6e e5 bd d3 61 13 bd
       -0.073988706 0.037668034 -0.11202777 -0.035981964
000320 17 9c a5 3b 38 38 2f 3d 24 b4 c5 bc 86 2d 09 3d
       0.0050540078 0.042778224 -0.02413375 0.03349068
000330 a8 d1 4a bc 2c 4e 88 3d b1 60 a8 bd da 88 bf bd
       -0.0123790875 0.06655535 -0.082215674 -0.09352274
000340 ea 6e ab bc 13 5b 71 3c bd 33 a2 bd 1c 9a 51 bd
       -0.020926911 0.014731186 -0.079200245 -0.05117236
000350 e6 7b 4e bc 84 91 91 bd 2e 0e 88 bc 2f 1f d2 3c
       -0.012602782 -0.07107833 -0.016608324 0.025649635
000360 87 8c 37 bd f4 7a 69 bb c2 42 a3 bd 5e 55 d1 bc
       -0.04481175 -0.0035626264 -0.079717174 -0.025553402
000370 18 b5 05 3c ec 80 ea 3c de bb e8 bc 8b 0e 34 bd
       0.008160852 0.028625928 -0.028409895 -0.04395918
000380 7f ca b8 bd a0 12 2e bc 0b ec 1b bc bb 28 e2 3c
       -0.09022998 -0.010624558 -0.009516726 0.027607312
000390 b7 bc 5c 3d 09 ad 06 bd ce ea 97 bd 8f a3 4c 3d
       0.05389091 -0.032879863 -0.07417832 0.04996067
0003a0 36 65 40 3c 3d 62 ba 3c 0d a9 b5 bd 2e 78 8e bd
       0.011742881 0.022751922 -0.088701345 -0.06956516
0003b0 88 86 e5 bd 77 5c f6 bb 33 a8 90 bc ea af 8b bd
       -0.112073004 -0.007518347 -0.017658329 -0.06820662
0003c0 d6 04 c6 3c 53 9d 9d 3d 6b c7 35 3d 07 81 f5 bb
       0.024172228 0.07696023 0.044379633 -0.007492188
0003d0 41 06 a5 bd cf 0c a6 bc 37 6d 5b bd 0d 90 ca 3c
       -0.080578335 -0.02026978 -0.053570952 0.024726892
0003e0 c1 c6 d8 bc 70 99 4a 3d 6d 69 dc bd 37 56 55 3d
       -0.02646196 0.049462736 -0.10762296 0.052084174
0003f0 5a 9c b8 bd b9 91 32 bd 1f b5 7f bd 4d 47 75 3c
       -0.09014197 -0.043596003 -0.06242859 0.014970613

network.2.bias f4 [128]
000000 3f 3b fe bc 9a 5a 21 bd 3d 05 84 3d b4 79 82 3d
       -0.03103411 -0.039393045 0.064463116 0.06370869
000010 ff d4 ec 3e 9b af d4 bd 97 7d 9f 3e 27 80 04 3f
       0.46256253 -0.103850566 0.31150505 0.51758045
000020 67 c3 02 bf c7 03 c1 bc ee 3b 5f 3c a5 68 03 3e
       -0.5107941 -0.023561371 0.013625128 0.12832887
000030 d8 8a 61 bd 53 47 36 3e 8a d5 d0 bd 1f 59 fe 3e
       -0.055064052 0.17800646 -0.10196979 0.4967737
000040 22 17 2a 3e d6 1a 11 bd 2b 33 ca 3e 25 80 19 3f
       0.16610387 -0.035425983 0.39492163 0.5996116
000050 7d 7f b2 bd 86 d2 96 be 45 0c b9 bc f6 51 0c bc
       -0.08715723 -0.29457492 -0.022588858 -0.008564463
000060 97 5e 28 3d 32 e3 a2 3e 35 85 80 bd 62 9f c2 3e
       0.041105833 0.3181396 -0.06275407 0.38012224
000070 1d 70 15 bd d6 15 68 3d 6f 14 01 bd 52 ec ca 3e
       -0.036483873 0.05666145 -0.031513628 0.39633423
000080 21 15 a8 3e 02 c3 56 3e a8 7d 8c bd a8 73 65 bf
       0.3282862 0.20972827 -0.068599045 -0.896296
000090 8b 95 03 bf c2 b4 44 bf 89 78 40 bd c3 a8 1e be
       -0.5140006 -0.76838315 -0.04698995 -0.15494065
0000a0 4a 6f d9 bd c1 5b 82 3d 64 9a 4f 3d 8c 68 e0 bd
       -0.1061693 0.06365157 0.050684348 -0.10957441
0000b0 b6 e2 13 3e 23 ad 49 3d e8 ab af bd 42 72 16 3e
       0.14441952 0.04923738 -0.085777104 0.14692023
0000c0 b3 55 5e 3d d0 6d 96 3e a3 04 9d 3c 5c 50 bb 3e
       0.054280948 0.29380655 0.01916725 0.36584747
0000d0 99 96 fc be 9b c1 a9 3e e0 54 b0 bd 7a 17 3f bf
       -0.49333647 0.33155522 -0.086099386 -0.746452
0000e0 d6 a7 81 bd c4 f2 4d bf 9c f4 f8 3e c7 1a 86 3d
       -0.0633084 -0.80448556 0.48624122 0.06548076
0000f0 e6 41 0c bf be d4 09 3d 2c 1d da bd aa 25 00 be
       -0.54788053 0.033650152 -0.10650095 -0.12514368
000100 f0 d0 99 bd c5 29 dc 3e e8 4c 5b bd 43 e8 90 3d
       -0.07510555 0.43000618 -0.05354014 0.070755504
000110 e5 5d 50 3d d6 67 a7 3d 52 2f 1f bd f1 7f 0f bd
       0.050870795 0.08174102 -0.038863488 -0.035034124
000120 db 41 69 3e 59 f2 2f 3b db b2 c6 3e d0 55 9b bb
       0.22779028 0.0026847331 0.3880833 -0.0047404543
000130 02 ee 7c bd 78 c7 62 3e 6d e8 89 3e ce ad 0d 3f
       -0.06175042 0.22146404 0.2693514 0.5534333
000140 db 03 07 3d 0c a6 07 3e 10 23 f9 3e 40 9f 35 3c
       0.03296266 0.13246936 0.48659563 0.011085331
000150 c2 3f 7b 3e 66 18 37 bd ca b0 16 bf f3 5b 3c bf
       0.2453604 -0.044701003 -0.5886351 -0.73577803
000160 17 9e 59 bd 61 4c b5 bf cf ef 97 bd 58 9f 0c 3f
       -0.05312928 -1.4163934 -0.07418787 0.5493064
000170 4d 45 ee bd 6b 74 24 3d 5c 51 9b bd 67 d1 43 bd
       -0.11634312 0.040150087 -0.075838774 -0.047807124
000180 cb b9 99 bd 62 b0 a7 bd 83 ff 13 3e f2 71 35 bf
       -0.0750614 -0.08187939 0.14452939 -0.7087699
000190 ff 83 38 bf 96 01 80 bd 17 29 e3 3e 7f c5 22 3c
       -0.7207641 -0.062503025 0.44367287 0.009934782
0001a0 8b 25 68 3e e8 94 d8 bd a1 4c ae bc eb f6 4e 3d
       0.22670572 -0.105752766 -0.021276774 0.050528448
0001b0 91 37 96 3e 65 1e d4 bc 85 be 6e 3e 77 f5 1b 3f
       0.2933927 -0.0258934 0.23314865 0.60921425
0001c0 a7 e3 c5 3e 8f be 85 3e 87 bf e7 3c b1 16 d5 bd
       0.38650247 0.26121947 0.02828957 -0.10404719
0001d0 7b 56 42 bb 58 0d de 3e 90 6b 8c 3e 81 8f 89 3e
       -0.0029653597 0.43369555 0.27425814 0.26867297
0001e0 b4 4c b4 3c b6 c4 c2 3e 35 7c 51 bf 6e 7f 37 3c
       0.022009231 0.38040704 -0.8183015 0.011199815
0001f0 92 47 a8 bf 84 2d 3d bf 7d e7 fc be 67 f3 a8 bd
       -1.3146842 -0.73897576 -0.49395362 -0.0824955

network.4.weight f4 [6, 128]
000000 bd 5c 6f bd bf f9 80 bc c6 79 5c 3d ee 21 99 3d
       -0.05843805 -0.015744088 0.05382707 0.07477175
000010 e7 3a 4b 3f b8 e7 12 bd a2 ea ea 3d 53 ef 1a 3e
       0.7938675 -0.035865515 0.11470534 0.15130357
000020 27 dc b7 bf ef a2 3a c0 89 ed d5 3b 08 58 aa be
       -1.436406 -2.9161947 0.0065285605 -0.33270288
000030 d1 de 26 bd e0 83 44 c0 77 74 0b 3d b7 fa 24 3f
       -0.040739838 -3.070549 0.034046616 0.6444506
000040 4a a4 5b 3f 43 88 9f 3e 4e 6a 1a 3f 7b 5f 46 3f
       0.8579756 0.31158647 0.6031846 0.7748944
000050 a4 a3 1e 3d c9 33 cf bf e6 c4 0f bd 84 09 3b 3f
       0.03873028 -1.6187679 -0.035099886 0.73061395
000060 22 0f ad 3c ae 1d b2 3e 54 54 c1 bd 06 e0 8b 3e
       0.02112538 0.3478827 -0.094399124 0.27319354
000070 1a d8 d6 bb b1 90 8b 3c e0 72 3d 3e 49 86 ab 3e
       -0.006556523 0.017036768 0.18500853 0.3350089
000080 40 95 2a bd 89 71 ee bc cf 5a 49 bb 80 2c bf bb
       -0.041646242 -0.029106872 -0.0030724292 -0.0058341622
000090 6c 89 6d bf 3d 1b 19 3e 51 fa c2 3c b3 c3 43 3f
       -0.92787814 0.14951797 0.023801 0.7647049
0000a0 8f 85 4b bc bb b6 9d bf 2e 27 d0 3d 75 f4 12 3d
       -0.01242198 -1.232139 0.10163723 0.035877664
0000b0 81 10 40 be a3 d9 c0 bd 59 93 de 3c 55 e4 d8 3f
       -0.18756296 -0.09416511 0.02716987 1.6944681
0000c0 98 db 7a 3d e8 7e aa 3f 89 3f 82 bd ff 2b 18 40
       0.061244577 1.3319979 -0.063597746 2.3776853
0000d0 4c 91 e1 bf 12 34 1e bf 7d 43 65 3c c0 41 34 bc
       -1.7622466 -0.61798203 0.013993141 -0.011002004
0000e0 84 15 b8 3c b8 82 70 3e 3d 05 40 bf 73 c4 91 3d
       0.022471197 0.23487365 -0.75007993 0.07117548
0000f0 e7 b7 02 c0 47 3b 97 3d 15 1c 77 3d 18 3b 92 3c
       -2.0424745 0.07384353 0.060329515 0.017850444
000100 0b 63 63 bc cf 93 0e 3c 98 c1 86 3c 46 e5 96 3e
       -0.013878594 0.0087022325 0.016449735 0.29471797
000110 6e 99 43 3d bb 0d 59 3c 4b db fd 3c ef 77 67 3d
       0.047753744 0.0132479025 0.030988356 0.056510862
000120 7c f8 76 bc 49 28 8b bb 5e e7 3e 3f 73 8e 35 bd
       -0.015073892 -0.0042467457 0.7457179 -0.044325303
000130 56 4a 55 bd 47 15 c9 be 61 2f 10 bd 48 91 45 3f
       -0.052072845 -0.39274046 -0.035201434 0.77174807
000140 c3 4a 38 3d a9 c9 85 bf 82 28 e5 3e 50 95 87 3d
       0.044993173 -1.0452167 0.44757468 0.06620276
000150 29 43 35 40 6b 22 45 3f c9 6f 8b bf 37 1f 07 3e
       2.8322241 0.7700564 -1.0893489 0.13195501
000160 26 f8 39 bd 05 e0 38 bf b0 fb 17 bc 66 5f 9d 3e
       -0.04540267 -0.72216827 -0.009276316 0.30736846
000170 50 f7 af 3a f4 eb b3 bd fa 35 5e be eb 08 e2 bf
       0.0013425145 -0.08785239 -0.21700278 -1.7658972
000180 4b 26 2b bd bf 6f 2b 3c 24 85 13 3f 83 6b 51 3d
       -0.041784566 0.010463654 0.5762503 0.05112792
000190 06 f8 3d 3e 60 2d 4c bc 04 ca 81 3c b4 8d 2f 3c
       0.18551645 -0.01246199 0.015843399 0.010714937
0001a0 b7 cf f1 3e 79 ba af ba e4 79 a3 bd e7 5e 2f 3d
       0.47228786 -0.0013407014 -0.07982233 0.042815115
0001b0 78 4b b1 bc 9f 80 37 3d 0d 1c 20 be 4c 3f 26 3f
       -0.021642432 0.044800397 -0.156357 0.64940333
0001c0 3d 73 fd 3e db ef b2 3e f8 44 da 3c ee 27 1f bd
       0.49501982 0.3494862 0.026644215 -0.03885644
0001d0 92 0f 3b bd e9 a4 ac 3f 7b a7 c5 bf 1c b0 b1 be
       -0.045669146 1.3487827 -1.5441736 -0.34704673
0001e0 a2 45 3c bb 99 85 f9 3f c4 8a 43 3d 06 e7 68 3d
       -0.0028728028 1.9493896 0.04773976 0.056860946
0001f0 b2 64 8e 3f f4 31 83 3e e3 aa df be 68 a1 69 bd
       1.112448 0.2562405 -0.43685064 -0.057038695
000200 17 e8 3c bb e8 00 8b bc 0c 06 9e 3d 91 17 71 3d
       -0.002882486 -0.016968206 0.07715997 0.058860365
000210 c8 21 cc 3e 09 40 14 3d a0 86 41 3e 4f 75 2b 3f
       0.39869523 0.03619388 0.18899012 0.66975874
000220 9d eb b8 bf 8d 65 7e 3e 36 aa 94 3c 3e a5 a1 3d
       -1.4446903 0.24843426 0.01814757 0.078928456
000230 93 8e 64 3c 9e 5e bd bf 73 fb e6 3c aa 26 97 3e
       0.013950008 -1.47945 0.028196072 0.29521686
000240 36 98 97 3e 92 67 78 3f 26 0a 3b 3e 98 a8 b4 3f
       0.29608315 0.97033036 0.1826559 1.4113951
000250 44 94 f7 3d 34 fb e9 bf 71 75 bf bb 47 8d 63 3f
       0.12088826 -1.8279786 -0.0058428575 0.8888745
000260 2b 42 8d bc 2e ea 09 3f f8 c0 8a 3d 4e b7 00 3f
       -0.017243465 0.53872955 0.06775087 0.502797
000270 de 50 8e 3d 53 02 96 3b 5a 4e 38 3f 28 45 9e 3e
       0.06949018 0.004577914 0.71994555 0.30912137
000280 9a 61 0f 3f f5 24 4a 3e d5 8f fc bc 2f 1d 2a c1
       0.56008303 0.1974066 -0.030830303 -10.632125
000290 88 26 cf bf 1b b4 23 c1 46 9a 3f 3d e9 69 c7 3f
       -1.6183634 -10.231471 0.046777986 1.5579196
0002a0 78 ef da 3b d7 7d 24 c0 8a d4 9a 3d 80 08 0c bc
       0.006681379 -2.5701807 0.0756007 -0.008546948
0002b0 ab 63 a5 bc cc d9 32 bd 98 17 3a bc 6d 03 a2 3e
       -0.020189127 -0.04366474 -0.011358164 0.3164324
0002c0 d0 10 91 3c 8e 6c 58 3e 11 c6 bb 3d 91 e3 20 be
       0.017708212 0.2113516 0.091686375 -0.1571181
0002d0 f2 5e 15 bf ec 0d 4c bf 58 fd 8b 3c 32 18 14 c1
       -0.58348 -0.79708743 0.017088577 -9.255907
0002e0 25 ac 97 3d 8e 74 2d c1 4c 64 01 bf 98 d7 ab 3d
       0.07405881 -10.840956 -0.50543666 0.083907306
0002f0 ab cc c7 bc 10 86 cf 3c 68 99 66 bd 3f 33 13 bd
       -0.024389585 0.02533248 -0.056298643 -0.035937544
000300 8b 35 a7 3d 27 01 f5 3e 31 d4 90 bc 9a a5 26 bd
       0.081645094 0.47852442 -0.017679306 -0.040685274
000310 8f e1 b2 3c b4 fa 9e 3c a1 fc 29 bd 21 82 5b bb
       0.02183607 0.019406654 -0.04150069 -0.003349431
000320 d8 f8 b6 3e d8 b0 cf bd 9a 20 a3 3e eb 8e 76 bb
       0.35736728 -0.10141152 0.3186081 -0.0037621807
000330 ba 08 54 bd de 1a 80 bf 6e 6e e2 3d 5a 58 66 3e
       -0.051766135 -1.0008199 0.11056219 0.22494641
000340 a2 20 ab 3d f2 88 83 bf 03 2c b0 3e 8e 52 9b bd
       0.083558336 -1.0276167 0.34408578 -0.075841054
000350 f3 be 52 be ad a5 a4 3f 17 ce 0b c0 ec 4d 27 c1
       -0.20580654 1.286306 -2.1844537 -10.456524
000360 6b 94 39 bd 2c 27 15 3d 5b 5f 21 3d ea 3e f1 3e
       -0.045307558 0.03641431 0.03939758 0.47118312
000370 a2 0e 84 3d 5b 18 80 bb 7e 0c f5 bd db aa 06 c0
       0.064481035 -0.0039091534 -0.11965273 -2.1041782
000380 f3 b8 27 be 39 2d 8a bc 68 46 48 3f 1a 25 2a c1
       -0.16379146 -0.016867267 0.7823243 -10.634058
000390 a0 be 1c c1 28 11 8a 3d 0f 0f 10 3f 1c ae b6 3d
       -9.796539 0.067415535 0.5627298 0.089199275
0003a0 8a e7 98 3e 37 9c 9c bd 56 01 d8 3d 01 24 06 3d
       0.2986415 -0.07646983 0.1054713 0.03274918
0003b0 14 f2 f4 3e ca a9 a8 bd ec e0 31 3f b3 f7 03 3f
       0.4784094 -0.0823551 0.6948383 0.51549834
0003c0 e4 0f c1 3e ad 9c 5e 3e 21 ca 0a bc 24 3b 0a 3c
       0.37707436 0.21739455 -0.008471043 0.008436952
0003d0 cb e7 4c bd 91 54 41 3e a3 da a0 bf 47 11 2f 3f
       -0.050025743 0.18879916 -1.2566723 0.6838574
0003e0 08 c4 af b9 92 db 4a 3e 91 48 27 c1 fa 9a 8d bb
       -0.00033524656 0.19810322 -10.455216 -0.004321453
0003f0 65 bf a3 3d 45 a7 2e c1 67 0f 17 bf 7c 82 4a bd
       0.0799549 -10.915837 -0.5900788 -0.049440846

network.4.bias f4 [6]
000000 65 3f c3 3e e9 24 24 3f 0f cf 91 3e c9 1a 28 3e
       0.38134304 0.6411882 0.28478286 0.16416468
000010 49 af 04 3f ce c1 63 bd
       0.51829964 -0.05560475

network.0.weight f4 [128, 12]
000000 f8 7c 90 3d 4c c3 d8 be ee 84 39 c0 27 35 0d bf
       0.07055086 -0.423365 -2.8987384 -0.5515923
000010 af dc 9d 3e 63 d8 04 3f f3 2b 74 bc 71 ae f2 3e
       0.3083243 0.5189268 -0.014903056 0.47398713
000020 a4 02 62 3e 2b 1c de 3e 0c c7 2f be 1b da 49 be
       0.2207132 0.43380865 -0.17165774 -0.19712107
000030 2c 64 a4 be 11 f8 30 3f d4 63 ab be 1b 8c 5b 40
       -0.32107675 0.6912852 -0.334746 3.4304264
000040 0b 7a 65 bf 99 74 e0 3e a6 d8 df 3e ec c1 c1 3e
       -0.8963935 0.43838957 0.43719977 0.37843263
000050 8e b0 5c be 7d 38 f3 3e f0 b2 0f bf e9 57 02 3e
       -0.21551725 0.47504035 -0.5613241 0.12728848
000060 02 66 29 3f 63 16 87 bf c8 07 f3 3f b8 48 d6 bc
       0.66171277 -1.0553707 1.898675 -0.026157722
000070 87 f3 d5 bd 24 34 11 bc 9f 66 03 bf e7 69 05 3f
       -0.1044684 -0.008862529 -0.5132846 0.5211472
000080 49 e4 46 be 9c 8c 94 3e 41 01 42 3e 66 62 4b bd
       -0.19423021 0.29013526 0.18945791 -0.049654387
000090 41 7e a5 bd a8 85 13 bd c3 b5 04 be 87 3e 28 3e
       -0.08080722 -0.036016136 -0.12959962 0.16430102
0000a0 69 5b a9 3d 55 6a 01 3e 9a f1 a3 bc f2 01 aa 3d
       0.08269388 0.12638219 -0.020012666 0.08301152
0000b0 49 75 27 3e 52 35 6a bd eb 25 b3 be 17 42 10 3e
       0.16353334 -0.057179756 -0.34989867 0.14087711
0000c0 42 65 1e be 7d 2e dd 3d cd 16 c4 bd 88 55 c1 bd
       -0.15468314 0.107998826 -0.095746614 -0.09440142
0000d0 20 c8 88 be 44 9b 40 3e c6 e3 8c be d9 34 e4 3c
       -0.26715183 0.18809229 -0.27517527 0.027857231
0000e0 29 32 1d 3e 02 63 f2 bb 6a eb cc bd 66 7d d2 bc
       0.15351166 -0.0073970566 -0.10005839 -0.02569456
0000f0 72 ca cb 3f f2 02 d1 3e 2e 9e 65 bf a3 db db 3f
       1.5921156 0.4082256 -0.8969449 1.7176403
000100 87 13 4c 3f 88 a8 83 bd 0e 33 9d bf 27 3f 9e 3e
       0.79717296 -0.06428629 -1.2281206 0.30907556
000110 cd 16 f6 3d df 5c aa 3e 08 5f ba bf 5e 8f 91 3d
       0.12016068 0.3327398 -1.4560251 0.07107423
000120 1b 43 0b 3e f1 1d 43 be a4 4f 2e 3d 53 3e 01 be
       0.13599817 -0.1905439 0.04255642 -0.12621431
000130 ee 23 2b 3e 46 8d 9c bd 78 f3 67 3e de a9 2c 3d
       0.16712925 -0.07644133 0.2265147 0.042154185
000140 82 13 84 3c 8e c9 bc bd a0 c2 88 bd 25 9c 06 be
       0.016122583 -0.09218131 -0.06677747 -0.13145502
000150 16 ac 06 be 19 18 26 3f fd f6 24 bf e3 f1 0d 40
       -0.13151583 0.6488052 -0.64439374 2.2178886
000160 08 e4 98 be 99 27 a6 bc 3e 35 f9 3d 35 1e b3 3e
       -0.29861474 -0.020282554 0.12168358 0.34983984
000170 6c f3 92 bc 45 f9 39 3e 6d a4 46 be 5e 68 09 bf
       -0.017938338 0.18161495 -0.19398661 -0.53674877
000180 57 c7 18 be d0 d1 e3 bd 65 78 4b 3c e8 53 19 3e
       -0.14919792 -0.11124003 0.012418841 0.14973414
000190 d1 c4 0d 3d d2 ce b4 3d 71 55 89 be 62 6f 80 be
       0.034611527 0.0882851 -0.26823 -0.25084978
0001a0 13 ba d0 bd 2a 16 be bd 49 19 8c be f4 5b bd bd
       -0.10191741 -0.09281571 -0.2736304 -0.09246054
0001b0 5f 6d cf 3e 5d d1 9b bc 86 1e 2c bd f4 a6 66 3f
       0.4051313 -0.01902073 -0.042021297 0.900985
0001c0 10 13 38 3e c0 4e dd be 49 c8 ea be f7 f5 81 3f
       0.17976022 -0.43224144 -0.4585593 1.0153188
0001d0 25 77 67 3e 5d f9 cf be 49 ab 24 be 72 8c c5 be
       0.22604044 -0.40619937 -0.16080965 -0.38583714
0001e0 f7 29 28 3f 08 ab a3 3e 83 00 ac 3f bf 1a d8 3d
       0.65689033 0.31966424 1.3437656 0.105519764
0001f0 61 c1 14 3e c0 1a 9b bd e3 0f b3 be 33 22 eb be
       0.14526893 -0.075734615 -0.34973058 -0.4592453
000200 8a aa 85 be 0c dd c6 3e 1f 0e 75 3e e9 40 1a 3f
       -0.26106673 0.3884052 0.23931168 0.60255295
000210 6b 4f 57 be ef 83 ef bd f8 98 84 be ae 3f 04 3e
       -0.2102639 -0.11695086 -0.25897956 0.12914917
000220 07 3a 3f 3e 8d e7 f5 bd 52 ba d5 bd 68 f1 10 bd
       0.1867448 -0.120070554 -0.104359284 -0.035386473
000230 6a 77 41 ba f2 72 83 be fa 05 7b bd 3a 22 fe 3c
       -0.000738016 -0.25673634 -0.061284997 0.03102218
000240 86 0c f0 3c 46 2a f0 be bf 75 b8 bf 2b e2 72 c0
       0.029302847 -0.46907252 -1.4410933 -3.7950542
000250 c8 b2 91 3f 2b 24 94 3b 56 a5 8e be e3 61 5a 3f
       1.1382685 0.004520913 -0.27860516 0.85305613
000260 6b 6c 72 be 63 5b 5c bf be 33 7a be c8 c1 b4 bf
       -0.2367417 -0.86076945 -0.244338 -1.4121637
000270 61 e7 34 3e 57 95 41 3f 7d 00 a2 bf ad 86 f3 3e
       0.17666389 0.756185 -1.2656399 0.47563687
000280 4b d8 e4 be 42 6d 02 3e 5f ca 2d be 95 1a 8a 3e
       -0.44696268 0.12736991 -0.1697173 0.26973405
000290 fd db 7d bc 4c 8a 78 be e8 94 a2 bc 54 e8 4b bf
       -0.015494344 -0.24271506 -0.019846395 -0.7965138
0002a0 4b 6a 0b bf f7 95 f9 bf fb ef 15 be a3 f9 8f 40
       -0.54459065 -1.9498891 -0.14642327 4.499223
0002b0 e6 fc 1d 40 d9 27 00 3f 1a 76 1a 3f e9 b0 2f 3f
       2.4685607 0.500608 0.6033646 0.6862932
0002c0 68 97 15 be c8 45 4d 3f f1 a7 5e be f8 92 9f be
       -0.14608538 0.801846 -0.21743752 -0.31166816
0002d0 42 0c 21 be 2c 3d 70 3f ba 83 d1 bf 16 7f 36 bf
       -0.15727332 0.9384334 -1.6368325 -0.7128767
0002e0 37 f7 3e bf 1f 22 fd 3d 57 df 8b bd 41 ee 5e 3d
       -0.7459597 0.12360024 -0.06829708 0.054426435
0002f0 f4 17 92 be de de 6d be 74 da c9 be 8b 22 3f bf
       -0.285339 -0.23229548 -0.3942448 -0.74662083
000300 f8 66 ff 3d f0 88 44 bd ed d9 05 3e 6a b1 b8 bd
       0.124708116 -0.047982156 0.13071413 -0.09018214
000310 92 43 35 be fa 88 e5 bd 2a 17 14 be ed 48 fd bd
       -0.17701557 -0.11207767 -0.14461961 -0.12367425
000320 6f 0e 09 3e d0 96 ca bd 00 f1 0b 3e ed e0 8e bd
       0.13384412 -0.098920465 0.13666153 -0.06976495
000330 17 fb b6 3d 10 ed 08 3f 45 1c 81 3e e3 9c d7 bc
       0.0893461 0.5348673 0.2521688 -0.026319927
000340 b3 bd 06 bd a3 c9 4d 3c 6e 36 b0 3e ea 34 81 c1
       -0.032895755 0.012560281 0.34416527 -16.150837
000350 e5 49 8e 3e 8c 45 6b 3d d8 2e 13 be d3 39 1e 3c
       0.27790752 0.057439372 -0.14373338 0.009657341
000360 2e 4c 22 be ff 8f 4d 3d c9 dc 74 be 9e 55 8c 3e
       -0.15849373 0.050186154 -0.23912348 0.2740907
000370 c1 ca 43 3e 15 11 c6 bd 00 c8 76 3e e8 d7 50 be
       0.19120313 -0.09671227 0.24099731 -0.20394862
000380 82 44 74 be b6 7e 86 be 0c 2a 24 3c 65 ac 82 be
       -0.23854259 -0.26268548 0.01001979 -0.25522152
000390 f1 82 a5 bd 3f 8e da be 51 3d 89 3e 6d 2a 04 41
       -0.08081616 -0.4268665 0.26804593 8.260358
0003a0 86 84 0a 3e c7 07 10 bd b7 92 20 be 96 fc 2c 3e
       0.13527116 -0.035163667 -0.15680967 0.16893229
0003b0 c6 42 85 3e 43 15 b2 bd 86 29 0d bf db 97 82 3d
       0.26027507 -0.086954616 -0.55141485 0.063766204
0003c0 5f c5 2a 3d 0c db 4e bf f5 5a a3 3f d1 ee 44 c0
       0.041692134 -0.8080299 1.2762133 -3.0770762
0003d0 0f 93 cc 3e 05 69 c0 3e 6a b8 d5 bd 01 50 8a 3e
       0.39955947 0.37580124 -0.10435565 0.27014163
0003e0 fe 2c 29 3e 62 89 db 3d 25 96 1e 3f cf 9d f9 3e
       0.1652107 0.10719563 0.6194785 0.4875321
0003f0 5c 88 5e 3e 48 4c b5 3e 9f a0 ce be b1 2b a6 40
       0.21731704 0.3540976 -0.4035692 5.1928334

network.0.bias f4 [128]
000000 5f 36 eb 3e 90 f2 81 3f 96 78 e3 3d 7d 3e 80 be
       0.4593992 1.0152149 0.11106984 -0.25047675
000010 cb af 89 be 2d fc 05 3f a3 84 7b be 8e f3 83 3f
       -0.26891932 0.52337915 -0.24562316 1.0308702
000020 5e b4 c8 bd fe 41 18 3f da 51 d1 bc 17 2c c5 bd
       -0.09800027 0.59475696 -0.025551725 -0.0962755
000030 45 47 0f 3f 48 d8 5a 3f 38 6d 8f be d7 f2 69 3f
       0.55968124 0.8548627 -0.28013015 0.9138617
000040 c2 cf 7d be ae 79 13 bf 68 41 51 bd c9 e8 55 be
       -0.24786285 -0.57607543 -0.051087767 -0.20889582
000050 ba 94 09 bf 20 78 cc 3e 9b 04 d1 3e 78 c7 82 3f
       -0.53742564 0.39935398 0.40823826 1.0217123
000060 98 ae 27 be f8 a3 98 3f 8c a2 f2 3e 6d 73 2f bf
       -0.16375196 1.1925039 0.47389638 -0.685355
000070 8d fb 3a 3e 22 7a e6 3e 23 e5 9e 3e 8d b0 94 3e
       0.18260022 0.45015055 0.31034192 0.29040948
000080 08 dc 23 3d e6 b6 7a bf d7 19 69 bd 7a da 78 be
       0.04000476 -0.9793533 -0.05690941 -0.24302092
000090 82 73 30 bf 79 42 5b bf bc e3 0b 3f 47 bb 53 be
       -0.6892625 -0.85648304 0.5464437 -0.2067691
0000a0 96 8c c2 3e 9f 54 37 be 2e 8a 8f bc f6 cc 12 3f
       0.37997884 -0.17903374 -0.017521944 0.57343996
0000b0 c0 1d 22 be de 8a be 3d 4e 49 8c be 45 73 6e be
       -0.15831661 0.093038306 -0.27399677 -0.2328616
0000c0 b0 e7 54 bf ac f3 f0 3d 1e 70 cf bc 46 eb 25 bf
       -0.8316603 0.11765227 -0.025322016 -0.64812124
0000d0 85 d4 85 be 75 ce b4 3e 55 51 80 be fc 65 ac 3e
       -0.26138702 0.35313764 -0.2506205 0.33671558
0000e0 22 3a 0f 3f 8f 99 e2 3e d2 76 76 bd 12 e7 a3 3f
       0.5594808 0.4425778 -0.06017191 1.2804892
0000f0 f1 7b e4 be da 18 84 be 7a 92 65 be 8e cf 7b 3d
       -0.4462581 -0.2580021 -0.22419158 0.061477236
000100 59 17 40 be 55 0e 6f be 51 42 09 bd b8 bb 48 be
       -0.18758906 -0.23345311 -0.03351051 -0.19602859
000110 52 0a 4e be ec b1 07 3f 35 d2 79 3e 30 8b 37 bd
       -0.20121124 0.5300586 0.24396594 -0.044810474
000120 c5 61 14 be 9d 48 0d 3f 31 fa a9 bd 3f c9 a1 3e
       -0.14490421 0.55188924 -0.08299673 0.3159885
000130 1b 48 a7 be 8d 16 02 bf 75 33 c2 3d 85 3b 8d 3e
       -0.326722 -0.5081566 0.09482471 0.27584472
000140 7f 9c da 3e b7 9a 68 3e 1b 73 7e 3e d0 0c 42 3d
       0.42697522 0.22715269 0.24848597 0.0473755
000150 71 26 09 3d 94 cf 82 be 07 f1 7f be d7 8f 87 3f
       0.033483926 -0.25548995 -0.24994288 1.0590771
000160 59 5d 86 be 86 0e c4 3d e6 03 8a be d8 d8 3a 3f
       -0.26243094 0.095730826 -0.269561 0.7298713
000170 45 0c 1b be 93 a4 b0 be ad 7d 02 3f 79 72 11 bc
       -0.15141399 -0.3450056 0.50973016 -0.00887739
000180 13 1c a9 bd 10 7f bf 3e 32 a5 b7 be 07 02 5f 3e
       -0.08257308 0.37401628 -0.35868222 0.21778117
000190 8f 25 2c be c2 6d 79 bf 3b 30 fa 3e 07 7a 1a 3f
       -0.16811202 -0.974331 0.48864922 0.6034245
0001a0 06 f9 76 be 80 9b 90 be 24 ab e5 3e 4c 9d 14 3f
       -0.24118432 -0.28243637 0.44857132 0.58052516
0001b0 4d a4 2a be a3 e4 a8 3d bf 07 ae 3e 3f 70 07 be
       -0.16664238 0.08246734 0.33990285 -0.13226412
0001c0 86 27 08 bf 78 7e f1 3e 0e b9 00 bf 50 84 ed 3e
       -0.5318531 0.471668 -0.5028237 0.4639001
0001d0 88 76 92 3f d5 37 27 3e bf 4e 84 3d 4d 6f 85 bf
       1.1442423 0.16329892 0.06460332 -1.0424591
0001e0 13 91 79 be 0d 7d 2a 3f 3e ad 76 3f e1 7f 2c 3e
       -0.24371748 0.6659706 0.96358097 0.16845657
0001f0 95 5a 19 3d e8 3f b3 be 82 e0 33 3f 74 3e e3 bb
       0.0374399 -0.35009694 0.70264447 -0.006934935

network.2.weight f4 [128, 128]
000000 83 c8 d8 bd be 44 13 bd b2 02 09 bd 0f 33 9a 3d
       -0.105851196 -0.03595423 -0.033449836 0.0752927
000010 8c 8c af bd 8a 56 b0 bd fb 9e 58 bd f3 25 16 bd
       -0.08571729 -0.08610256 -0.05288599 -0.036657285
000020 8e 90 84 3d c4 f7 98 bd ad 84 96 bc cf 7e 85 3d
       0.06472884 -0.074691325 -0.018373812 0.065183274
000030 43 f0 19 bd d1 4f da bd 96 d6 45 bc f8 a5 70 bd
       -0.037582647 -0.10659755 -0.012075087 -0.05875203
000040 9f cc 45 bd f5 9f 88 3d ec 4c 2a 3d 06 db 8f bd
       -0.048290845 0.066711344 0.041577265 -0.07024197
000050 a1 74 24 be 71 e9 5e bd ee db f2 bd ee 39 a2 bd
       -0.16060115 -0.054421846 -0.118583545 -0.079212055
000060 eb df af 3d 3e 2e 44 bd 83 05 10 bd b6 d9 75 3c
       0.08587631 -0.047895662 -0.035161506 0.01500552
000070 8c f3 a4 3b 70 3f 85 bc 3c 27 fd 3b e9 bd 11 be
       0.005033916 -0.0162656 0.0077256244 -0.14232601
000080 e2 43 92 bd 65 eb 1a 3d 51 81 5a 3d 02 5c 3a bd
       -0.07141854 0.037822146 0.053345982 -0.0454979
000090 bf 2e 0d bd 78 23 6d bd c3 61 1d 3c 8b 06 2e 3d
       -0.03446841 -0.057895154 0.009605828 0.04248671
0000a0 74 fe aa 3c 4a 95 02 bd 09 c6 97 bc f8 2a 58 bd
       0.020873286 -0.031880654 -0.018527048 -0.052775353
0000b0 2e 8d 33 3d 10 73 a7 3c 68 5b 95 bd 2d 72 91 bd
       0.04383581 0.020440608 -0.07292825 -0.071018554
0000c0 ea a0 1a bd 37 da ba bd 0a d2 8c bd 13 ae b0 bd
       -0.037751116 -0.091236524 -0.06875999 -0.08626952
0000d0 f2 b7 41 bd dc 59 fc bc 8a b3 4c bd 76 47 97 bd
       -0.047294565 -0.030804567 -0.04997591 -0.07386677
0000e0 a9 43 f5 bc 6f 07 db ba e3 0b 9d 3d d9 7e 0a be
       -0.02993949 -0.0016710589 0.07668283 -0.13524951
0000f0 1c af 37 bc b0 ab a8 bd 6e ce 74 3c 7b 01 2d 3c
       -0.011211183 -0.08235872 0.014941795 0.010559435
000100 9a 98 db bc 9f 9b 95 3c ae f3 b2 bc 6b ad 95 bd
       -0.026806165 0.018262682 -0.021844711 -0.073084675
000110 d2 b8 e3 bc fa 72 ce bc 0c 76 8d bd c9 1d 47 bc
       -0.02779809 -0.02520131 -0.06907281 -0.012153097
000120 62 3e 56 3b e3 49 8f bd b5 55 55 3d 47 ff 24 bb
       0.0032690992 -0.06996515 0.05208369 -0.0025176571
000130 b6 b6 3d bd 36 9d 24 3c ff f0 e8 bc 06 5b 87 bc
       -0.046316825 0.010047248 -0.028435228 -0.016522896
000140 52 a9 38 bd a8 b3 85 3c 70 4d e7 3c a6 76 2c 39
       -0.04508335 0.016321018 0.028235167 0.00016447398
000150 31 15 6d bc 83 bf 85 bd 98 02 1a bd 75 2e 39 bd
       -0.014470384 -0.065306686 -0.03760013 -0.04521032
000160 f7 dd 87 3d 06 96 f3 bd bc 89 f4 bd a2 51 5a bd
       0.06634133 -0.11893849 -0.11940333 -0.053300507
000170 f0 09 88 bd 82 86 a4 3c b3 43 43 bd 2d 7b a7 3c
       -0.066425204 0.02008367 -0.047671985 0.020444477
000180 77 4d 6b bc 41 50 48 bd a8 39 49 3d 8b 4e 9e 3d
       -0.014361731 -0.04890466 0.04912725 0.07729825
000190 8b f4 8b bd f3 70 b3 bc e4 cc 10 bd bf 50 fa bd
       -0.06833752 -0.021904444 -0.03535165 -0.12222432
0001a0 10 99 29 3c 79 b7 c9 bd 4f de 19 3c c1 3d 23 bd
       0.010351434 -0.09849448 0.009391381 -0.039853815
0001b0 bc 12 a4 bd 10 11 fa bd eb 1f 72 bd 07 0b 97 3c
       -0.08011386 -0.12210286 -0.05911247 0.018437875
0001c0 45 41 f0 3c 3b 9a 04 3d a7 54 25 bc c4 c0 05 3d
       0.029327998 0.032373648 -0.0100909835 0.03265454
0001d0 5c 16 ea 3c 31 7c 11 be b2 48 d1 bb c3 61 54 bd
       0.028575115 -0.14207532 -0.00638684 -0.051851045
0001e0 7a 7b 4a 3d cb f9 a0 bc ed 85 3d 3d 8d ad 8e bd
       0.049434163 -0.01965036 0.0462703 -0.06966696
0001f0 5e 26 4c 3c e8 56 ff bd d0 48 bc bd 35 a8 1b bd
       0.012460319 -0.12467748 -0.091935754 -0.03800221
000200 60 1d df bd f0 46 dd bd 90 df e6 bd 50 59 4d bd
       -0.10894275 -0.10804546 -0.1127311 -0.050134003
000210 4c 37 91 bc a2 ba b5 3c 27 23 9a 3d 15 5d a1 3a
       -0.017726563 0.02218372 0.07526236 0.0012311066
000220 ba 88 0d bc cb 9a 2c bd a2 a7 e7 bd 41 c3 9b 3d
       -0.008638555 -0.04213981 -0.1131127 0.07605601
000230 cf c5 4c 3d 90 37 5a bd c1 15 d9 bc 58 f8 30 3d
       0.049993332 -0.053275645 -0.02649963 0.04320559
000240 4d 03 92 bc 9e b8 10 bd 16 7b 94 bd c3 f4 58 bc
       -0.01782384 -0.035332315 -0.07250039 -0.0132419495
000250 dd da 32 bd 43 f0 d5 bd 57 78 da 3a 62 7b 95 bc
       -0.043665756 -0.10446217 0.0016667944 -0.01824731
000260 a0 99 81 3c 67 06 19 bd 5b 98 c6 bc 71 73 27 bd
       0.015820324 -0.03735962 -0.02424257 -0.040881578
000270 d0 91 8d 3d 72 0d c5 bd 1b 19 82 3a da 77 29 3c
       0.06912577 -0.09621705 0.0009925695 0.010343516
000280 c1 2b d3 bd 84 d7 e1 bd 32 c7 a7 bd 41 8a 2e bd
       -0.1031108 -0.110274345 -0.0819229 -0.042612318
000290 53 94 4c bd eb ae a9 bd d7 e0 1c bd 76 c0 8f 3d
       -0.04994614 -0.08285316 -0.03830036 0.07019131
0002a0 9c 29 ed bd c4 e9 02 3c 34 51 a9 3c 53 68 a1 bd
       -0.11580202 0.007990304 0.020668603 -0.078812264
0002b0 d9 e4 9a bd dc ee 5d 3d fc 47 f1 bc 64 f3 ed 3c
       -0.075631805 0.054182872 -0.02945327 0.029046722
0002c0 65 41 a2 bd bc 17 59 3d ad 57 64 3d 07 3a 53 bc
       -0.07922629 0.05300115 0.055747677 -0.012892253
0002d0 30 50 8b bd b7 57 76 3c 62 60 03 bc 84 8b a2 bd
       -0.06802404 0.015035561 -0.008018585 -0.07936767
0002e0 e2 c3 19 3d 74 50 88 3d df e3 0e bd 50 bb a2 bd
       0.037540324 0.0665597 -0.034885284 -0.07945883
0002f0 a7 45 2d bd 3a 15 d2 bd ac 3d 9b bd 87 e9 ca bc
       -0.042302754 -0.10257955 -0.07580122 -0.024769558
000300 81 b3 85 3a 04 dc c7 3c 6e 01 8c bc ec 43 e4 3c
       0.0010200591 0.024396904 -0.017090525 0.027864419
000310 64 87 97 bd cc 49 1a 3d d1 6e e5 bd d3 61 13 bd
       -0.073988706 0.037668034 -0.11202777 -0.035981964
000320 17 9c a5 3b 38 38 2f 3d 24 b4 c5 bc 86 2d 09 3d
       0.0050540078 0.042778224 -0.02413375 0.03349068
000330 a8 d1 4a bc 2c 4e 88 3d b1 60 a8 bd da 88 bf bd
       -0.0123790875 0.06655535 -0.082215674 -0.09352274
000340 ea 6e ab bc 13 5b 71 3c bd 33 a2 bd 1c 9a 51 bd
       -0.020926911 0.014731186 -0.079200245 -0.05117236
000350 e6 7b 4e bc 84 91 91 bd 2e 0e 88 bc 2f 1f d2 3c
       -0.012602782 -0.07107833 -0.016608324 0.025649635
000360 87 8c 37 bd f4 7a 69 bb c2 42 a3 bd 5e 55 d1 bc
       -0.04481175 -0.0035626264 -0.079717174 -0.025553402
000370 18 b5 05 3c ec 80 ea 3c de bb e8 bc 8b 0e 34 bd
       0.008160852 0.028625928 -0.028409895 -0.04395918
000380 7f ca b8 bd a0 12 2e bc 0b ec 1b bc bb 28 e2 3c
       -0.09022998 -0.010624558 -0.009516726 0.027607312
000390 b7 bc 5c 3d 09 ad 06 bd ce ea 97 bd 8f a3 4c 3d
       0.05389091 -0.032879863 -0.07417832 0.04996067
0003a0 36 65 40 3c 3d 62 ba 3c 0d a9 b5 bd 2e 78 8e bd
       0.011742881 0.022751922 -0.088701345 -0.06956516
0003b0 88 86 e5 bd 77 5c f6 bb 33 a8 90 bc ea af 8b bd
       -0.112073004 -0.007518347 -0.017658329 -0.06820662
0003c0 d6 04 c6 3c 53 9d 9d 3d 6b c7 35 3d 07 81 f5 bb
       0.024172228 0.07696023 0.044379633 -0.007492188
0003d0 41 06 a5 bd cf 0c a6 bc 37 6d 5b bd 0d 90 ca 3c
       -0.080578335 -0.02026978 -0.053570952 0.024726892
0003e0 c1 c6 d8 bc 70 99 4a 3d 6d 69 dc bd 37 56 55 3d
       -0.02646196 0.049462736 -0.10762296 0.052084174
0003f0 5a 9c b8 bd b9 91 32 bd 1f b5 7f bd 4d 47 75 3c
       -0.09014197 -0.043596003 -0.06242859 0.014970613

network.2.bias f4 [128]
000000 3f 3b fe bc 9a 5a 21 bd 3d 05 84 3d b4 79 82 3d
       -0.03103411 -0.039393045 0.064463116 0.06370869
000010 39 f3 ec 3e 9b af d4 bd 46 46 9f 3e 3f a2 04 3f
       0.46279314 -0.103850566 0.31108302 0.5181007
000020 67 c3 02 bf 0b 0b bb bc ee 3b 5f 3c c1 18 04 3e
       -0.5107941 -0.022832414 0.013625128 0.12900068
000030 d8 8a 61 bd e2 5b 36 3e 8a d5 d0 bd 04 1b fe 3e
       -0.055064052 0.17808488 -0.10196979 0.49629986
000040 59 18 2a 3e fb a2 1f bd 42 39 ca 3e 7e a4 19 3f
       0.1661085 -0.03897379 0.3949681 0.6001662
000050 7d 7f b2 bd 78 f4 95 be 45 0c b9 bc 5c 46 ca bb
       -0.08715723 -0.29288077 -0.022588858 -0.0061729383
000060 97 5e 28 3d 69 28 a3 3e 35 85 80 bd 3e 96 c2 3e
       0.041105833 0.31866768 -0.06275407 0.3800525
000070 1d 70 15 bd d6 15 68 3d bc a9 f4 bc 6c 85 cb 3e
       -0.036483873 0.05666145 -0.029866092 0.3975023
000080 be 3d a8 3e cf bf 57 3e a8 7d 8c bd a8 73 65 bf
       0.32859606 0.21069263 -0.068599045 -0.896296
000090 09 2f 03 bf c2 b4 44 bf 89 78 40 bd b2 ca 1f be
       -0.51243645 -0.76838315 -0.04698995 -0.15604666
0000a0 4a 6f d9 bd a2 a9 86 3d 64 9a 4f 3d 8c 68 e0 bd
       -0.1061693 0.06575324 0.050684348 -0.10957441
0000b0 13 40 14 3e 23 ad 49 3d e8 ab af bd fd 92 13 3e
       0.14477567 0.04923738 -0.085777104 0.1441154
0000c0 b3 55 5e 3d c4 55 96 3e a3 04 9d 3c 44 82 ba 3e
       0.054280948 0.2936231 0.01916725 0.3642751
0000d0 99 96 fc be 19 4c ab 3e e0 54 b0 bd 7a 17 3f bf
       -0.49333647 0.33456495 -0.086099386 -0.746452
0000e0 d6 a7 81 bd 13 b5 4e bf f6 2e f8 3e c7 1a 86 3d
       -0.0633084 -0.8074505 0.48473328 0.06548076
0000f0 e6 41 0c bf be d4 09 3d 2c 1d da bd aa 25 00 be
       -0.54788053 0.033650152 -0.10650095 -0.12514368
000100 f0 d0 99 bd fc 40 dc 3e e8 4c 5b bd 43 e8 90 3d
       -0.07510555 0.4301833 -0.05354014 0.070755504
000110 e5 5d 50 3d d6 67 a7 3d 52 2f 1f bd f1 7f 0f bd
       0.050870795 0.08174102 -0.038863488 -0.035034124
000120 20 13 69 3e 59 f2 2f 3b bb c3 c6 3e d0 55 9b bb
       0.22761202 0.0026847331 0.38821205 -0.0047404543
000130 02 ee 7c bd 31 fc 60 3e d6 b1 88 3e 36 96 0d 3f
       -0.06175042 0.21971203 0.26698178 0.5530733
000140 db 03 07 3d 78 42 09 3e e4 01 f9 3e 40 9f 35 3c
       0.03296266 0.13404262 0.48634255 0.011085331
000150 1a b3 79 3e 23 62 44 bd ca b0 16 bf ca 5d 3d bf
       0.24384728 -0.047945153 -0.5886351 -0.73971236
000160 17 9e 59 bd d1 21 b5 bf cf ef 97 bd 42 a4 0c 3f
       -0.05312928 -1.4150945 -0.07418787 0.5493814
000170 4d 45 ee bd 6b 74 24 3d 5f 38 9c bd b2 5d 41 bd
       -0.11634312 0.040150087 -0.076279394 -0.047208495
000180 cb b9 99 bd 62 b0 a7 bd 59 15 16 3e b1 59 36 bf
       -0.0750614 -0.08187939 0.14656581 -0.7123061
000190 9e 6e 39 bf 96 01 80 bd 63 57 e3 3e 7f c5 22 3c
       -0.72434413 -0.062503025 0.44402608 0.009934782
0001a0 47 ac 67 3e e8 94 d8 bd a1 4c ae bc eb f6 4e 3d
       0.22624312 -0.105752766 -0.021276774 0.050528448
0001b0 8a 76 96 3e 65 1e d4 bc 3d 3d 6f 3e 47 ef 1b 3f
       0.29387313 -0.0258934 0.23363204 0.60911983
0001c0 b1 fb c5 3e 85 f5 85 3e 87 bf e7 3c b1 16 d5 bd
       0.38668588 0.2616388 0.02828957 -0.10404719
0001d0 7b 56 42 bb bc c4 dd 3e d5 ef 8b 3e 1f 94 89 3e
       -0.0029653597 0.4331416 0.27331415 0.2687082
0001e0 b4 4c b4 3c a5 9a c2 3e 75 cd 51 bf 6e 7f 37 3c
       0.022009231 0.3800861 -0.8195413 0.011199815
0001f0 4f 0f a8 bf 84 2d 3d bf 7d e7 fc be 67 f3 a8 bd
       -1.3129672 -0.73897576 -0.49395362 -0.0824955
