modelos_s2/dqn_entorno3.pth (torch, 313597 bytes, 24 tensors)

network.0.weight f4 [128, 12]
0.0071764872 1.0750914 -1.4082304 0.49079812 1.4647195 -0.21627271 0.041326765 -13.993018
0.6045431 -0.17483477 -0.018131295 -0.01133484 0.17988533 0.02371803 -0.16601922 0.24187836
-0.06450124 -0.04096739 0.13832366 0.15950169 0.031072173 -0.24283014 0.25398064 -0.2255586
0.14208373 -0.19558375 -1.1164573 -0.64836925 -0.9276823 0.41759858 0.21103293 0.5118989
-0.9385752 0.46266425 -0.27940133 -0.40481225 0.3530815 1.0560637 -1.5434577 -0.49788976
1.7229593 0.417486 0.049582936 0.6399489 -0.56275743 0.07125722 0.2599661 0.3263835
-0.026720198 0.6440414 -1.8841207 -0.52602583 0.37613276 0.034869608 -0.37992838 0.8382247
0.532059 0.037712786 0.31595486 -0.27247453 -0.24071059 -0.2993156 -0.20277376 -1.2674098
0.62256676 -0.16878742 0.31465468 0.21526167 -1.010986 -0.44251472 -2.4557655 0.5303663
-0.18752186 -0.022643875 -0.20234111 -0.14473154 0.07289434 -0.08835691 0.107361436 0.21962686
-0.022674263 0.07246618 -0.26795813 -0.26163968 0.051750604 0.83949614 -1.3323591 -2.8788755
1.8022879 -0.5025613 -0.3771532 0.037209596 0.6563483 -0.70720243 -0.46683335 -0.051592983
-0.06705222 1.3895395 -0.45464066 -0.075387254 -0.10385245 -1.2432083 -0.02805625 -0.6902992
1.305516 -0.34317768 0.105179094 0.34077445 -0.2770225 -1.2505811 -2.0008752 4.791025
-1.9968798 0.3264514 0.616238 0.26981327 -0.11265862 -0.16542985 -0.30845308 0.26393896
0.31487036 0.23548377 -0.5174959 -0.7758309 -0.322474 -0.1245295 0.11094634 0.38163882
-0.65819854 -0.16875315 -0.1943263 0.12472563 -0.4317676 0.35928884 0.5334266 -1.1835774
-1.4312648 -0.6386282 0.63710386 0.26431534 0.4752866 -0.16168219 0.15352085 0.16073866
-1.3975039 -0.5095753 -0.29577628 -0.6606803 1.0707085 0.10958211 1.279148 -0.4753629
-1.4250609 -0.97358644 0.910153 0.32379806 0.17184329 -0.064006776 1.4721217 0.13337855
0.44241476 -0.83443594 0.18347415 0.10015951 0.7285899 -0.31923303 -0.87215924 0.34357378
0.18698774 0.19049442 -0.3961524 0.41913456 0.27569208 -0.3244687 -0.11171998 -16.376417
0.08448284 -0.29933378 -0.23657405 0.013350417 0.28365356 0.022937333 2.903141 0.56423444
0.8762746 -0.24838741 -0.04241625 -0.03189108 -0.2879739 0.108900525 0.08997217 -0.102695316
0.12858629 -0.12819761 0.1270818 0.031490393 0.0843478 0.08182015 0.15554452 -0.10145803
-0.016725013 -0.08160046 0.005382706 -0.13908325 0.0061003887 0.72335565 1.2580377 -1.0629449
0.46419737 0.26375517 -0.17121108 0.5589055 -1.3494203 0.34619868 0.4895197 -0.44253144
-0.026823549 0.55738205 2.1588295 0.2497704 -0.33287275 -0.22903737 0.21137777 0.35115972
-1.2340469 0.2181595 -0.31437245 -0.6755671 0.06873129 0.018044123 0.030494142 0.13232166
0.038164537 -0.018180054 0.04665279 -0.12714481 -0.267974 -0.045497004 -0.038599137 -0.124332055
0.032277647 0.35450575 -0.29586172 0.0076611284 0.5825149 0.028693106 -0.10687266 -16.40096
-0.0023450104 -0.24552134 0.014164444 -0.4722479 0.057978407 0.13304734 -2.2311673 -3.8821392
00000000: bd28 eb3b 989c 893f e540 b4bf e449 fb3e
00000010: ee7b bb3f 9876 5dbe 4146 293d 67e3 5fc1
00000020: 56c3 1a3f e307 33be 1588 94bc c4b5 39bc
00000030: dc33 383e 504c c23c f100 2abe f6ae 773e
00000040: 3a19 84bd 6ccd 27bd b8a4 0d3e 6954 233e
00000050: 128b fe3c 77a8 78be c009 823e d5f8 66be
00000060: 667e 113e 1b47 48be 13e8 8ebf 87fb 25bf
00000070: 967c 6dbf 7bcf d53e 0419 583e ce0b 033f
00000080: 7746 70bf 54e2 ec3e b10d 8fbe 8d43 cfbe
00000090: 19c7 b43e 182d 873f 0690 c5bf 68eb febe
000000a0: ee89 dc3f bac0 d53e 7a17 4b3d b1d3 233f
000000b0: df10 10bf 4eef 913d 471a 853e bd1b a73e
000000c0: 51e4 dabc e6df 243f de2a f1bf a1a9 06bf
000000d0: 7994 c03e 6fd3 0e3d f985 c2be e595 563f
000000e0: 0535 083f b978 1a3d d6c4 a13e c881 8bbe
000000f0: d67c 76be e53f 99be eda3 4fbe 7c3a a2bf
00000100: 8960 1f3f 9cd6 2cbe 6b1a a13e 8e6d 5c3e
00000110: fd67 81bf 4a91 e2be 432b 1dc0 16c6 073f
00000120: bb05 40be a67f b9bc 8232 4fbe 8134 14be
00000130: a149 953d 78f4 b4bd 50e0 db3d dde5 603e
00000140: 60bf b9bc 2669 943d cf31 89be a3f5 85be
00000150: 71f8 533d 38e9 563f be8a aabf 7f3f 38c0
00000160: 5fb1 e63f dba7 00bf 391a c1be 1769 183d
00000170: 7106 283f 380b 35bf c804 efbe 2a53 53bd
00000180: ad52 89bd 6edc b13f a9c6 e8be a264 9abd
00000190: 98b0 d4bd 7321 9fbf 39d6 e5bc 73b7 30bf
000001a0: 261b a73f fcb4 afbe 2368 d73d fd79 ae3e
000001b0: e5d5 8dbe 0b13 a0bf 570e 00c0 1450 9940
000001c0: c299 ffbf a324 a73e c6c1 1d3f f724 8a3e
000001d0: 90b9 e6bd 7166 29be 90ed 9dbe 0223 873e
000001e0: b036 a13e a822 713e 9c7a 04bf db9c 46bf
000001f0: 501b a5be 5309 ffbd d637 e33d 2a66 c33e
00000200: b37f 28bf a0cd 2cbe 79fd 46be 2770 ff3d
00000210: a510 ddbe b5f4 b73e a58e 083f 777f 97bf
00000220: af33 b7bf 237d 23bf 3d19 233f 5754 873e
00000230: c458 f33e 0490 25be 9234 1d3e ad98 243e
00000240: 68e1 b2bf 8773 02bf fd6f 97be 5822 29bf
00000250: fa0c 893f 966c e03d 1fbb a33f c462 f3be
00000260: 6568 b6bf f63c 79bf c9ff 683f dcc8 a53e
00000270: b0f7 2f3e fc15 83bd 7c6e bc3f 6394 083e
00000280: 3084 e23e 989d 55bf a6e0 3b3e 6e20 cd3d
00000290: de84 3a3f 8372 a3be d445 5fbf e7e8 af3e
000002a0: b779 3f3e f810 433e 7dd4 cabe ce98 d63e
000002b0: 8327 8d3e c320 a6be 72cd e4bd e702 83c1
000002c0: 5705 ad3d 4742 99be 7840 72be b5bb 5a3c
000002d0: 0a3b 913e 13e7 bb3c 10cd 3940 ab71 103f
000002e0: 8853 603f 4559 7ebe a9bc 2dbd 39a0 02bd
000002f0: 5171 93be 3d07 df3d 5443 b83d ec51 d2bd
00000300: 20ac 033e 3c46 03be bb21 023e 12fc 003d
00000310: 8abe ac3d 5391 a73d 1047 1f3e 3ac9 cfbd
00000320: e502 89bc 241e a7bd 6961 b03b d76b 0ebe
00000330: c5e5 c73b d62d 393f 6107 a13f 940e 88bf
00000340: 47ab ed3e eb0a 873e f551 2fbe 6e14 0f3f
00000350: ceb9 acbf f440 b13e 53a2 fa3e 7b93 e2be
00000360: 0fbd dbbc 97b0 0e3f 432a 0a40 d0c3 7f3e
00000370: 4c6e aabe c688 6abe 6a73 583e 35cb b33e
00000380: 40f5 9dbf 3465 5f3e 6df5 a0be f7f1 2cbf
00000390: fec2 8c3d 45d1 933c dace f93c 547f 073e
000003a0: 6b52 1c3d 56ee 94bc ff16 3f3d 4032 02be
000003b0: e333 89be 115b 3abd 211a 1ebd cea1 febd
000003c0: 9135 043d c781 b53e 307b 97be 340a fb3b
000003d0: b21f 153f ce0d eb3c 0ee0 dabd 2b35 83c1
000003e0: bfae 19bb f269 7bbe fc11 683c 7aca f1be
000003f0: c47a 6d3d 903d 083e 72cb 0ec0 f874 78c0

network.0.bias f4 [128]
-0.60624737 -0.23821409 0.4962863 1.1256938 1.0191456 0.18047708 -0.30294108 0.17990175
0.07458606 0.037619364 0.75339735 0.12527995 -0.5331381 0.2594846 -0.6391878 0.339785
-0.15174673 0.5651199 0.69153565 -0.061302096 -0.7509132 0.37750915 0.3043984 -0.20413871
0.13269873 0.683923 0.7500039 -0.060593534 0.9580063 0.83770245 0.28191626 -0.26550543
0.0025029122 -0.3190882 -0.5361755 -0.061824158 0.97183686 0.09117465 -1.1096461 -0.40684724
-0.5171601 -0.2881807 0.6973926 -0.88047206 -0.20108645 -0.079617895 0.11162183 -0.18702425
0.64241487 0.85700405 -0.17177808 -0.44097626 0.45635435 -0.9023687 -0.1498177 0.8241436
-0.576766 0.517112 -0.12926155 -0.50522715 -0.80483 0.39084557 -0.72747135 0.13485393
0.7364893 -0.23831987 -0.19987217 -0.10592192 -0.39552483 -0.11263674 0.23236644 -0.21012472
-0.42700878 0.8111331 -0.7294938 -0.008302324 -1.3487655 -0.7913971 0.5872686 0.09389228
-0.31619555 0.096881084 0.2302283 0.1657758 0.2628192 -0.116490036 0.5462039 0.14864092
0.29706186 -0.07864685 0.944999 -0.5400115 0.39772886 0.21539465 -0.7590148 0.7407683
0.85475403 -0.08584725 -0.23920158 0.4074729 0.5406812 -0.056572054 -0.19044732 0.34591034
-0.016595274 0.13131145 -0.26959968 0.17207819 -0.13078408 -0.6121647 0.82621014 -0.386553
0.08207329 -0.9022218 -0.37176844 0.5572616 0.03454056 -0.27645403 0.6139788 0.3296303
-0.94882274 0.0072803837 -0.20738459 -0.09528659 -0.72320646 -0.14818673 1.0900421 0.049536806
00000000: 0733 1bbf 65ee 73be 3d19 fe3e bc16 903f
00000010: 5d73 823f fcce 383e 181b 9bbe 2a38 383e
00000020: 94c0 983d c316 1a3d a6de 403f 6349 003e
00000030: bd7b 08bf 2adb 843e d0a1 23bf 4df8 ad3e
00000040: 7f63 1bbe b3ab 103f 7b08 313f e817 7bbd
00000050: d93b 40bf e148 c13e 1bda 9b3e bd09 51be
00000060: 2de2 073e 9415 2f3f 4100 403f ed30 78bd
00000070: e73f 753f ab73 563f 5457 903e 54f0 87be
00000080: e607 243b 875f a3be cc42 09bf 543b 7dbd
00000090: 4dca 783f c6b9 ba3d e208 8ebf 484e d0be
000000a0: 9b64 04bf 6c8c 93be 5288 323f 9e66 61bf
000000b0: 9be9 4dbe b50e a3bd fc99 e43d 4983 3fbe
000000c0: 4d75 243f 9e64 5b3f 98e6 2fbe a4c7 e1be
000000d0: 47a7 e93e a301 67bf d069 19be 13fb 523f
000000e0: f0a6 13bf 7461 043f 245d 04be 9156 01bf
000000f0: 5709 4ebf e91c c83e 903b 3abf 2617 0a3e
00000100: 908a 3c3f 200a 74be 4aab 4cbe 97ed d8bd
00000110: 3b82 cabe 17ae e6bd 78f1 6d3e ef2a 57be
00000120: e5a0 dabe 6ba6 4f3f 1bc0 3abf 7906 08bc
00000130: 59a4 acbf 0099 4abf 3c57 163f 984a c03d
00000140: 62e4 a1be 9769 c63d f8c0 6b3e 22c1 293e
00000150: 3d90 863e 5492 eebd 05d4 0b3f 5335 183e
00000160: 7e18 983e 9a11 a1bd 74eb 713f 323e 0abf
00000170: 1ea3 cb3e 6a90 5c3e cb4e 42bf fea2 3d3f
00000180: 29d1 5a3f afd0 afbd 42f1 74be 4aa0 d03e
00000190: 156a 0a3f 19b8 67bd 9f04 43be 291b b13e
000001a0: d0f2 87bc 8276 063e f808 8abe 4435 303e
000001b0: 43ec 05be d3b6 1cbf 8282 533f 46ea c5be
000001c0: 0b16 a83d 02f8 66bf 6f58 bebe b2a8 0e3f
000001d0: 677a 0d3d 628b 8dbe b72d 1d3f 4dc5 a83e
000001e0: 0ce6 72bf 4990 ee3b a05c 54be 9e25 c3bd
000001f0: 0f24 39bf 43be 17be 8086 8b3f 1be7 4a3d

network.2.weight f4 [128, 128]
-4.47958 -0.054615036 -0.1890029 -0.21319528 -0.1446869 -1.4299259 -0.021171616 -1.8898658
0.12589242 -0.51800275 0.0730812 0.3627627 1.375357 -1.1604728 -2.960878 0.57247204
-0.074254684 0.3517194 0.6424802 -0.042819407 -2.3763146 -2.4601793 -1.5761042 0.011158209
0.79549795 -0.5471169 -0.13142422 -0.5589171 -0.20777637 0.26769665 0.3093985 0.113564916
-1.077851 1.3584697 -0.006171972 0.7219619 -0.07248545 -0.4343299 -0.64663 -1.89276
-0.56978077 -0.017383456 0.112602435 -2.4844832 -2.307849 -0.035291787 -0.5059131 0.8198666
0.0035334702 -0.39060462 -1.655519 -1.0127724 -0.060767323 0.81929386 -0.01656326 -0.03689652
-0.29854718 -0.20635583 0.69039965 1.0308236 -2.1536868 -1.6780317 0.17241745 -1.6290615
0.051317964 0.056698512 0.054053593 -0.036815472 0.8382501 -0.11819947 -1.1424546 0.13651401
-0.41072014 -0.26139206 -1.5511245 -0.9802513 -0.021599842 0.3944814 -0.1236793 -0.24011843
-2.3901148 -1.1433662 1.2458096 0.21376866 0.5590225 -0.0041938117 -0.20193715 1.4076992
-0.082645275 0.878044 -1.7825582 -0.45889196 -0.068655245 -0.26437682 0.91619134 -0.1423961
0.27479714 -1.8869224 0.07158101 0.12843879 0.2676883 -0.8330404 0.02531856 0.41689247
-0.49052987 0.13149963 -0.051991254 -3.0703561 0.903248 1.53442 -0.013052956 -0.4153936
-0.07705855 -0.9229476 0.60455984 -0.1501885 -0.43508133 -0.7568134 -0.40709108 -2.1725495
-2.15748 0.59385926 0.049170535 -0.29184574 -0.8606478 0.018407783 -0.40469742 0.42509335
1.5199468 -0.037986416 -3.4388747 -0.570365 0.15644911 -1.1074746 0.057445798 -0.24590829
-2.2929325 2.0818818 -0.062007036 0.3186149 -3.2156413 0.2097861 1.6492282 -2.151287
0.011647798 -4.2792425 0.6083532 -0.07548763 0.8831193 -0.17831251 0.012058495 0.0405834
-1.512131 -0.90625477 0.05901976 -0.8464156 0.101581395 -2.9916284 0.3344976 -0.03786711
0.7963934 0.37883082 -1.5167278 1.2315346 -0.8683846 -14.021367 -0.63098866 0.3512552
0.63534737 0.016709877 -0.2667244 1.5350854 0.71524304 -0.023876008 -0.50110835 0.043954503
-3.0003736 0.602109 0.72160935 0.31922343 -0.0057421797 -0.009172901 -0.09210167 0.7286667
-4.604888 -0.8629863 0.46541524 0.33667108 -2.7495525 -3.578496 0.25589365 0.2109144
-3.748658 0.0098152 -3.172923 0.035873227 0.62652093 -0.33644766 -0.38810995 -0.004841045
2.6719964 -0.22953719 1.4944149 0.04864904 0.16121227 -0.09795097 0.396488 -1.1508499
-0.1867272 0.3278186 2.3549156 -1.9750137 -0.28534254 0.05724048 0.37296575 -0.54909307
-0.22237816 -0.0645813 -0.091881014 -3.612684 0.6127926 0.19447081 0.48355475 -0.3154716
0.043520574 -1.9528009 -0.022374345 0.25988308 -0.53771454 1.8482518 -0.000266779 -0.14480758
-6.642367 0.16663574 -0.04514663 0.093541116 -0.37509397 0.7050283 0.08524157 -0.8617327
-0.0049162083 3.3229706 0.7985334 -1.2969574 -0.5115083 0.44873038 0.011858258 -0.24767444
1.2557575 0.6103543 -0.035608113 -0.4274742 -0.7101733 -0.047229685 0.195462 -3.1185172
00000000: b858 8fc0 04b4 5fbd fa89 41be dd4f 5abe
00000010: cd28 14be d007 b7bf 1970 adbc 1fe7 f1bf
00000020: f1e9 003e d49b 04bf 99ab 953d 08bc b93e
00000030: b30b b03f 5f8a 94bf 067f 3dc0 878d 123f
00000040: d712 98bd 9114 b43e 9579 243f 6763 2fbd
00000050: 8a15 18c0 9473 1dc0 c8bd c9bf ecd0 363c
00000060: c1a5 4b3f da0f 0cbf 1294 06be 3115 0fbf
00000070: 54c3 54be 890f 893e 7b69 9e3e b994 e83d
00000080: 06f7 89bf 56e2 ad3f 413e cabb 7fd2 383f
00000090: 4073 94bd 7d60 debe 8b89 25bf f645 f2bf
000000a0: 27dd 11bf c067 8ebc 1b9c e63d c601 1fc0
000000b0: ccb3 13c0 1f8e 10bd 8583 01bf c7e2 513f
000000c0: cb91 673b 54fd c7be 0ce8 d3bf 87a2 81bf
000000d0: 28e7 78bd 3ebd 513f adaf 87bc ce20 17bd
000000e0: 2ddb 98be f14e 53be 08be 303f 07f2 833f
000000f0: 01d6 09c0 bec9 d6bf 338e 303e 1685 d0bf
00000100: c932 523d b33c 683d 4d67 5d3d d2cb 16bd
00000110: 8f97 563f 9012 f2bd f43b 92bf 54ca 0b3e
00000120: e949 d2be 2ed5 85be 3f8b c6bf c0f1 7abf
00000130: 27f2 b0bc 77f9 c93e 934b fdbd 9be1 75be
00000140: a4f7 18c0 d359 92bf b076 9f3f 2ce6 5a3e
00000150: 191c 0f3f 3e6c 89bb 9dc8 4ebe 7d2f b43f
00000160: ed41 a9bd 7ec7 603f de2a e4bf e3f3 eabe
00000170: 1f9b 8cbd 665c 87be 848b 6a3f 49d0 11be
00000180: 36b2 8c3e ac86 f1bf 1199 923d 7585 033e
00000190: 710e 893e 2342 55bf de68 cf3c ee72 d53e
000001a0: bb26 fbbe d7a7 063e c8f4 54bd b780 44c0
000001b0: 433b 673f e067 c43f 11dc 55bc 78ae d4be
000001c0: e0d0 9dbd 4b46 6cbf 6fc4 1a3f 04cb 19be
000001d0: fbc2 debe 86be 41bf 3e6e d0be 0d0b 0bc0
000001e0: 2714 0ac0 2907 183f 0b67 493d ce6c 95be
000001f0: 6a53 5cbf ebcb 963c 8034 cfbe d6a5 d93e
00000200: 9e8d c23f a597 1bbd 8616 5cc0 7103 12bf
00000210: 3234 203e bac1 8dbf 494c 6b3d 62cf 7bbe
00000220: 68bf 12c0 8d3d 0540 17fb 7dbd 7e21 a33e
00000230: 11cd 4dc0 2bd2 563e e919 d33f b0ae 09c0
00000240: 68d6 3e3c 8eef 88c0 09bd 1b3f 4299 9abd
00000250: 1b14 623f 8e97 36be fe90 453c c73a 263d
00000260: 828d c1bf 5000 68bf b4be 713d b1ae 58bf
00000270: e809 d03d d776 3fc0 4543 ab3e 8b1a 1bbd
00000280: 70e0 4b3f 1df6 c13e 2324 c2bf eda2 9d3f
00000290: 744e 5ebf 8557 60c1 7988 21bf b9d7 b33e
000002a0: 20a6 223f 27e3 883c 1a90 88be ae7d c43f
000002b0: 2b1a 373f 9e97 c3bc a348 00bf a309 343d
000002c0: 1f06 40c0 d123 1a3f 64bb 383f 4171 a33e
000002d0: e528 bcbb ef49 16bc cd9f bcbd e789 3a3f
000002e0: 3e5b 93c0 acec 5cbf e84a ee3e 2760 ac3e
000002f0: abf8 2fc0 1406 65c0 7e04 833e f2f9 573e
00000300: 03ea 6fc0 efcf 203c 2c11 4bc0 ceef 123d
00000310: ad63 203f de42 acbe 59b6 c6be a1a1 9ebb
00000320: fd01 2b40 cc0b 6bbe fd48 bf3f 3744 473d
00000330: d414 253e 859a c8bd 7a00 cb3e 0d4f 93bf
00000340: 6a35 3fbe d7d7 a73e f0b6 1640 40cd fcbf
00000350: 6b18 92be fe74 6a3d 5ef5 be3e 5d91 0cbf
00000360: 1ab7 63be 3343 84bd 1d2c bcbd 3736 67c0
00000370: fadf 1c3f 5b23 473e 7d94 f73e 7e85 a1be
00000380: a142 323d 61f5 f9bf 674a b7bc 650f 853e
00000390: a9a7 09bf 8493 ec3f 79de 8bb9 7048 14be
000003a0: 458e d4c0 8fa2 2a3e aceb 38bd 7c92 bf3d
000003b0: 510c c0be bc7c 343f 2293 ae3d 849a 5cbf
000003c0: 2518 a1bb 8dab 5440 af6c 4c3f b302 a6bf
000003d0: 35f2 02bf fdbf e53e 2449 423c 5e9e 7dbe
000003e0: a9bc a03f 2e40 1c3f d0d9 11bd e6dd dabe
000003f0: ebcd 35bf ea73 41bd 3127 483e c995 47c0

network.2.bias f4 [128]
-0.13682546 0.016475173 -0.008967617 -0.05225352 0.5062379 -0.027507164 -0.15623814 0.8270817
-0.08404058 -0.04663871 1.2454925 0.5715026 0.73771495 -0.06480768 -0.08590243 0.57659435
-0.081681624 0.006674728 -0.4409322 0.016191864 -0.057308387 -0.044089917 -0.24470553 -0.37465858
-0.19316155 0.34555274 -0.06414164 -0.07571856 0.009977085 -0.12358545 0.8558483 -0.064315155
-0.10258269 -0.06300953 0.8581068 1.2031511 -0.04284222 -0.06928269 1.1321979 -0.024692321
-0.08790395 0.013933028 0.030625273 0.011350375 0.56711596 0.07633255 0.22132519 -0.1512794
0.14833677 -0.09567509 0.023368828 -0.099493 -0.072623424 -0.06290173 -0.72295654 -0.48678222
0.44173038 -0.043520954 -0.025508378 -0.11092508 -0.110451974 -0.120853424 0.24352828 -0.105037354
-0.10207302 0.94999975 -0.00624964 -0.3728494 0.9285298 -0.8327944 -0.038699117 0.21011592
0.37504533 -0.21546695 -0.047193784 0.65944695 0.8838647 -0.012822949 -0.056746595 -0.08712822
-0.010325029 -0.09085292 -0.33859453 -0.097116925 0.105335884 -0.41495633 -0.10533026 -0.117395304
1.3138827 0.056073047 0.05997459 0.048574954 0.003732765 -0.06320495 -0.083706826 -0.05104112
0.11094344 -0.05121567 0.043458674 0.25278544 -0.2883572 0.0019249924 -0.2884702 -0.51300806
-0.056978624 -0.029632661 -0.12778948 0.003431143 1.1988751 -0.31420076 0.30006146 -0.020094912
-0.057817325 0.7031363 -0.4286139 1.206319 -0.13397594 -0.086904526 -0.10875029 -0.13046853
-0.9193967 -0.15087925 -0.5161394 -0.019210873 0.27069026 -0.116603486 0.03315375 -0.080824405
00000000: f91b 0cbe f1f6 863c e9ec 12bc c907 56bd
00000010: cf98 013f b456 e1bc e4fc 1fbe a0bb 533f
00000020: 781d acbd 3b08 3fbd 4c6c 9f3f ff4d 123f
00000030: e3da 3c3f e4b9 84bd 9ded afbd b09b 133f
00000040: b248 a7bd adb7 da3b dec1 e1be cda4 843c
00000050: 33bc 6abd a197 34bd 1694 7abe 40d3 bfbe
00000060: 24cc 45be 4aec b03e b15c 83bd 5512 9bbd
00000070: ed76 233c 5e1a fdbd e018 5b3f aab7 83bd
00000080: e016 d2bd 240b 81bd e3ac 5b3f db00 9a3f
00000090: 537b 2fbd 15e4 8dbd dceb 903f 8d47 cabc
000000a0: fc06 b4bd 5b47 643c dae1 fa3c ecf6 393c
000000b0: 832e 113f 3d54 9c3d 12a3 623e fde8 1abe
000000c0: 98e5 173e 4df1 c3bd fc6f bf3c fcc2 cbbd
000000d0: 97bb 94bd 9fd2 80bd ae13 39bf 853b f9be
000000e0: 7c2a e23e 0743 32bd f2f6 d0bc b02c e3bd
000000f0: a534 e2bd 0082 f7bd 7a5f 793e d31d d7bd
00000100: a90b d1bd 2f33 733f c8c9 ccbb 1ee6 bebe
00000110: 21b4 6d3f 0432 55bf f782 1ebd a128 573e
00000120: f105 c03e 5ea3 5cbe 454e 41bd 84d1 283f
00000130: f544 623f 5917 52bc 1e6f 68bd 4870 b2bd
00000140: 4f2a 29bc 1911 babd 435c adbe 3de5 c6bd
00000150: 57ba d73d 2875 d4be 64b7 d7bd f36c f0bd
00000160: 4f2d a83f daac 653d eaa7 753d 88f6 463d
00000170: 68a1 743b 9971 81bd 7c6e abbd 7e10 51bd
00000180: 5036 e33d 86c7 51bd b901 323d 186d 813e
00000190: 8ea3 93be 0750 fc3a 5eb2 93be 7f54 03bf
000001a0: 6b62 69bd 32c0 f2bc 3fdb 02be 07dd 603b
000001b0: bd74 993f ecde a0be a8a1 993e 169e a4bc
000001c0: dcd1 6cbd be00 343f 4873 dbbe a968 9a3f
000001d0: fd30 09be 00fb b1bd 79b8 debd 8b99 05be
000001e0: 955d 6bbf 1780 1abe b621 04bf 1f60 9dbc
000001f0: ea97 8a3e cfcd eebd 3acc 073d 4487 a5bd

network.4.weight f4 [6, 128]
0.33908206 0.19951059 -0.082874626 0.06708429 0.7978699 -2.7434464 -1.2224334 0.6976737
0.020719085 -0.038937226 0.8563287 -0.1660497 0.64953387 0.06426686 -0.0689536 1.0014143
-0.00018303547 -6.4855747 0.08071832 -0.0034662401 -0.017226625 -1.9103645 3.318101 -0.5270112
-3.4297247 0.6895314 -0.032364294 0.00017770164 0.0084233 0.7531028 0.56909525 -0.009179073
0.07418971 0.058574215 1.4310327 0.24280739 -0.015929801 0.0010834528 0.2998167 -2.587268
-0.026038744 0.062084973 -0.05151854 0.07516157 0.11476121 0.5688055 0.122498065 -0.23662816
-0.137568 -0.022605702 0.07329129 0.038719717 -0.069242015 -0.0086007295 -0.18668787 0.01754341
0.17623906 -0.026934724 0.07915275 -0.017592963 0.0035882245 0.0039166855 0.8044131 -1.624563
-0.049320832 0.12339553 0.21798556 0.21937591 1.0498953 0.04730896 -0.04691516 -0.14720939
0.1064934 -2.077133 -0.018270984 0.87202245 1.4403814 -0.035155404 0.03321156 -0.06728302
-0.07052521 -0.48732033 -0.5315702 -0.07452014 0.15764749 -1.2362972 -0.09325886 0.06321002
0.79637825 0.6458975 -0.018440438 0.13926528 -4.32889 0.010163321 -0.08361327 0.025509996
1.199404 -0.0056583514 -0.047134176 0.42261198 -0.021561937 0.02761214 -0.706232 1.0287429
0.049114697 0.054873437 0.068890475 -0.02389812 1.0035294 -1.6553711 1.0252262 -0.021336379
0.022198081 3.3477836 -3.1860025 1.104308 -0.047794484 0.085592374 -0.037997786 0.0780501
-0.033246662 -1.2547942 -0.2834465 -0.013487896 0.202041 0.01929864 -2.2808414 0.0087220585
-0.1966678 0.16269733 -0.049752485 -0.020179465 0.97489136 0.30907896 -0.8414617 0.3420787
-0.07044188 0.07210913 0.8698492 1.2591287 0.29609296 0.009247147 0.027366221 -0.018172896
-0.09206916 -0.11481933 -0.7768166 0.027416954 0.05847481 -1.8888131 3.3599281 -0.39318287
0.27320772 0.83410376 -0.044435892 0.085203126 0.05593074 1.6257061 0.3953251 0.050194144
0.0767075 0.102592625 0.38144964 1.2728562 0.06961889 0.07602972 0.32157946 -1.2618656
0.056359705 -0.059878636 0.036357567 0.060643297 0.5956952 2.5486734 -0.019958964 0.5009894
0.3887736 0.029876709 -0.015096195 -0.018948928 -0.024386263 0.0013083813 -0.12326309 -0.2770686
0.5177335 0.054667022 0.37788844 -0.04659139 -0.10578846 0.04949017 0.033976335 -0.4106707
0.029038282 0.7714393 0.14840221 0.33136827 0.5708168 0.27403572 0.11539265 0.24247397
1.1967645 -0.8112002 -0.0016278435 0.26563886 0.6663992 0.051004224 -0.0713675 0.023623535
-0.006570032 -0.11597283 -0.6050313 0.20290895 -0.5693779 -0.72302866 -0.020828504 0.0005567999
1.4005686 1.692465 0.05824494 0.46380213 -0.19626732 -0.030639004 -0.5033411 0.05946065
0.47826812 -0.005603149 -0.10140753 1.0196527 -0.08080365 0.04346388 -0.51644343 -0.83072126
0.04279096 0.0031675012 0.088193245 -0.0545245 0.47851914 -3.3094823 -0.18625836 0.078242324
-0.08174811 2.0100284 -1.020039 0.8413045 0.073951304 -0.069074504 0.03163873 0.058442067
-0.21109591 -1.8376658 -2.1552715 0.02520899 0.011615162 0.080486655 -1.1683242 -0.03658693
00000000: 2a9c ad3e 814c 4c3e 2cba a9bd 7d63 893d
00000010: 3441 4c3f a094 2fc0 b378 9cbf be9a 323f
00000020: 12bb a93c a47c 1fbd 5c38 5b3f ef08 2abe
00000030: da47 263f 589e 833d 8c37 8dbd 582e 803f
00000040: 36ed 3fb9 d489 cfc0 a64f a53d dc29 63bb
00000050: da1e 8dbc d386 f4bf c45b 5440 35ea 06bf
00000060: 9c80 5bc0 2185 303f 6c90 04bd 6c55 3a39
00000070: e201 0a3c 58cb 403f 3ab0 113f d363 16bc
00000080: c6f0 973d 84eb 6f3d 142c b73f 80a2 783e
00000090: 377f 82bc a502 8e3a 9381 993e cd95 25c0
000000a0: 344f d5bc d04c 7e3d 1b05 53bd 4fee 993d
000000b0: ed07 eb3d 3d9d 113f 44e0 fa3d a74e 72be
000000c0: a0de 0cbe 982f b9bc be19 963d 9198 1e3d
000000d0: c2ce 8dbd 13ea 0cbc 1b2b 3fbe 33b7 8f3c
000000e0: 0378 343e 36a6 dcbc d61a a23d 1e1f 90bc
000000f0: 6b28 6b3b 8a57 803b 04ee 4d3f aef1 cfbf
00000100: a404 4abd ccb6 fc3d 9b37 5f3e 14a4 603e
00000110: f862 863f 0ac7 413d 1c2a 40bd 0fbe 16be
00000120: 3619 da3d bfef 04c0 08ad 95bc dd3c 5f3f
00000130: 6b5e b83f 1dff 0fbd d808 083d aecb 89bd
00000140: 856f 90bd 0d82 f9be fc14 08bf 049e 98bd
00000150: 586e 213e fd3e 9ebf 80fe bebd 4174 813d
00000160: 72df 4b3f 8a59 253f 6710 97bc 8f9b 0e3e
00000170: 4486 8ac0 0f84 263c 6f3d abbd 57fa d03c
00000180: 1286 993f b169 b9bb c40f 41bd 9960 d83e
00000190: a9a2 b0bc db32 e23c 9fcb 34bf d9ad 833f
000001a0: 7e2c 493d f8c2 603d 7316 8d3d fdc5 c3bc
000001b0: a773 803f 33e3 d3bf 9d3a 833f a1c9 aebc
000001c0: c0d8 b53c 1642 5640 77e7 4bc0 f759 8d3f
000001d0: 26c4 43bd 0e4b af3d 91a3 1bbd bbd8 9f3d
000001e0: a72d 08bd 199d a0bf e61f 91be 56fc 5cbc
000001f0: d6e3 4e3e 2e18 9e3c 4ef9 11c0 f7e6 0e3c
00000200: 4963 49be 219a 263e 43c9 4bbd 684f a5bc
00000210: 7b92 793f 993f 9e3e 096a 57bf f024 af3e
00000220: d543 90bd f4ad 933d 70ae 5e3f 212b a13f
00000230: 7f99 973e 5881 173c 202f e03c 53df 94bc
00000240: c18e bcbd 6626 ebbd 74dd 46bf 8599 e03c
00000250: 4883 6f3d a1c4 f1bf 1009 5740 444f c9be
00000260: e2e1 8b3e d387 553f 6902 36bd fa7e ae3d
00000270: a217 653d 2317 d03f 0d68 ca3e 6098 4d3d
00000280: d218 9d3d 151c d23d 5e4d c33e f4ec a23f
00000290: 5994 8e3d 78b5 9b3d 10a6 a43e d084 a1bf
000002a0: 6fd9 663d 4d43 75bd aceb 143d 1b65 783d
000002b0: 7b7f 183f 771d 2340 fb80 a3bc d740 003f
000002c0: 550d c73e 00c0 f43c 0856 77bc c83a 9bbc
000002d0: b3c5 c7bc fe7d ab3a 5c71 fcbd efdb 8dbe
000002e0: 2f8a 043f 87ea 5f3d 987a c13e 9dd6 3ebd
000002f0: 9fa7 d8bd 34b6 4a3d c52a 0b3d 6e43 d2be
00000300: b1e1 ed3c 0c7d 453f c0f6 173e 1aa9 a93e
00000310: 0d21 123f 694e 8c3e fb52 ec3d 194b 783e
00000320: 942f 993f d1aa 4fbf 5d5d d5ba d101 883e
00000330: 2399 2a3f cee9 503d 2029 92bd 2586 c13c
00000340: 6c49 d7bb 2a83 edbd 55e3 1abf 5dc7 4f3e
00000350: c0c2 11bf 6818 39bf 8aa0 aabc 35f6 113a
00000360: d545 b33f b1a2 d83f 3f92 6e3d 7977 ed3e
00000370: 4dfa 48be a6fe fabc f6da 00bf 038d 733d
00000380: 8fdf f43e 9f9a b7bb c0ae cfbd fb83 823f
00000390: 627c a5bd 2e07 323d a335 04bf 26aa 54bf
000003a0: 9345 2f3d da95 4f3b a99e b43d 1555 5fbd
000003b0: 7600 f53e 8fce 53c0 83ba 3ebe 833d a03d
000003c0: 8e6b a7bd 4ea4 0040 a390 82bf bb5f 573f
000003d0: c873 973d ef76 8dbd 9d97 013d f360 6f3d
000003e0: 8729 58be a238 ebbf f8ef 09c0 1583 ce3c
000003f0: 854d 3e3c 30d6 a43d a68b 95bf 2ddc 15bd

network.4.bias f4 [6]
0.85441464 0.83991706 0.41104352 0.70559984 0.48819578 0.99126375
00000000: ebba 5a3f ce04 573f 4c74 d23e 31a2 343f
00000010: ccf4 f93e 76c3 7d3f

network.0.weight f4 [128, 12]
0.017917737 1.0794444 -1.4082304 0.49079812 1.4647195 -0.21415147 0.03058552 -13.988497
0.60891575 -0.16681238 -0.01653482 -0.009661053 0.17988533 0.02371803 -0.16601922 0.24187836
-0.06450124 -0.04096739 0.13832366 0.15950169 0.031072173 -0.24283014 0.25398064 -0.2255586
0.14099516 -0.19630812 -1.1185443 -0.64759946 -0.92622536 0.4181089 0.2121215 0.5125191
-0.938009 0.46280494 -0.27740225 -0.40376085 0.3541549 1.0580688 -1.5440264 -0.49763492
1.7214241 0.41600582 0.048509464 0.6388412 -0.5622583 0.07166851 0.2619579 0.32587638
-0.02624769 0.64447695 -1.8846234 -0.52527493 0.37536842 0.03404165 -0.38040093 0.8380152
0.53188443 0.037677404 0.31732047 -0.27216876 -0.24890564 -0.3018429 -0.19506471 -1.2689072
0.6254282 -0.16596991 0.32284996 0.21746051 -1.010986 -0.44261393 -2.4460814 0.5351381
-0.18752186 -0.022643875 -0.20234111 -0.14473154 0.07289434 -0.08835691 0.107361436 0.21962686
-0.022674263 0.07246618 -0.26795813 -0.26163968 0.048397627 0.83647025 -1.3388081 -2.8717802
1.8069746 -0.5001949 -0.37380013 0.041249737 0.65838253 -0.7093997 -0.467354 -0.04920785
-0.06557903 1.3814042 -0.45888022 -0.065804444 -0.10076053 -1.2420603 -0.029529423 -0.68503094
1.3067405 -0.34377608 0.09905601 0.33882025 -0.27579328 -1.2527224 -1.993611 4.8000493
-1.9940007 0.32463348 0.61500883 0.26779863 -0.11736944 -0.16821823 -0.30393383 0.26325443
0.31541634 0.23507148 -0.51745486 -0.7758471 -0.32315382 -0.12539643 0.11040016 0.38138473
-0.65817887 -0.16886134 -0.19299582 0.1245894 -0.42505136 0.35716715 0.5398426 -1.1786153
-1.4398494 -0.63927513 0.6303877 0.26607087 0.4739708 -0.15993133 0.15178749 0.15865634
-1.3919404 -0.52059615 -0.29392126 -0.6577646 1.0638084 0.108765975 1.2735845 -0.47304973
-1.4487139 -0.9719385 0.9039801 0.31726208 0.17951192 -0.06150356 1.478733 0.13630548
0.43423152 -0.83761746 0.17580552 0.0979776 0.7261809 -0.31546158 -0.8706352 0.34228602
0.18698774 0.19049442 -0.3961524 0.41913456 0.27569208 -0.3244687 -0.11171998 -16.376417
0.08448284 -0.29933378 -0.23657405 0.013350417 0.2911534 0.02634719 2.9063654 0.56051224
0.87186754 -0.24648497 -0.04991602 -0.030883659 -0.27892482 0.11569242 0.0946556 -0.10269692
0.12858629 -0.12819761 0.1270818 0.031490393 0.0843478 0.08182015 0.15554452 -0.10145803
-0.016725013 -0.08160046 0.005382706 -0.13908325 0.008615087 0.72773033 1.259085 -1.0640961
0.4617236 0.26464143 -0.17372575 0.55867165 -1.3397986 0.35013318 0.49600446 -0.44190308
-0.026533607 0.55625093 2.1610618 0.24774405 -0.33543324 -0.22953348 0.21108781 0.3507749
-1.2340469 0.21813765 -0.3138297 -0.6754541 0.06873129 0.018044123 0.030494142 0.13232166
0.038164537 -0.018180054 0.04665279 -0.12714481 -0.267974 -0.045497004 -0.038599137 -0.124332055
0.032277647 0.35450575 -0.29586172 0.0076611284 0.5825149 0.028693106 -0.10687266 -16.40096
-0.0023450104 -0.24552134 0.014164444 -0.4722479 0.05471122 0.13902296 -2.2303312 -3.879576
00000000: 38c8 923c 3c2b 8a3f e540 b4bf e449 fb3e
00000010: ee7b bb3f 864a 5bbe 7c8e fa3c e2d0 5fc1
00000020: e7e1 1b3f ddd0 2abe 0874 87bc 6549 1ebc
00000030: dc33 383e 504c c23c f100 2abe f6ae 773e
00000040: 3a19 84bd 6ccd 27bd b8a4 0d3e 6954 233e
00000050: 128b fe3c 77a8 78be c009 823e d5f8 66be
00000060: 0961 103e ff04 49be 762c 8fbf 14c9 25bf
00000070: 1b1d 6dbf 5f12 d63e 6136 593e 7434 033f
00000080: 5c21 70bf c5f4 ec3e ab07 8ebe beb9 cebe
00000090: cb53 b53e cc6e 873f a8a2 c5bf 01ca febe
000000a0: a057 dc3f b7fe d43e dcb1 463d 198b 233f
000000b0: 29f0 0fbf f1c6 923d 591f 863e 45d9 a63e
000000c0: 6505 d7bc 71fc 243f 573b f1bf 6b78 06bf
000000d0: 4a30 c03e 426f 0b3d e9c3 c2be 2a88 563f
000000e0: 9429 083f 9f53 1a3d d477 a23e b459 8bbe
000000f0: 1fe1 7ebe 278b 9abe 0bbf 47be 8d6b a2bf
00000100: 101c 203f 04f4 29be 974c a53e f8ad 5e3e
00000110: fd67 81bf 4b9e e2be 998c 1cc0 cffe 083f
00000120: bb05 40be a67f b9bc 8232 4fbe 8134 14be
00000130: a149 953d 78f4 b4bd 50e0 db3d dde5 603e
00000140: 60bf b9bc 2669 943d cf31 89be a3f5 85be
00000150: 973c 463d ea22 563f 105e abbf 3fcb 37c0
00000160: f24a e73f c60c 00bf bb62 bfbe 7cf5 283d
00000170: c28b 283f 389b 35bf 0649 efbe 2c8e 49bd
00000180: 4c4e 86bd dad1 b03f 59f2 eabe 7bc4 86bd
00000190: 895b cebd d5fb 9ebf b0e7 f1bc 305e 2fbf
000001a0: 4643 a73f 6b03 b0be e1dd ca3d d979 ad3e
000001b0: c734 8dbe 3559 a0bf a52e ffbf 019a 9940
000001c0: 6a3b ffbf 5c36 a63e 3871 1d3f e71c 893e
000001d0: 645f f0bd 6641 2cbe 379d 9bbe 49c9 863e
000001e0: 407e a13e 94b6 703e ec77 04bf ea9d 46bf
000001f0: 6b74 a5be ec67 00be 7b19 e23d dc44 c33e
00000200: 697e 28bf fde9 2cbe b2a0 45be ba28 ff3d
00000210: 55a0 d9be 9dde b63e 2033 0a3f dedc 96bf
00000220: fc4c b8bf 89a7 23bf 1761 213f 713a 883e
00000230: 4dac f23e 0ac5 23be 2e6e 1b3e cf76 223e
00000240: 1a2b b2bf ca45 05bf d97c 96be 4363 28bf
00000250: e02a 883f b2c0 de3d d104 a33f 9333 f2be
00000260: 756f b9bf f6d0 78bf 3d6b 673f 2d70 a23e
00000270: f9d1 373e 28eb 7bbd 1f47 bd3f aa93 0b3e
00000280: 9853 de3e 196e 56bf 5d06 343e 7ba8 c83d
00000290: fee6 393f 2e84 a1be f3e1 5ebf 1d40 af3e
000002a0: b779 3f3e f810 433e 7dd4 cabe ce98 d63e
000002b0: 8327 8d3e c320 a6be 72cd e4bd e702 83c1
000002c0: 5705 ad3d 4742 99be 7840 72be b5bb 5a3c
000002d0: 0f12 953e 10d6 d73c e401 3a40 bb7d 0f3f
000002e0: b632 5f3f 8e66 7cbe be74 4cbd baff fcbc
000002f0: 3ccf 8ebe 26f0 ec3d ccda c13d c352 d2bd
00000300: 20ac 033e 3c46 03be bb21 023e 12fc 003d
00000310: 8abe ac3d 5391 a73d 1047 1f3e 3ac9 cfbd
00000320: e502 89bc 241e a7bd 6961 b03b d76b 0ebe
00000330: 4b26 0d3c 894c 3a3f b329 a13f 4d34 88bf
00000340: 0967 ec3e 157f 873e 2ae5 31be 1b05 0f3f
00000350: 857e abbf a844 b33e 4cf4 fd3e 1f41 e2be
00000360: 025d d9bc 7666 0e3f d64e 0a40 9eb0 7d3e
00000370: e8bd abbe d30a 6bbe 6727 583e c598 b33e
00000380: 40f5 9dbf 7a5f 5f3e 49ae a0be 8fea 2cbf
00000390: fec2 8c3d 45d1 933c dace f93c 547f 073e
000003a0: 6b52 1c3d 56ee 94bc ff16 3f3d 4032 02be
000003b0: e333 89be 115b 3abd 211a 1ebd cea1 febd
000003c0: 9135 043d c781 b53e 307b 97be 340a fb3b
000003d0: b21f 153f ce0d eb3c 0ee0 dabd 2b35 83c1
000003e0: bfae 19bb f269 7bbe fc11 683c 7aca f1be
000003f0: df18 603d 095c 0e3e bfbd 0ec0 f94a 78c0

network.0.bias f4 [128]
-0.6018747 -0.23821409 0.49676314 1.1254603 1.019136 0.18233253 -0.30294108 0.18189503
0.07476254 0.03412245 0.7529226 0.12533858 -0.53664386 0.25915572 -0.6391878 0.34251398
-0.15174673 0.56702715 0.6906264 -0.061302096 -0.7509132 0.37870818 0.30622244 -0.20413871
0.1314573 0.6832178 0.7501937 -0.061748307 0.95815843 0.8389319 0.28468606 -0.26550543
-0.0016988057 -0.3195483 -0.53576994 -0.061931238 0.97104275 0.088567235 -1.1096461 -0.40967384
-0.5151133 -0.2881807 0.6969987 -0.88047206 -0.19228306 -0.079617895 0.11022489 -0.18746936
0.6402879 0.85646284 -0.1704892 -0.44270107 0.456766 -0.9023687 -0.1498177 0.824236
-0.5738473 0.51736933 -0.12580617 -0.50735754 -0.79630566 0.39441147 -0.7314225 0.13486443
0.7395472 -0.23831987 -0.19838963 -0.10592192 -0.39755148 -0.111261964 0.23627454 -0.21012472
-0.42565757 0.8065658 -0.7357323 -0.0060740463 -1.3449339 -0.7913971 0.5878675 0.088110745
-0.31411895 0.10059574 0.22102368 0.17215037 0.262067 -0.116490036 0.5452509 0.15027341
0.29656994 -0.06796763 0.9421902 -0.538911 0.39730018 0.20858863 -0.7590148 0.740491
0.85453004 -0.07793269 -0.23920158 0.40682963 0.53864574 -0.060777344 -0.19044732 0.34274334
-0.016114108 0.1322543 -0.26959968 0.17079744 -0.12767617 -0.61033696 0.8257761 -0.3843102
0.08207329 -0.9009867 -0.37161446 0.5561113 0.036516987 -0.27597693 0.6150885 0.3229324
-0.94882274 0.011658091 -0.20738459 -0.094713025 -0.71940184 -0.14818673 1.0900946 0.054061823
00000000: 7614 1abf 65ee 73be bd57 fe3e 150f 903f
00000010: 0c73 823f 61b5 3a3e 181b 9bbe b142 3a3e
00000020: 1a1d 993d fbc3 0b3d 89bf 403f c258 003e
00000030: 7e61 09bf 0fb0 843e d0a1 23bf fe5d af3e
00000040: 7f63 1bbe b128 113f e4cc 303f e817 7bbd
00000050: d93b 40bf 0ae6 c13e 30c9 9c3e bd09 51be
00000060: be9c 063e 5de7 2e3f b20c 403f cbeb 7cbd
00000070: df49 753f 3ec4 563f 5fc2 913e 54f0 87be
00000080: 76aa deba d69b a3be 3828 09bf 9cab 7dbd
00000090: 4296 783f bd62 b53d e208 8ebf c5c0 d1be
000000a0: 77de 03bf 6c8c 93be 826e 323f 9e66 61bf
000000b0: dae5 44be b50e a3bd 96bd e13d f8f7 3fbe
000000c0: e8e9 233f 2641 5b3f b994 2ebe b7a9 e2be
000000d0: 3cdd e93e a301 67bf d069 19be 2101 533f
000000e0: a8e7 12bf 5172 043f 55d3 00be 2fe2 01bf
000000f0: b0da 4bbf 4df0 c93e 813e 3bbf e719 0a3e
00000100: f752 3d3f 200a 74be a726 4bbe 97ed d8bd
00000110: de8b cbbe 50dd e3bd f4f1 713e ef2a 57be
00000120: caef d9be 197b 4e3f f458 3cbf cb08 c7bb
00000130: cb26 acbf 0099 4abf 7c7e 163f 6873 b43d
00000140: 33d4 a0be 2405 ce3d 0854 623e 3048 303e
00000150: a52d 863e 5492 eebd 9095 0b3f 46e1 193e
00000160: 04d8 973e 9d32 8bbd 6033 713f 12f6 09bf
00000170: ee6a cb3e 4298 553e cb4e 42bf d190 3d3f
00000180: 7bc2 5a3f 2d9b 9fbd 42f1 74be f94b d03e
00000190: b0e4 093f aaf1 78bd 9f04 43be 0e7c af3e
000001a0: bc01 84bc ac6d 073e f808 8abe 86e5 2e3e
000001b0: 8bbd 02be 0b3f 1cbf 1066 533f 4ec4 c4be
000001c0: 0b16 a83d 10a7 66bf 4044 bebe 4f5d 0e3f
000001d0: d692 153d d94c 8dbe 7176 1d3f 6557 a53e
000001e0: 0ce6 72bf 9401 3f3c a05c 54be e7f8 c1bd
000001f0: b82a 38bf 43be 17be 3888 8b3f ee6f 5d3d

network.2.weight f4 [128, 128]
-4.47958 -0.054615036 -0.20149665 -0.22775732 -0.15881121 -1.4299259 -0.021171616 -1.8898658
0.12477336 -0.53954345 0.061341763 0.3492419 1.35655 -1.1651756 -2.960878 0.5678358
-0.074254684 0.34201053 0.63384855 -0.042819407 -2.3763146 -2.46006 -1.5591192 0.011158209
0.780106 -0.56381965 -0.14744607 -0.5589171 -0.222116 0.25477615 0.29959953 0.113564916
-1.0958778 1.3417366 -0.012228959 0.7035135 -0.08566228 -0.42202672 -0.64663 -1.9128802
-0.5489591 -0.017383456 0.09768614 -2.4844832 -2.307849 -0.035291787 -0.52447504 0.8017967
-0.015221357 -0.41003898 -1.6745789 -1.0049741 -0.07718039 0.81929386 -0.01656326 -0.050869558
-0.28077897 -0.22149429 0.6979238 1.0129037 -2.1536868 -1.6753482 0.17241745 -1.6143992
0.04416989 0.056698512 0.04904548 -0.036815472 0.8181192 -0.11819947 -1.1257997 0.13651401
-0.42133078 -0.2802013 -1.5511245 -0.975947 -0.021599842 0.3944814 -0.14025305 -0.25483048
-2.415787 -1.1429284 1.247655 0.19269893 0.54057753 -0.0041938117 -0.22032706 1.3944825
-0.08288057 0.8852776 -1.7718035 -0.4462474 -0.08840864 -0.26081255 0.91619134 -0.15975139
0.26002273 -1.8869224 0.07158101 0.11273073 0.2500893 -0.8422061 0.02531856 0.39924678
-0.48268217 0.12095745 -0.051991254 -3.0877035 0.9035585 1.5431467 -0.026302874 -0.4280725
-0.07705855 -0.92259115 0.6141618 -0.16547687 -0.4253951 -0.7568134 -0.42552763 -2.157847
-2.15748 0.6076607 0.049170535 -0.29130948 -0.8600598 0.018407783 -0.42010394 0.42621163
1.5199468 -0.037986416 -3.4357643 -0.5760666 0.15034507 -1.1074746 0.057445798 -0.25130543
-2.2953897 2.0796883 -0.06862778 0.3145041 -3.2149415 0.20319876 1.6492282 -2.1546352
0.011647798 -4.2792506 0.6083532 -0.07548763 0.8831193 -0.17831251 0.006038149 0.0405834
-1.5092207 -0.90625477 0.052852936 -0.8493075 0.09556225 -2.9951866 0.328726 -0.03786711
0.79256105 0.374808 -1.5167278 1.2267768 -0.8683846 -14.022359 -0.63098866 0.3477803
0.63534737 0.016709877 -0.27367917 1.5350854 0.71524304 -0.023876008 -0.5063239 0.043954503
-3.0001025 0.5962244 0.7260729 0.3162301 -0.0111358045 -0.009172901 -0.09210167 0.7224624
-4.6062384 -0.8629863 0.46541524 0.33328086 -2.7436728 -3.5821347 0.25028038 0.20437707
-3.7481549 0.0098152 -3.1649961 0.035873227 0.6218497 -0.33644766 -0.38810995 -0.004841045
2.66961 -0.23437051 1.4899583 0.042951036 0.16711757 -0.09795097 0.39074522 -1.147793
-0.1867272 0.3278186 2.3453388 -1.9745512 -0.291268 0.05724048 0.3666798 -0.54909307
-0.22237816 -0.07039636 -0.099208914 -3.6128044 0.6066232 0.18843384 0.48355475 -0.31749097
0.0374606 -1.9528009 -0.022374345 0.25425768 -0.53865093 1.8388709 -0.000266779 -0.1514889
-6.642367 0.16066115 -0.04514663 0.093541116 -0.37208655 0.7050283 0.07867842 -0.8617327
-0.0049162083 3.3196776 0.7930408 -1.2969574 -0.5114823 0.4497597 0.006554267 -0.24767444
1.2557575 0.60401183 -0.035608113 -0.43092558 -0.7054406 -0.047229685 0.1892853 -3.112021
00000000: b858 8fc0 04b4 5fbd 2355 4ebe 3739 69be
00000010: 689f 22be d007 b7bf 1970 adbc 1fe7 f1bf
00000020: 2d89 ff3d 851f 0abf 8041 7b3d d6cf b23e
00000030: 6ea3 ad3f 7924 95bf 067f 3dc0 b05d 113f
00000040: d712 98bd 011c af3e e643 223f 6763 2fbd
00000050: 8a15 18c0 9f71 1dc0 3891 c7bf ecd0 363c
00000060: 07b5 473f 7c56 10bf 1afc 16be 3115 0fbf
00000070: 6072 63be 0572 823e 1c65 993e b994 e83d
00000080: b945 8cbf 06be ab3f f95b 48bc 7619 343f
00000090: b56f afbd e313 d8be 8b89 25bf 42d9 f4bf
000000a0: 9588 0cbf c067 8ebc ac0f c83d c601 1fc0
000000b0: ccb3 13c0 1f8e 10bd ff43 06bf 8c42 4d3f
000000c0: 0063 79bc a1f0 d1be 9a58 d6bf fea2 80bf
000000d0: c110 9ebd 3ebd 513f adaf 87bc 995c 50bd
000000e0: 43c2 8fbe 66cf 62be 22ab 323f d4a6 813f
000000f0: 01d6 09c0 cf71 d6bf 338e 303e a2a4 cebf
00000100: 7deb 343d b33c 683d eae3 483d d2cb 16bd
00000110: 4370 513f 9012 f2bd 341a 90bf 54ca 0b3e
00000120: abb8 d7be 8b76 8fbe 3f8b c6bf aad7 79bf
00000130: 27f2 b0bc 77f9 c93e 7f9e 0fbe 2479 82be
00000140: 419c 1ac0 7a4b 92bf 29b3 9f3f de52 453e
00000150: 4a63 0a3f 3e6c 89bb 6b9d 61be 677e b23f
00000160: 4abd a9bd 8ea1 623f 75ca e2bf 8a7a e4be
00000170: 970f b5bd 3989 85be 848b 6a3f de95 23be
00000180: b321 853e ac86 f1bf 1199 923d 5edf e63d
00000190: b40b 803e d29a 57bf de68 cf3c 136a cc3e
000001a0: 1e22 f7be 8ab8 f73d c8f4 54bd ef9c 45c0
000001b0: 9c4f 673f d585 c53f 2079 d7bc 522c dbbe
000001c0: e0d0 9dbd ef2e 6cbf b539 1d3f c572 29be
000001d0: 63cd d9be 86be 41bf c2de d9be 2a1a 0ac0
000001e0: 2714 0ac0 a78f 1b3f 0b67 493d 8426 95be
000001f0: e12c 5cbf ebcb 963c dd17 d7be 6938 da3e
00000200: 9e8d c23f a597 1bbd 90e3 5bc0 1a79 13bf
00000210: 0ff4 193e bac1 8dbf 494c 6b3d 1bab 80be
00000220: aae7 12c0 9d19 0540 b98c 8cbd ae06 a13e
00000230: 9ac1 4dc0 5613 503e e919 d33f 8be5 09c0
00000240: 68d6 3e3c 9fef 88c0 09bd 1b3f 4299 9abd
00000250: 1b14 623f 8e97 36be aadb c53b c73a 263d
00000260: 252e c1bf 5000 68bf 527c 583d 376c 59bf
00000270: 24b6 c33d 23b1 3fc0 c64e a83e 8b1a 1bbd
00000280: 48e5 4a3f d6e6 bf3e 2324 c2bf 0607 9d3f
00000290: 744e 5ebf 955b 60c1 7988 21bf 4210 b23e
000002a0: 20a6 223f 27e3 883c ad1f 8cbe ae7d c43f
000002b0: 2b1a 373f 9e97 c3bc 719e 01bf a309 343d
000002c0: ae01 40c0 2aa2 183f eadf 393f e9e8 a13e
000002d0: f372 36bc ef49 16bc cd9f bcbd 4cf3 383f
000002e0: 4e66 93c0 acec 5cbf e84a ee3e caa3 aa3e
000002f0: 5698 2fc0 b241 65c0 c024 803e 3948 513e
00000300: c5e1 6fc0 efcf 203c 4c8f 4ac0 ceef 123d
00000310: 8b31 1f3f de42 acbe 59b6 c6be a1a1 9ebb
00000320: e4da 2a40 d3fe 6fbe f4b6 be3f 6ded 2f3d
00000330: de20 2b3e 859a c8bd c20f c83e e2ea 92bf
00000340: 6a35 3fbe d7d7 a73e 081a 1640 18be fcbf
00000350: 1421 95be fe74 6a3d 74bd bb3e 5d91 0cbf
00000360: 1ab7 63be f72b 90bd 0b2e cbbd 3038 67c0
00000370: a84b 1b3f cdf4 403e 7d94 f73e 2d8e a2be
00000380: 4970 193d 61f5 f9bf 674a b7bc 102e 823e
00000390: 07e5 09bf 1f60 eb3f 79de 8bb9 e81f 1bbe
000003a0: 458e d4c0 5b84 243e aceb 38bd 7c92 bf3d
000003b0: 2182 bebe bc7c 343f 2722 a13d 849a 5cbf
000003c0: 2518 a1bb 9975 5440 b904 4b3f b302 a6bf
000003d0: 81f0 02bf e746 e63e 2dc5 d63b 5e9e 7dbe
000003e0: a9bc a03f 85a0 1a3f d0d9 11bd 47a2 dcbe
000003f0: c197 34bf ea73 41bd 01d4 413e 5a2b 47c0

network.2.bias f4 [128]
-0.15146771 0.010386655 -0.008967617 -0.05225352 0.5053743 -0.03131145 -0.15623814 0.82679945
-0.08404058 -0.04663871 1.2456588 0.5734256 0.73462665 -0.06480768 -0.08590243 0.5731489
-0.081681624 0.006674728 -0.43731815 0.016191864 -0.057308387 -0.044089917 -0.24470553 -0.37444276
-0.19486871 0.34494784 -0.06414164 -0.07571856 0.009977085 -0.122398496 0.8547867 -0.064315155
-0.10258269 -0.063047744 0.8572723 1.2031604 -0.04284222 -0.06928269 1.1309669 -0.024692321
-0.08790395 0.013933028 0.030625273 0.011350375 0.56540745 0.07633255 0.22113658 -0.15319987
0.14894661 -0.09567509 0.023368828 -0.099493 -0.072623424 -0.06290173 -0.7243653 -0.489725
0.4398973 -0.043520954 -0.0251661 -0.11092508 -0.110451974 -0.120853424 0.24500848 -0.105037354
-0.10207302 0.9495797 -0.014444649 -0.37172353 0.9278989 -0.83673793 -0.0321581 0.20423165
0.36842057 -0.21797806 -0.047193784 0.658581 0.88345647 -0.012822949 -0.056746595 -0.08712822
-0.010325029 -0.089838706 -0.33679733 -0.097116925 0.10644669 -0.41495633 -0.10533026 -0.117395304
1.3140951 0.057038747 0.05997459 0.047243625 0.0045314305 -0.06320495 -0.08739132 -0.05104112
0.10794855 -0.05121567 0.043458674 0.2563917 -0.28940964 0.0019249924 -0.2884702 -0.51291794
-0.056978624 -0.029632661 -0.12778948 0.003431143 1.1984067 -0.31420076 0.29431382 -0.020094912
-0.057817325 0.70221436 -0.4286139 1.2061173 -0.13397594 -0.086904526 -0.10875029 -0.13046853
-0.91789 -0.15087925 -0.51806694 -0.019210873 0.27326697 -0.116603486 0.031280376 -0.080824405
00000000: 5a1a 1bbe ca2c 2a3c e9ec 12bc c907 56bd
00000010: 3660 013f 6f40 00bd e4fc 1fbe 21a9 533f
00000020: 781d acbd 3b08 3fbd bf71 9f3f 05cc 123f
00000030: 7e10 3c3f e4b9 84bd 9ded afbd e3b9 123f
00000040: b248 a7bd adb7 da3b 2ae8 dfbe cda4 843c
00000050: 33bc 6abd a197 34bd 1694 7abe f6b6 bfbe
00000060: aa8b 47be 019d b03e b15c 83bd 5512 9bbd
00000070: ed76 233c 10ac fabd 4dd3 5a3f aab7 83bd
00000080: e016 d2bd 2d1f 81bd 3376 5b3f 2901 9a3f
00000090: 537b 2fbd 15e4 8dbd 86c3 903f 8d47 cabc
000000a0: fc06 b4bd 5b47 643c dae1 fa3c ecf6 393c
000000b0: 8bbe 103f 3d54 9c3d a171 623e 6de0 1cbe
000000c0: 7685 183e 4df1 c3bd fc6f bf3c fcc2 cbbd
000000d0: 97bb 94bd 9fd2 80bd 0170 39bf 3cbd fabe
000000e0: 383a e13e 0743 32bd 2329 cebc b02c e3bd
000000f0: a534 e2bd 0082 f7bd 81e3 7a3e d31d d7bd
00000100: a90b d1bd a817 733f 40a9 6cbc 8c52 bebe
00000110: c88a 6d3f 7534 56bf 36b8 03bd 1a22 513e
00000120: 9fa1 bc3e a435 5fbe 454e 41bd c498 283f
00000130: 342a 623f 5917 52bc 1e6f 68bd 4870 b2bd
00000140: 4f2a 29bc 5bfd b7bd b370 acbe 3de5 c6bd
00000150: b900 da3d 2875 d4be 64b7 d7bd f36c f0bd
00000160: 4534 a83f 76a1 693d eaa7 753d 8882 413d
00000170: 657c 943b 9971 81bd 38fa b2bd 7e10 51bd
00000180: 2114 dd3d 86c7 51bd b901 323d c645 833e
00000190: 802d 94be 0750 fc3a 5eb2 93be 974e 03bf
000001a0: 6b62 69bd 32c0 f2bc 3fdb 02be 07dd 603b
000001b0: 6465 993f ecde a0be 4db0 963e 169e a4bc
000001c0: dcd1 6cbd 52c4 333f 4873 dbbe 0d62 9a3f
000001d0: fd30 09be 00fb b1bd 79b8 debd 8b99 05be
000001e0: d7fa 6abf 1780 1abe 09a0 04bf 1f60 9dbc
000001f0: a6e9 8b3e cfcd eebd da1f 003d 4487 a5bd

network.4.weight f4 [6, 128]
0.33908206 0.20236242 -0.082874626 0.06708429 0.79781973 -2.745791 -1.2224334 0.6950125
0.020719085 -0.038937226 0.85578597 -0.1654653 0.6477895 0.06426686 -0.0689536 0.9983261
-0.00018303547 -6.4855747 0.0770157 -0.0034662401 -0.017226625 -1.9103645 3.318101 -0.5275075
-3.4297247 0.6896121 -0.032364294 0.00017770164 0.0084233 0.75363415 0.5670069 -0.009179073
0.07418971 0.05881057 1.4304795 0.24112847 -0.015929801 0.0010834528 0.29871842 -2.587268
-0.026038744 0.062084973 -0.05151854 0.07516157 0.10765811 0.5688055 0.12220844 -0.23665956
-0.13991265 -0.022605702 0.07329129 0.038719717 -0.069242015 -0.0086007295 -0.1864445 0.017603746
0.17412332 -0.026934724 0.076546595 -0.017592963 0.0035882245 0.0039166855 0.8031531 -1.624563
-0.049320832 0.12155615 0.21696989 0.22546089 1.049353 0.046802357 -0.047162205 -0.14624223
0.10604744 -2.083652 -0.018270984 0.87053263 1.4380859 -0.035155404 0.03321156 -0.06728302
-0.07052521 -0.4879849 -0.5391936 -0.07452014 0.15654497 -1.2362972 -0.09325886 0.06321002
0.7960626 0.6461998 -0.018440438 0.13866577 -4.3296905 0.010163321 -0.08410652 0.025509996
1.199404 -0.0056583514 -0.047134176 0.42602083 -0.014889564 0.02761214 -0.706232 1.02434
0.049114697 0.054873437 0.068890475 -0.02389812 1.0033675 -1.6553711 1.0259974 -0.021336379
0.022198081 3.3449664 -3.1860025 1.1038038 -0.047794484 0.085592374 -0.037997786 0.0780501
-0.032700866 -1.2547942 -0.2851271 -0.013487896 0.20262286 0.01929864 -2.280506 0.0087220585
-0.1931027 0.15920055 -0.049752485 -0.020179465 0.98257244 0.3165153 -0.8414617 0.3431872
-0.07044188 0.07210913 0.87126845 1.2615471 0.29851344 0.009247147 0.027366221 -0.013472684
-0.09206916 -0.11481933 -0.7683822 0.027416954 0.05847481 -1.8888131 3.3599281 -0.39703533
0.2684666 0.82562953 -0.044435892 0.085203126 0.05593074 1.6271058 0.39622918 0.050194144
0.0767075 0.09478304 0.38419095 1.2740589 0.06961889 0.07602972 0.32322267 -1.2618656
0.056359705 -0.059878636 0.036357567 0.060643297 0.5975791 2.5486734 -0.01512757 0.49544924
0.3940449 0.029876709 -0.015096195 -0.018948928 -0.024386263 0.0013083813 -0.12754065 -0.2820282
0.5204029 0.054667022 0.37416372 -0.04659139 -0.10578846 0.04949017 0.033548422 -0.4106707
0.029038282 0.77217436 0.14266512 0.33136827 0.5723939 0.274888 0.10955077 0.23891419
1.1911105 -0.8004435 -0.0016278435 0.26631403 0.6683178 0.051004224 -0.0713675 0.023623535
-0.006570032 -0.12073394 -0.60861284 0.20290895 -0.5755638 -0.72302866 -0.020828504 0.0005567999
1.4020092 1.6844091 0.05824494 0.45737565 -0.19626732 -0.030639004 -0.5028595 0.05946065
0.4976665 -0.005603149 -0.10140753 1.0227665 -0.08598044 0.04346388 -0.51644343 -0.84072405
0.04279096 0.0031675012 0.088193245 -0.0545245 0.47879 -3.3094823 -0.18341325 0.078242324
-0.08174811 2.0136893 -1.020039 0.84273344 0.073951304 -0.069074504 0.03163873 0.058442067
-0.21158037 -1.8376658 -2.147584 0.02520899 0.011634142 0.080486655 -1.166649 -0.03658693
00000000: 2a9c ad3e 1838 4f3e 2cba a9bd 7d63 893d
00000010: ea3d 4c3f 0abb 2fc0 b378 9cbf 57ec 313f
00000020: 12bb a93c a47c 1fbd ca14 5b3f bc6f 29be
00000030: 88d5 253f 589e 833d 8c37 8dbd 4d92 7f3f
00000040: 36ed 3fb9 d489 cfc0 68ba 9d3d dc29 63bb
00000050: da1e 8dbc d386 f4bf c45b 5440 bb0a 07bf
00000060: 9c80 5bc0 6b8a 303f 6c90 04bd 6c55 3a39
00000070: e201 0a3c 2bee 403f 5d27 113f d363 16bc
00000080: c6f0 973d 5ae3 703d f419 b73f 62ea 763e
00000090: 377f 82bc a502 8e3a 9ff1 983e cd95 25c0
000000a0: 344f d5bc d04c 7e3d 1b05 53bd 4fee 993d
000000b0: db7b dc3d 3d9d 113f 6b48 fa3d e256 72be
000000c0: 4345 0fbe 982f b9bc be19 963d 9198 1e3d
000000d0: c2ce 8dbd 13ea 0cbc 4feb 3ebe bb35 903c
000000e0: 624d 323e 36a6 dcbc 76c4 9c3d 1e1f 90bc
000000f0: 6b28 6b3b 8a57 803b 719b 4d3f aef1 cfbf
00000100: a404 4abd 6ef2 f83d 5b2d 5e3e 38df 663e
00000110: 3351 863f d4b3 3f3d 282d 41bd 86c0 15be
00000120: 662f d93d 8e5a 05c0 08ad 95bc 3adb 5e3f
00000130: 3313 b83f 1dff 0fbd d808 083d aecb 89bd
00000140: 856f 90bd 28d9 f9be 9708 0abf 049e 98bd
00000150: 534d 203e fd3e 9ebf 80fe bebd 4174 813d
00000160: c2ca 4b3f 5a6d 253f 6710 97bc 66fe 0d3e
00000170: d38c 8ac0 0f84 263c 0a40 acbd 57fa d03c
00000180: 1286 993f b169 b9bb c40f 41bd 671f da3e
00000190: 5cf3 73bc db32 e23c 9fcb 34bf 931d 833f
000001a0: 7e2c 493d f8c2 603d 7316 8d3d fdc5 c3bc
000001b0: 596e 803f 33e3 d3bf e253 833f a1c9 aebc
000001c0: c0d8 b53c ee13 5640 77e7 4bc0 7149 8d3f
000001d0: 26c4 43bd 0e4b af3d 91a3 1bbd bbd8 9f3d
000001e0: 58f1 05bd 199d a0bf 2efc 91be 56fc 5cbc
000001f0: 5e7c 4f3e 2e18 9e3c cff3 11c0 f7e6 0e3c
00000200: b7bc 45be 7805 233e 43c9 4bbd 684f a5bc
00000210: de89 7b3f 4b0e a23e 096a 57bf 3cb6 af3e
00000220: d543 90bd f4ad 933d 730b 5f3f 607a a13f
00000230: c1d6 983e 5881 173c 202f e03c 88bc 5cbc
00000240: c18e bcbd 6626 ebbd b2b4 44bf 8599 e03c
00000250: 4883 6f3d a1c4 f1bf 1009 5740 3748 cbbe
00000260: 7474 893e 755c 533f 6902 36bd fa7e ae3d
00000270: a217 653d 0145 d03f 8dde ca3e 6098 4d3d
00000280: d218 9d3d 9c1d c23d adb4 c43e 5d14 a33f
00000290: 5994 8e3d 78b5 9b3d 717d a53e d084 a1bf
000002a0: 6fd9 663d 4d43 75bd aceb 143d 1b65 783d
000002b0: f2fa 183f 771d 2340 a1d9 77bc 86ab fd3e
000002c0: 41c0 c93e 00c0 f43c 0856 77bc c83a 9bbc
000002d0: b3c5 c7bc fe7d ab3a 049a 02be 0066 90be
000002e0: 2039 053f 87ea 5f3d 6392 bf3e 9dd6 3ebd
000002f0: 9fa7 d8bd 34b6 4a3d 126a 093d 6e43 d2be
00000300: b1e1 ed3c 38ad 453f ce16 123e 1aa9 a93e
00000310: 6888 123f 1fbe 8c3e 275c e03d eca5 743e
00000320: 4f76 983f dde9 4cbf 5d5d d5ba 505a 883e
00000330: e016 2b3f cee9 503d 2029 92bd 2586 c13c
00000340: 6c49 d7bb 5b43 f7bd 0dce 1bbf 5dc7 4f3e
00000350: 2658 13bf 6818 39bf 8aa0 aabc 35f6 113a
00000360: 0a75 b33f b89a d73f 3f92 6e3d 242d ea3e
00000370: 4dfa 48be a6fe fabc 66bb 00bf 038d 733d
00000380: 25ce fe3e 9f9a b7bb c0ae cfbd 03ea 823f
00000390: 8316 b0bd 2e07 323d a335 04bf b139 57bf
000003a0: 9345 2f3d da95 4f3b a99e b43d 1555 5fbd
000003b0: f623 f53e 8fce 53c0 afd0 3bbe 833d a03d
000003c0: 8e6b a7bd 49e0 0040 a390 82bf 61bd 573f
000003d0: c873 973d ef76 8dbd 9d97 013d f360 6f3d
000003e0: 86a8 58be a238 ebbf 0472 09c0 1583 ce3c
000003f0: 219d 3e3c 30d6 a43d c154 95bf 2ddc 15bd

network.4.bias f4 [6]
0.8534462 0.8412175 0.41096452 0.70332277 0.4907931 0.9889899
00000000: 737b 5a3f 085a 573f f169 d23e f60c 343f
00000010: 3c49 fb3e 712e 7d3f
